src/models/saved_models/best_dueling_dqn.pt (torch, 814347 bytes, 13 tensors)

conv_block.0.weight f4 [128, 2, 4, 4]
0	0x3d2ed7cf	0.04268628
1	0xbbd240d6	-0.0064164205
2	0x3cfe2de8	0.03102775
3	0x3c2b21b2	0.010445045
4	0x3d2a1550	0.04152423
5	0x3d9bd4a2	0.07608916
6	0x3d44b3c4	0.048023
7	0x3de075c9	0.10959966
8	0xbd2bc7da	-0.04193864
9	0xbd556f29	-0.052107964
10	0x3d011151	0.031510655
11	0x3e726041	0.2366953
12	0xbdb558c4	-0.08854821
13	0xbd63d5ea	-0.055623926
14	0xbdd4f5e9	-0.10398466
15	0x3e1b56d4	0.15169841
16	0xbd149753	-0.036277127
17	0x3c6b40c2	0.014358701
18	0xbd80c0df	-0.06286787
19	0xbe537cf3	-0.20653133
20	0xbe040e0c	-0.12895983
21	0xbdc95b23	-0.09831836
22	0xbd47fd23	-0.048825394
23	0xbebf04a4	-0.37308228
24	0x3c6c40da	0.014419759
25	0x3c809a29	0.01569851
26	0xbd31b138	-0.0433819
27	0xbe7918a1	-0.24325801
28	0x3cf99d82	0.030470613
29	0x3ccc54bc	0.024942748
30	0x3d940521	0.07227541
31	0xbe62be9d	-0.22143026
32	0x3ce5f92b	0.028072914
33	0xbd5f4ee8	-0.05451861
34	0xbd8a4731	-0.0675186
35	0x3bfe3128	0.0077573247
36	0xbd0d9a5e	-0.034571044
37	0xbcb1bf1b	-0.021697572
38	0xbd09c4c6	-0.033634923
39	0xbdf7dc18	-0.121025264
40	0x3ce1f666	0.027583312
41	0xbcee2993	-0.029072559
42	0x3c18d007	0.009326941
43	0xbdbc81f9	-0.09204478
44	0xbdadf27b	-0.08493515
45	0x3d19e00b	0.03756718
46	0xbcc891dc	-0.024483614
47	0x3e18316a	0.148626
48	0xbd2e6054	-0.042572334
49	0xbdda44fd	-0.1065769
50	0xbc17c53d	-0.009263334
51	0xbdec23ff	-0.11530303
52	0xbd112e01	-0.035444263
53	0xbd3219b7	-0.043481555
54	0xbd39f789	-0.045402084
55	0x3e5065b5	0.20351298
56	0xbc258cc1	-0.010104359
57	0xbd025d95	-0.031827528
58	0xbd5637db	-0.05229936
59	0xbdeb8eb9	-0.115018316
60	0x3d231d61	0.03982294
61	0xbdb68caf	-0.08913552
62	0x3a926435	0.001116878
63	0xbe5362c3	-0.20643143
64	0x3d40fc89	0.047115836
65	0x3dd00e56	0.10158984
66	0xbd7cf177	-0.061753716
67	0xbcf1b7db	-0.029506614
68	0x3d73e11b	0.05954085
69	0xbbf9ec50	-0.0076270476
70	0xbd09db68	-0.033656508
71	0xbcc66fb4	-0.024223186
72	0x3dbd9395	0.09256665
73	0xbd496d2d	-0.049176384
74	0xbd89e1ad	-0.06732497
75	0xbb91e7b0	-0.004452668
76	0x3db0a8a6	0.08625917
77	0x3dc54a73	0.09633341
78	0xbc901ed2	-0.017592821
79	0xbd9bbb88	-0.07604128
80	0xbd0b5dae	-0.034024887
81	0xbdabd3bb	-0.08389994
82	0xbd416ad5	-0.047221024
83	0xbc2c9bb4	-0.010535169
84	0xbd705e4e	-0.058683686
85	0x3bcea2cb	0.0063060275
86	0xbd7d881a	-0.061897375
87	0x3bc42629	0.0059859944
88	0x3d559115	0.052140314
89	0x3b172b8f	0.0023066734
90	0x3d0e01b3	0.03466959
91	0xbd8abae8	-0.06773931
92	0x3d54d41e	0.051960103
93	0x3d4ace48	0.04951313
94	0xbcf19e7d	-0.029494518
95	0xbda3dfad	-0.08001647
96	0xbca1c2fd	-0.019746298
97	0x3d21684e	0.039406113
98	0xbd05490b	-0.032540362
99	0x3df4eef3	0.119596384
100	0xbe02963b	-0.12752621
101	0xbe663659	-0.2248167
102	0xbe70ed63	-0.23528056
103	0x3c2fb617	0.010724566
104	0xbd056bae	-0.032573394
105	0x3d6614f2	0.05617232
106	0x3d9ad879	0.0756082
107	0xbd84c054	-0.06481996
108	0x3d957920	0.072984934
109	0x3d76e9a5	0.060281415
110	0x3de73b5b	0.11290618
111	0xbdaa74ca	-0.08323057
112	0x3cd17f82	0.025573496
113	0xbd1c0696	-0.03809222
114	0x3caabe6d	0.020842755
115	0xbdc9778f	-0.09837257
116	0x3dd01720	0.10160661
117	0x3e0044a3	0.12526183
118	0x3dd7dc61	0.10540081
119	0x3e6679a4	0.2250734
120	0x3bfea666	0.007771301
121	0xbce94096	-0.02847318
122	0x3dfbdbb6	0.12297766
123	0xbe048e0c	-0.12944812
124	0xbb5aabd7	-0.0033366585
125	0x3d3a6d68	0.045514494
126	0x3d8754f7	0.06608003
127	0xbe086449	-0.13319506
128	0xbd73f331	-0.059558097
129	0xbd6e031c	-0.058108434
130	0x3d987375	0.07443897
131	0x3e8c49a0	0.2739992
132	0xbcd2a86e	-0.02571508
133	0xbccdb075	-0.025108555
134	0xbdee0040	-0.116211414
135	0xbdb7ffd8	-0.08984345
136	0xbcd726fb	-0.026263705
137	0x3e37effd	0.17962642
138	0x3d769f8b	0.060210746
139	0xbd1c6915	-0.03818615
140	0x3e89604c	0.2683128
141	0xbd8cb66f	-0.06870734
142	0x3c8ebf4c	0.017425202
143	0xbd98e97c	-0.074664086
144	0x3bcf060e	0.0063178604
145	0x3d06f6b6	0.032950126
146	0x3d09d679	0.033651803
147	0xbe62dd62	-0.22154763
148	0xbc8ec6b0	-0.017428726
149	0xbbd5652c	-0.006512305
150	0xbe5935d6	-0.21211943
151	0xbc9386de	-0.018008646
152	0x3be7e43f	0.0070767696
153	0xbe8adc09	-0.27120999
154	0x3dc90250	0.09814894
155	0xbc34500e	-0.011005415
156	0xbe66156f	-0.22469114
157	0xbae01b1f	-0.0017097926
158	0x3d33196e	0.043725424
159	0xbd3e9e7a	-0.046537854
160	0xbe2cbfa0	-0.16869974
161	0xbe54d600	-0.2078476
162	0xbe247624	-0.16060692
163	0xbe49b61b	-0.19698374
164	0x3dba1ec2	0.09087898
165	0x3d331ba4	0.043727532
166	0x3e35a694	0.17739326
167	0xbd98fc7f	-0.07470035
168	0x3dbbfdbb	0.091792546
169	0x3df4102e	0.119171485
170	0x3d1fd399	0.039020155
171	0xbdbb6f4c	-0.091520876
172	0x3dc38684	0.09547141
173	0x3c255922	0.010092052
174	0xbabe86ce	-0.0014536025
175	0xbc927631	-0.017878624
176	0x3cd65fa9	0.026168661
177	0x3e25d4a9	0.16194405
178	0x3e29fc21	0.16600086
179	0xbc102a8a	-0.008799205
180	0xbd9693e1	-0.073524244
181	0xbc958159	-0.018250154
182	0xbdabe1cc	-0.08392677
183	0x3cfbca30	0.030736059
184	0xbd57d4b3	-0.05269308
185	0xbdea713a	-0.114473775
186	0xbd203881	-0.039116386
187	0x3d2a3bc9	0.04156092
188	0xbe0989ef	-0.13431524
189	0xbcd3ef7b	-0.02587103
190	0xbcac85e8	-0.021059945
191	0x3dac2cd4	0.08406988
192	0xbe8b5f90	-0.27221346
193	0xbd106ac6	-0.035258077
194	0xbc1fe2c1	-0.009758652
195	0xbe03be07	-0.12865458
196	0xbe7fd095	-0.24981911
197	0xbd09485d	-0.033516277
198	0xbe0921d7	-0.13391815
199	0x3c74c0bf	0.014938532
200	0xbe979e62	-0.29613024
201	0xbdd5c984	-0.10438827
202	0x3c26979a	0.010167981
203	0xbc760047	-0.015014715
204	0xbee77054	-0.45202887
205	0xbdc9d201	-0.09854508
206	0xbda90d63	-0.082545064
207	0xbdab3bf7	-0.08361047
208	0x3c96984d	0.01838317
209	0x3b7c96a1	0.003854193
210	0xbbbcfb68	-0.0057672746
211	0x3e3ef7cb	0.18649213
212	0x3e8a5ddc	0.27024734
213	0x3b78d474	0.0037968429
214	0x3e02996f	0.12753843
215	0x3c50f834	0.012754489
216	0x3e50fac9	0.20408167
217	0x3dcd664f	0.100292794
218	0x3d2e7305	0.04259016
219	0xba8f5fa0	-0.0010938533
220	0x3e93dc62	0.28879076
221	0x3e22ba6e	0.1589143
222	0x3e10a82b	0.14126651
223	0x3e004f97	0.12530361
224	0xbe4d929a	-0.20075455
225	0x3a6e256f	0.00090845575
226	0x3c979c2b	0.018507084
227	0x3c5cb35b	0.013470496
228	0x3d03376d	0.03203528
229	0xbca1c1a4	-0.019745655
230	0xbc7f6f75	-0.015590538
231	0x3d27ed12	0.040997572
232	0x3d8119f1	0.06303776
233	0x3cdf61b0	0.02726826
234	0x3ddef65b	0.10886832
235	0xbb0eee18	-0.0021809395
236	0x3db6755c	0.08909103
237	0xbd5cbe17	-0.05389222
238	0x3d268cce	0.040661626
239	0xbe7e785a	-0.24850598
240	0x3e5288f7	0.2056006
241	0xbc8b0ac7	-0.016972912
242	0xbd707a5c	-0.05871044
243	0xbcfa29f9	-0.030537592
244	0x3d96984d	0.07353268
245	0xbdcf9a50	-0.10136855
246	0xbbca51cf	-0.006174303
247	0xbd2c8b11	-0.04212481
248	0x3dd2d68b	0.10294827
249	0x3d95b150	0.0730921
250	0xbe65dc99	-0.22447433
251	0xbca0562a	-0.019572336
252	0x3d8778df	0.06614851
253	0xbd52020d	-0.051271487
254	0x3d57e839	0.0527117
255	0x3e67791d	0.22604795

conv_block.0.bias f4 [128]
0	0xbdc29c74	-0.09502497
1	0xbdfd9583	-0.12382033
2	0xbe277426	-0.16352901
3	0xbe6a9720	-0.22909212
4	0xbee01b42	-0.43770796
5	0xbe3b6690	-0.18300843
6	0xbea5d904	-0.32392132
7	0xbe3c6b3e	-0.18400285
8	0xbe68704b	-0.22699086
9	0xbe9f02bc	-0.31056774
10	0xbe8f9257	-0.28041336
11	0xbe9a68a5	-0.30157962
12	0x3c7fa9a3	0.015604409
13	0xbdfc3cad	-0.123162605
14	0xbe784ac0	-0.24247265
15	0xbe55a053	-0.2086194
16	0xbf14afe1	-0.5808087
17	0xbe78c573	-0.24294071
18	0xbe5c2d3a	-0.21501628
19	0xbe17f528	-0.14839613
20	0xbdb2eae2	-0.087362066
21	0xbee891d1	-0.4542375
22	0xbe0375c3	-0.12837891
23	0xbdd362b4	-0.103215605
24	0xbdea45a3	-0.114390634
25	0xbebd9415	-0.3702704
26	0xbe240786	-0.16018495
27	0xbbf57dae	-0.007491789
28	0xbe17cec7	-0.14824973
29	0xbec775fb	-0.389572
30	0xbc3c8e89	-0.011508592
31	0xbe29f8f9	-0.16598882
32	0xbe3fd671	-0.18734147
33	0xbdede52e	-0.11615978
34	0xbe3edb96	-0.18638453
35	0xbe5168ff	-0.20450209
36	0xbe9c07ab	-0.304746
37	0xbe3dcfc8	-0.18536294
38	0xbd1e2595	-0.03861006
39	0xbdebb803	-0.11509707
40	0xbd38f6f1	-0.045157377
41	0xbe63100d	-0.22174092
42	0xbe3da507	-0.18519984
43	0xbec6f03a	-0.38855153
44	0xbe3a5222	-0.18195394
45	0xbcafa0d9	-0.021439003
46	0xbe3393df	-0.17536877
47	0xbea53c76	-0.3227269
48	0xbeb7430c	-0.3579334
49	0xbead3fcc	-0.33837736
50	0xbe044ee4	-0.1292072
51	0xbe24ed47	-0.16106139
52	0xbee3d920	-0.4450159
53	0xbe1351dd	-0.14386697
54	0xbe055963	-0.1302238
55	0xbdf18088	-0.117920935
56	0xbdc63279	-0.09677596
57	0xbe355813	-0.17709379
58	0xbe9deda5	-0.3084537
59	0xbdc5ae7e	-0.09652422
60	0xbe3774c0	-0.1791563
61	0xbed86f45	-0.42272392
62	0x3ceddc81	0.029035809
63	0xbe1d6d89	-0.15373816
64	0xbdd06560	-0.10175586
65	0xbdcf5bef	-0.10124957
66	0xbe6f49b3	-0.23367958
67	0xbe7f0200	-0.24903107
68	0xbe8086ff	-0.25102994
69	0xbe7a6f99	-0.24456634
70	0xbe29addf	-0.16570233
71	0xbe717a05	-0.23581703
72	0xbe74534f	-0.23859905
73	0xbe4abb44	-0.19797999
74	0x3c9aa6cc	0.018878363
75	0xbe5814e5	-0.2110172
76	0xbe93fea4	-0.28905213
77	0xbee54fe8	-0.44787526
78	0xbe732626	-0.23745021
79	0xbdeecba9	-0.11659939
80	0xbe5f1393	-0.2178481
81	0xbdc4ed30	-0.096155524
82	0xbe7b4ea3	-0.24541716
83	0xbe38cec8	-0.18047631
84	0xbd5466d8	-0.051855892
85	0xbd13a819	-0.036048982
86	0xbcf4c27d	-0.029877895
87	0xbe0aea9f	-0.13566063
88	0xbdacf911	-0.08445943
89	0xbe81d40a	-0.25357085
90	0xbe37e450	-0.17958188
91	0xbec0d608	-0.37663293
92	0xbe0d3542	-0.13789847
93	0xbe9284ad	-0.2861685
94	0xbe5bf79e	-0.21481177
95	0xbe2c1a45	-0.16806896
96	0xbe3d1201	-0.18463899
97	0xbcd22561	-0.02565259
98	0xbecda517	-0.40165016
99	0xbdfff13d	-0.124971844
100	0xbeac01de	-0.33595175
101	0xbe09d4d7	-0.13460098
102	0xbe6249b9	-0.22098435
103	0xbdebcecc	-0.11514053
104	0xbf3c021d	-0.73440725
105	0xbe78bc77	-0.24290644
106	0xbe93e3b2	-0.28884655
107	0xbec21e3d	-0.37913695
108	0xbe0bd78e	-0.13656446
109	0xbe5b9996	-0.21445307
110	0xbf249921	-0.64296156
111	0xbe4765a3	-0.19472365
112	0xbdf06272	-0.11737527
113	0xbe1ecd80	-0.1550808
114	0xbe6b4381	-0.2297497
115	0xbe9284b3	-0.28616866
116	0xbe605cee	-0.2191045
117	0xbe4c2784	-0.19936949
118	0xbdd9b09c	-0.10629389
119	0xbca03965	-0.019558618
120	0xbc853d5c	-0.01626461
121	0xbe056fbf	-0.13030909
122	0xbe0bc04c	-0.13647574
123	0xbe28881b	-0.1645817
124	0xbe754877	-0.23953424
125	0xbe01541c	-0.12629741
126	0xbe05c069	-0.1306168
127	0xbe8fecb8	-0.2811029

conv_block.2.weight f4 [128, 128, 2, 2]
0	0x3d5369a8	0.051614434
1	0xb928572d	-0.00016054204
2	0x3d0bf37e	0.03416776
3	0xbba99b8f	-0.0051760147
4	0xbc9b88a9	-0.018986063
5	0xbbaef03d	-0.005338697
6	0xbc15e1c9	-0.00914807
7	0x38cc098d	9.729257e-05
8	0xbb90d262	-0.004419611
9	0x3c2b46b0	0.010453865
10	0xbb27e2ce	-0.0025617364
11	0xbbd29316	-0.0064262254
12	0xbbc2a097	-0.005939554
13	0x3c9cd50f	0.019144563
14	0x3c1b7219	0.009487652
15	0x3c3a850c	0.01138426
16	0x3c0398c8	0.008032031
17	0xbb511b35	-0.0031907086
18	0xbbb95797	-0.0056561935
19	0xbcaa146c	-0.020761691
20	0x3c8e9d0d	0.017408872
21	0x3c1282b4	0.008942295
22	0xbd17388f	-0.036919173
23	0xbbce31b7	-0.0062925476
24	0x3c053a07	0.008131511
25	0x3b5f8a7f	0.003410965
26	0xbb3bd2fc	-0.0028659692
27	0x3ba072e7	0.00489651
28	0xbb9bacae	-0.0047508096
29	0xbc3ee49c	-0.011651184
30	0x3b8af129	0.0042401743
31	0x3c2e0eae	0.010623617
32	0x3b62f992	0.0034633619
33	0xbc872b0b	-0.016500017
34	0x3c14acc0	0.00907439
35	0xbc99f4ba	-0.018793453
36	0x3d17afd6	0.037032925
37	0x3ca3fbd0	0.020017534
38	0xbaf50f6a	-0.001869661
39	0x3cdf2e5f	0.027243791
40	0x3c0d1300	0.008610487
41	0xbc66a72c	-0.014077943
42	0x3b03777f	0.002006024
43	0x3b24c624	0.0025142515
44	0x3cef7d6f	0.029234616
45	0x3a258f0d	0.0006315567
46	0xbc9118b0	-0.017711967
47	0x3adc022f	0.0016785319
48	0xbccdc937	-0.02512036
49	0xbbc472fd	-0.005995153
50	0xbaaa59f6	-0.0012996781
51	0xbc31d3d0	-0.010853723
52	0xbbc70b2f	-0.0060743312
53	0x3c8f5411	0.01749614
54	0x3adbd24d	0.0016771049
55	0xbc91761f	-0.01775652
56	0xba9f8600	-0.0012170672
57	0xbbe82ef0	-0.0070856735
58	0x3b49e2c0	0.003080532
59	0x3bf2edad	0.007413587
60	0x3cb5957f	0.022166012
61	0xbb51cd1e	-0.0032013129
62	0x3c295e9b	0.010337497
63	0x3bbb6f33	0.005720043
64	0x3b075fe2	0.0020656516
65	0xbc6645bc	-0.014054712
66	0x3b45a75b	0.0030159566
67	0x391a00b1	0.00014686842
68	0xbc46d97b	-0.012136812
69	0x3c867b64	0.01641626
70	0x3c46207c	0.012092706
71	0xbbac71e9	-0.0052626026
72	0x3bab1e27	0.0052221003
73	0x3c9e0466	0.019289207
74	0xbc7865c2	-0.01516098
75	0x3b94fae6	0.004546511
76	0x3bd77eaa	0.006576379
77	0xbcc33f53	-0.023833906
78	0xbd0b69c2	-0.034036405
79	0x3ad28418	0.0016061096
80	0xbb709a11	-0.0036712924
81	0x3c49cdae	0.012317104
82	0xbc87293f	-0.01649916
83	0x3ae4c9f3	0.0017455205
84	0xbb37b84c	-0.0028033433
85	0xbace35bb	-0.0015732566
86	0xbbcbe5e3	-0.006222473
87	0xbc580ffa	-0.013187403
88	0xbb615ddf	-0.0034388227
89	0xbbd67672	-0.0065448815
90	0x3c375680	0.011190057
91	0xb980a17c	-0.00024534378
92	0xbb588168	-0.0033036117
93	0x3ad5f7d9	0.0016324475
94	0x3bf79c0e	0.007556445
95	0xbbc84464	-0.0061116684
96	0xbc52f4b6	-0.012875726
97	0xbbf7702f	-0.007551215
98	0xbc53ac08	-0.012919433
99	0xbb790b20	-0.0038001016
100	0xbb044bbf	-0.002018675
101	0x3b8f9d86	0.004382792
102	0xbade352d	-0.0016953103
103	0x3be7dbdc	0.00707577
104	0xbc04589d	-0.008077768
105	0xb8c8e74e	-9.579827e-05
106	0xbbce0ecd	-0.0062883855
107	0x3c93ea43	0.01805604
108	0x3c1747d1	0.009233431
109	0xbc8c75eb	-0.017146071
110	0xbb63b0c3	-0.003474281
111	0xbca3f2a4	-0.020013161
112	0x3c8ee93d	0.017445201
113	0x3d1389b1	0.036019985
114	0xbc9f1d21	-0.01942307
115	0xbc327660	-0.010892481
116	0xbaa0cd17	-0.0012268153
117	0xbcafeeeb	-0.02147623
118	0x3c9998c9	0.018749611
119	0x3c0e33c4	0.008679334
120	0xbbb7405a	-0.005592388
121	0xbc8afc69	-0.016966062
122	0xbba32dfa	-0.004979846
123	0xbbfab6b1	-0.007651173
124	0x3c5ccd07	0.013476617
125	0xbbea512f	-0.007150791
126	0x3c41a794	0.011819739
127	0x3a7a6684	0.0009552019
128	0x3ba3104e	0.004976309
129	0x3cf2411a	0.029572058
130	0xbb06cd09	-0.0020568988
131	0x3c815568	0.015787795
132	0xbb80866f	-0.0039222757
133	0x3bb7201c	0.0055885445
134	0x3b73336b	0.0037109505
135	0xbb90ffd9	-0.0044250307
136	0xbb457af6	-0.0030133105
137	0x3b277622	0.002555259
138	0xba96bd5c	-0.0011500525
139	0xbab8349d	-0.0014053766
140	0x3c98cee6	0.018653344
141	0xbc4f82a6	-0.012665426
142	0xbbcebd51	-0.0063091894
143	0x3c42ec12	0.011897104
144	0xbc276a74	-0.0102182515
145	0x3a6f8ef8	0.00091384305
146	0x3b1ef014	0.0024251984
147	0xbc653cd9	-0.013991558
148	0xbc2609b7	-0.010134152
149	0xbc382ac7	-0.011240668
150	0x3c0e4c46	0.008685177
151	0xb9dd1cc6	-0.00042173843
152	0xbbec6415	-0.007214079
153	0xbcba66fb	-0.022754183
154	0x3b49f180	0.0030814111
155	0xbc33457d	-0.01094186
156	0x3a139490	0.00056297425
157	0xbca0d9b1	-0.019635053
158	0xbc820778	-0.015872702
159	0x3b958011	0.004562386
160	0xbba45472	-0.0050149495
161	0xba1bc9f5	-0.00059428747
162	0xbcada89b	-0.021198561
163	0xbb9124ba	-0.004429427
164	0xbcea2aad	-0.028584803
165	0x3ce63482	0.02810121
166	0xbc0c5384	-0.008564834
167	0xbb723f87	-0.0036964135
168	0xbb1f6f7b	-0.0024327922
169	0x3c550eec	0.013004046
170	0xbaf43e58	-0.0018634303
171	0xbc69c30d	-0.014267695
172	0xbcd79866	-0.026317786
173	0xbc0b3ad7	-0.008497915
174	0xbbd5e01d	-0.0065269605
175	0x3bde91aa	0.006792267
176	0x3d075899	0.033043478
177	0xbb0b8934	-0.0021291496
178	0xbc2857df	-0.010274856
179	0xbc133ce3	-0.0089866845
180	0x3badb02f	0.0053005437
181	0x3b035ede	0.002004556
182	0xbb55b7b1	-0.003261071
183	0xbc0f3297	-0.008740089
184	0x3d45a4c4	0.048252836
185	0xbc4bc1a1	-0.012436301
186	0x3c47ecd1	0.0122024575
187	0xbc1181d7	-0.008881054
188	0xbc597ea0	-0.013274819
189	0x3cb80d62	0.022467319
190	0x3ab881b8	0.0014076745
191	0xbb223f7c	-0.0024757078
192	0x3a8b691a	0.0010636181
193	0x3b8152c5	0.0039466345
194	0x3c0ab1d4	0.008465249
195	0x3c3ca42d	0.011513752
196	0xbbc92e04	-0.0061395187
197	0x3c81e236	0.015854936
198	0xbbff0357	-0.0077823806
199	0x3bfc2eb3	0.0076959967
200	0xb8d2cbbb	-0.00010051528
201	0x3b9569d9	0.004559737
202	0xbbb5f46a	-0.005552818
203	0xba59518e	-0.00082900457
204	0xbbbdc532	-0.00579133
205	0xbc8a83eb	-0.016908607
206	0x3a433295	0.0007446197
207	0xba84d10e	-0.0010133104
208	0xbb9f0f6c	-0.0048541334
209	0xbc7a1166	-0.015262937
210	0xbbfe0f4e	-0.0077532893
211	0xbc382b67	-0.011240817
212	0xbb814817	-0.0039453614
213	0xba1936c1	-0.0005844646
214	0xbb48f357	-0.003066262
215	0xbc21256a	-0.00983558
216	0x3b0546fe	0.0020336504
217	0xb9d711fd	-0.00041021398
218	0x3c1fd6b0	0.009755775
219	0x3c1da9a4	0.009622965
220	0xba896a0b	-0.0010483874
221	0x3d1b65dd	0.03793894
222	0xbb9ce307	-0.004787806
223	0x3cdbfe62	0.026854698
224	0x3b50677f	0.003179997
225	0x3d2327c0	0.03983283
226	0xbb2000f3	-0.0024414628
227	0x3be7d6eb	0.0070751808
228	0xbaca28d5	-0.0015423546
229	0xbc085e66	-0.008323288
230	0xbbfbc6c3	-0.0076836064
231	0x3ba37194	0.004987905
232	0xbc8e2506	-0.017351639
233	0xb9175849	-0.00014433371
234	0x3c32a1cc	0.010902833
235	0xbc62af9b	-0.013835813
236	0xbcf73a46	-0.030179154
237	0x3ae0f178	0.0017161807
238	0xbc2f39b7	-0.010694913
239	0xbb85b488	-0.004080359
240	0x3b1e76a4	0.0024179602
241	0xbb77a817	-0.0037789398
242	0x3c0d9a87	0.008642799
243	0xbc49fe27	-0.012328661
244	0xba395a00	-0.0007070601
245	0xbc4b6735	-0.012414743
246	0xbb3b2b2d	-0.002855967
247	0x3ab85e33	0.001406616
248	0xbcda2f86	-0.026633989
249	0xbc886a89	-0.016652362
250	0xbbea0b52	-0.007142463
251	0xbb1abdea	-0.0023611733
252	0xbbe0967c	-0.0068538766
253	0xbbc7a04d	-0.0060921074
254	0x3c0c19e8	0.008551098
255	0x3c227e4d	0.009917808

conv_block.2.bias f4 [128]
0	0xbd22bf0c	-0.039732978
1	0xbc141d0c	-0.009040128
2	0xbdf34761	-0.11878849
3	0xbbbf4558	-0.005837124
4	0xbb456cbe	-0.003012463
5	0xbe1adb73	-0.15122776
6	0xbbad1be8	-0.0052828677
7	0xb99c5a58	-0.0002982195
8	0xbc398088	-0.011322148
9	0xbcb5aece	-0.02217808
10	0xbd9be660	-0.076123
11	0xbc523450	-0.012829855
12	0x3bbfa0f5	0.005848045
13	0xbc7f0801	-0.015565873
14	0xbc548871	-0.012971983
15	0xbdbfe1e2	-0.093692556
16	0xbd2c46ed	-0.042059828
17	0xbde08313	-0.109625004
18	0xbdcea58e	-0.10090171
19	0xabcf6ef3	-1.4739029e-12
20	0xb7a7bab9	-1.99949e-05
21	0xbdd277bb	-0.10276743
22	0xb73be8ee	-1.1200302e-05
23	0xbd83513f	-0.06411981
24	0xbdc3e268	-0.09564668
25	0xbd18ca57	-0.03730234
26	0xbdba49a7	-0.09096079
27	0x3c9dd9a0	0.01926881
28	0xbdcdbf8f	-0.100463025
29	0xbdc70b63	-0.09718969
30	0x8d4919e9	-6.1969095e-31
31	0xbde4c0af	-0.11169564
32	0xbe280789	-0.16409124
33	0xbccf220e	-0.025284793
34	0xbdc5d53a	-0.0965981
35	0xbdd05a95	-0.10173527
36	0xbcea728a	-0.02861907
37	0xa0bd8748	-3.2107367e-19
38	0xbdec63c2	-0.11542465
39	0xbd6f6653	-0.058447193
40	0xbcf733a9	-0.030176
41	0xbd2f955f	-0.04286706
42	0x3e257dd4	0.16161281
43	0xbdce9d57	-0.10088604
44	0xbda96397	-0.082709484
45	0xbc5f490c	-0.013628256
46	0xbbb9aaee	-0.0056661284
47	0xbd73da82	-0.059534557
48	0xb5231456	-6.0751825e-07
49	0xbd890ef0	-0.06692302
50	0xbe30ecc0	-0.17277813
51	0xbb7e9e52	-0.003885169
52	0xbdc66d36	-0.09688799
53	0xbd5396aa	-0.051657356
54	0x3e0ebe96	0.1393989
55	0x3d16036e	0.036624365
56	0xbda359b9	-0.079760976
57	0xb8ad7862	-8.271706e-05
58	0x3d19f76e	0.037589483
59	0xbdf38a65	-0.11891631
60	0xbd72e115	-0.059296686
61	0xbe00c5a9	-0.12575401
62	0xbdae0b36	-0.08498232
63	0xbe3778e4	-0.1791721
64	0xbc920fad	-0.01782974
65	0xbc90f456	-0.017694633
66	0xbdf45fbc	-0.119323224
67	0xbe5438be	-0.2072477
68	0xbe181565	-0.14851911
69	0xbd890377	-0.06690114
70	0xb98902bc	-0.00026132714
71	0xaed459b3	-9.6565776e-11
72	0xbd896df8	-0.06710428
73	0xbdacd0bf	-0.08438253
74	0xbd9be6df	-0.076123945
75	0xbca3a5ee	-0.019976582
76	0xbde86b3d	-0.11348579
77	0xbdb7055f	-0.08936571
78	0xbc89911f	-0.016792832
79	0xba54bcaa	-0.00081152713
80	0xbcb926d0	-0.022601515
81	0xb0ad4717	-1.2607612e-09
82	0xb6b663aa	-5.435625e-06
83	0xbaaa3776	-0.0012986499
84	0xbe06ae09	-0.13152327
85	0x91cc5f01	-3.2244076e-28
86	0xa788d08e	-3.79737e-15
87	0xbdc7a0bf	-0.09747457
88	0xbb99e7fc	-0.004696844
89	0x3b0d674c	0.0021576462
90	0xbdb2c095	-0.08728138
91	0xbb0bfdc2	-0.0021360968
92	0xbd8ce5f2	-0.06879796
93	0xbcef337d	-0.029199356
94	0xbd837d91	-0.06420434
95	0xbe24a60e	-0.1607897
96	0xbdc58dc2	-0.09646179
97	0xbc7d1848	-0.015447684
98	0xbdb98697	-0.09058874
99	0xb6ce7b67	-6.1536443e-06
100	0xbdf6c8ab	-0.12049993
101	0xbde3d533	-0.11124649
102	0xbd698fc4	-0.05702187
103	0xba9349c1	-0.001123719
104	0xbd411e1d	-0.04714786
105	0xbd19804f	-0.03747588
106	0x9feb03f9	-9.9532944e-20
107	0x386f602a	5.70716e-05
108	0x95a29fce	-6.5683406e-26
109	0x3d7a70bf	0.06114268
110	0xb73e1397	-1.1329444e-05
111	0x3d86f6f7	0.065900736
112	0xbd9f8b52	-0.07790245
113	0xbdf803b5	-0.12110082
114	0xb841602f	-4.6104364e-05
115	0xbc00d3c0	-0.007862985
116	0xbd5ecfd0	-0.054397404
117	0xbdc885c0	-0.09791136
118	0x3c036385	0.008019333
119	0xbe0039b5	-0.12522013
120	0xbdb3959e	-0.087687716
121	0xa518c696	-1.3251182e-16
122	0xbe4d4bcf	-0.2004845
123	0xbbf2bfe0	-0.007408127
124	0xb8d6f32e	-0.00010249611
125	0xbc8d3e9a	-0.017241765
126	0xbce61bc8	-0.028089419
127	0xbd31d494	-0.04341562

fc_block.0.weight f4 [128, 768]
0	0x3d9c5ac3	0.07634499
1	0x3d02fe22	0.03198064
2	0x3b987d4f	0.00465361
3	0x3cd14ead	0.02555021
4	0x3c1785d8	0.009248219
5	0x3c1e190b	0.009649525
6	0x3d0a3535	0.03374215
7	0xbdc67d29	-0.09691841
8	0xbcf5e2cf	-0.030015377
9	0xbc8bae2c	-0.017050825
10	0xbd0d9f2d	-0.03457563
11	0xbd16d35e	-0.03682267
12	0xbd9ddfa2	-0.0770867
13	0xbd456c81	-0.04819918
14	0xbc72a23d	-0.014809188
15	0x3ba81d20	0.005130425
16	0xbd372a27	-0.044717934
17	0x3ddc997b	0.107714616
18	0x3c34d24b	0.011036466
19	0x3ccb6e8d	0.024832988
20	0x3c834cf7	0.01602791
21	0x3c553aba	0.01301449
22	0xbd10e0dd	-0.035370696
23	0xbd9d8bdd	-0.076926924
24	0x3cb2aef2	0.021811936
25	0x3cec9b60	0.028882682
26	0x3cf6ebed	0.030141795
27	0xbd185cff	-0.037198063
28	0xbcf0f843	-0.029415255
29	0xbd3f8f43	-0.046767484
30	0x3dad3b5e	0.08458589
31	0x3c89cd3a	0.016821492
32	0x3ddf1d41	0.108942516
33	0xbc1f3bfc	-0.009718891
34	0x3d999e85	0.07500938
35	0x3e2ad4f0	0.16682792
36	0x80002bac	-1.5667e-41
37	0x80008af7	-4.9851e-41
38	0x8000922b	-5.2435e-41
39	0x00007b95	4.4333e-41
40	0x00004d8d	2.782e-41
41	0x80009dd8	-5.6624e-41
42	0x80003864	-2.0229e-41
43	0x80001123	-6.147e-42
44	0x000022f2	1.2536e-41
45	0x8000c2e0	-6.9908e-41
46	0x80001be5	-1.0007e-41
47	0x80001cba	-1.0305e-41
48	0x00001a55	9.446e-42
49	0x00007dc5	4.5118e-41
50	0x00001ebe	1.1028e-41
51	0x8000500e	-2.8718e-41
52	0x00008a22	4.9553e-41
53	0x00001ea6	1.0995e-41
54	0x3d04232b	0.0322601
55	0x3d052ef6	0.03251549
56	0xbda6a68f	-0.08137237
57	0xbc2a702d	-0.010402721
58	0x3cde47f9	0.027133929
59	0xbd4b2f72	-0.049605794
60	0x3ce14812	0.027500186
61	0x3c469dd7	0.012122593
62	0x3c6a6928	0.014307298
63	0x3c8afb18	0.016965434
64	0xbbd46401	-0.006481648
65	0xbd3f8c45	-0.04676463
66	0x3d6efb07	0.058344867
67	0x3d8a2788	0.06745821
68	0x3a09b1e8	0.00052526454
69	0x3d63b039	0.05558798
70	0x3c2a95b2	0.010411667
71	0xbc60efa9	-0.013729014
72	0xbcb5cb5a	-0.022191692
73	0xbc7d1388	-0.015446551
74	0xbd0ba090	-0.03408867
75	0xbd5a4658	-0.05328974
76	0xbd54631e	-0.051852338
77	0xbd1784f1	-0.036992017
78	0x000028f4	1.4691e-41
79	0x800090b5	-5.1911e-41
80	0x00007c27	4.4537e-41
81	0x000077b6	4.2944e-41
82	0x00008728	4.8485e-41
83	0x800089f3	-4.9487e-41
84	0xbcfd810d	-0.030945325
85	0xbd9740f8	-0.07385439
86	0x3c746047	0.014915532
87	0xbd8da4a0	-0.06916165
88	0xbd57c395	-0.052676756
89	0xbca75f7f	-0.020431278
90	0x3bc03c6a	0.005866577
91	0xbbf0a9b6	-0.00734445
92	0xbcd21ddb	-0.025649002
93	0xbd51d4aa	-0.051228203
94	0xbd4a571f	-0.04939949
95	0xbbd320f3	-0.006443137
96	0xbb0425d5	-0.0020164151
97	0x3d2d942f	0.042377647
98	0xbd01a607	-0.031652477
99	0x3b89860f	0.0041968892
100	0x3c1a2e17	0.009410403
101	0x3d054705	0.032538433
102	0xbc7e51a0	-0.015522391
103	0xbc87574f	-0.016521124
104	0x3d7ef33b	0.06224368
105	0x3c37cb9a	0.011217976
106	0xbcfe196a	-0.031017978
107	0x3d834632	0.06409873
108	0xbd379fab	-0.044830006
109	0x3c1c6211	0.009544865
110	0x3d15e2d8	0.03659329
111	0xbd94f091	-0.07272447
112	0xbcb24be1	-0.021764698
113	0x3da58428	0.080818474
114	0x800002b6	-9.73e-43
115	0x00000157	4.8e-43
116	0x800009c4	-3.503e-42
117	0x00000821	2.916e-42
118	0x00000545	1.89e-42
119	0x000007af	2.756e-42
120	0x000019d3	9.264e-42
121	0x0000106a	5.888e-42
122	0x00007db5	4.5095e-41
123	0x00004d86	2.781e-41
124	0x00001016	5.77e-42
125	0x000043be	2.4301e-41
126	0x3ac07698	0.0014683781
127	0xbc086b61	-0.008326382
128	0xbc37f0cd	-0.011226845
129	0xbd82f21e	-0.063938364
130	0x3ccea6c9	0.025226014
131	0xbd0a85be	-0.033818953
132	0x80000a4a	-3.691e-42
133	0x00000541	1.885e-42
134	0x800000eb	-3.3e-43
135	0x80002c9e	-1.6006e-41
136	0x80000a44	-3.683e-42
137	0x80000941	-3.32e-42
138	0xbd068eab	-0.032850903
139	0xbcd4dfa8	-0.025985554
140	0xbc78a114	-0.015175123
141	0x3d497910	0.04918772
142	0x3b8ff132	0.0043927664
143	0x3c05def2	0.00817083
144	0x3d3a16b3	0.045431804
145	0x3d47e355	0.048800785
146	0x3d33f417	0.043933954
147	0xbc313d36	-0.0108178165
148	0xbdad8e22	-0.08474375
149	0x3d046f05	0.03233244
150	0x3c0bb51a	0.008527065
151	0xbcb5b5b2	-0.022181366
152	0xbd1e94b9	-0.03871605
153	0xbd915294	-0.07095829
154	0x3cb880f8	0.022522435
155	0x3c5ec955	0.013597806
156	0xbc4139d3	-0.0117935715
157	0x3caf4b9d	0.02139836
158	0x3cbdf9e2	0.023190442
159	0xbcec149c	-0.028818421
160	0x3ccfb912	0.025356803
161	0x3d416102	0.047211654
162	0x3d39ceda	0.045363285
163	0xbc5dd287	-0.013538963
164	0xbcac1ac4	-0.021008857
165	0xbc233efe	-0.009963749
166	0x3ccf1153	0.025276816
167	0xbd3c3d4a	-0.045956887
168	0xbc18c5c1	-0.009324492
169	0x3c1d8bf0	0.009615883
170	0x3c697d24	0.014251027
171	0xbd9acac9	-0.075582094
172	0x3c7082c3	0.0146796135
173	0x3cd0a794	0.025470532
174	0x3ca2f35b	0.019891432
175	0xbd9cd6dc	-0.07658169
176	0xbd579842	-0.05263544
177	0xbca33617	-0.019923253
178	0x3d5e3651	0.05425102
179	0xbc007061	-0.007839293
180	0x800003de	-1.387e-42
181	0x80000c5b	-4.432e-42
182	0x000001de	6.7e-43
183	0x00000598	2.007e-42
184	0x000009be	3.495e-42
185	0x00000a0b	3.603e-42
186	0x3d564062	0.052307494
187	0x3d1d3d01	0.038388256
188	0x3d4052f0	0.046954095
189	0xbc7cbd42	-0.015425982
190	0xbd3e9743	-0.046530973
191	0xbda859b2	-0.08220233
192	0x3cd50a85	0.026005993
193	0xbc463375	-0.012097229
194	0xbd2acc08	-0.041698486
195	0xbc7f1e8c	-0.015571248
196	0xbd3bdaa0	-0.045862794
197	0x3d95dc61	0.073174246
198	0xbca019e1	-0.01954359
199	0xbdde4a61	-0.108540304
200	0xbdd26c2e	-0.1027454
201	0x3d3d251e	0.046177976
202	0xbcd2d423	-0.02573592
203	0x3d1849cb	0.03717975
204	0xbcc761d0	-0.024338633
205	0x3cb9d000	0.02268219
206	0x3d0aa95e	0.033852927
207	0xbcdb9462	-0.026804153
208	0xbd29620e	-0.041353278
209	0x3cb6aa48	0.022297993
210	0xbd9f9772	-0.07792558
211	0x3a86a494	0.0010272437
212	0xbd342fae	-0.043990783
213	0xbd44bb12	-0.048029967
214	0xbab96a1b	-0.0014146002
215	0x3ccd133d	0.025033588
216	0x0000c2e8	6.9919e-41
217	0x8000c1c1	-6.9506e-41
218	0x8000746a	-4.1761e-41
219	0x800007c3	-2.784e-42
220	0x80008e2c	-5.1002e-41
221	0x80007b36	-4.42e-41
222	0x80000a3c	-3.671e-42
223	0x80000ace	-3.876e-42
224	0x000000e8	3.25e-43
225	0x00000b34	4.019e-42
226	0x80000b0a	-3.96e-42
227	0x800004aa	-1.673e-42
228	0xbd7cfa9e	-0.061762445
229	0x3af35a6c	0.0018566377
230	0x3d388471	0.04504818
231	0xbd181ee1	-0.037138823
232	0xbbcc8cc1	-0.006242365
233	0xbc9e3126	-0.019310545
234	0xbde1ae7b	-0.11019608
235	0xbcebf24d	-0.028802061
236	0xbd3b7e9a	-0.045775034
237	0x3cc21d08	0.023695484
238	0x3c03ed30	0.008052155
239	0x3bdc7770	0.0067281052
240	0xbadd4d00	-0.001688391
241	0x3b9e278e	0.0048264926
242	0xbda32185	-0.07965378
243	0xbdb33603	-0.08750536
244	0x3da0bf91	0.078490384
245	0xbdb4459d	-0.0880234
246	0xbcaf4817	-0.02139668
247	0x3ca9bb35	0.02071915
248	0xbc5f2b57	-0.013621173
249	0xbd7e8bab	-0.062144917
250	0x3c8fca62	0.017552558
251	0x3c471adf	0.012152403
252	0x3d51ca2a	0.05121819
253	0x3c33c9b6	0.010973385
254	0xbba01be6	-0.0048861383
255	0x3cd9345e	0.026514228

fc_block.0.bias f4 [128]
0	0x3d67beac	0.056578323
1	0x3cd06875	0.025440434
2	0x3c7dd129	0.015491762
3	0x3dcf7fb4	0.10131779
4	0x3cb6076d	0.022220338
5	0x3cbaf7e7	0.022823287
6	0xbc050459	-0.008118712
7	0xbc7a9049	-0.015293189
8	0x3cb4a2c6	0.022050273
9	0x3d490fef	0.04908746
10	0x3cc34de7	0.023840858
11	0x3c078bf9	0.008273118
12	0x3db82824	0.08992031
13	0x3db67533	0.08909073
14	0x3d946ed9	0.07247705
15	0x3dd5546b	0.10416492
16	0xbb3122ef	-0.0027028879
17	0x3d82ce99	0.063870616
18	0x3d345431	0.044025604
19	0xbbcbad70	-0.0062157437
20	0x3d12a0fb	0.035798054
21	0x3b72755a	0.0036996217
22	0x3a919354	0.0011106529
23	0x3ceb46a0	0.0287202
24	0x3db6cf3d	0.08926246
25	0x3ce80d13	0.028326547
26	0x3d94f370	0.072729945
27	0x3df57c0c	0.11986551
28	0x3de42134	0.111391455
29	0x3d24dffc	0.04025267
30	0x3cd27c85	0.025694141
31	0x3d29e7b9	0.041480754
32	0x3cbadce8	0.022810414
33	0x3c0b5064	0.008503053
34	0xbc01249c	-0.0078822635
35	0x3d04bdec	0.032407686
36	0xb958421e	-0.00020623996
37	0x3e3eaea6	0.1862131
38	0x3d5f3bfe	0.054500572
39	0x3da8b905	0.08238415
40	0x3d6096a1	0.05483115
41	0x3c2195ec	0.009862404
42	0x3d96fa5d	0.07371972
43	0x3d1d5cee	0.038418703
44	0x3cbe4907	0.023228182
45	0x3d6f5ccd	0.05843811
46	0x3d5bfdce	0.053708844
47	0x3e1dab8c	0.15397471
48	0xbc4e8639	-0.012605243
49	0x3c817f7d	0.015807861
50	0x3db75893	0.08952441
51	0x3d771266	0.06032028
52	0x3dd262f3	0.10272779
53	0x3cddad28	0.027060106
54	0x3da3237e	0.07965754
55	0x3d85bbd0	0.06529963
56	0x3d8983e5	0.0671461
57	0x3c8e39fd	0.017361635
58	0x3d4b410a	0.049622573
59	0xbca08afc	-0.019597523
60	0x3bb50821	0.0055246507
61	0x3cc8cd1a	0.024511863
62	0x3d8a768c	0.06760892
63	0x3c3eede6	0.011653399
64	0x3da93c2f	0.08263432
65	0x3c9c9e8b	0.019118568
66	0x3da653b6	0.08121435
67	0xbb62a205	-0.0034581434
68	0x3d3339ea	0.043756403
69	0x3d4ead0b	0.050457995
70	0xb214e84c	-8.667552e-09
71	0x3b20ea0d	0.0024553568
72	0x3d5428fc	0.0517969
73	0xbc1173a3	-0.008877668
74	0x3c6c1eb6	0.014411619
75	0x3dda8bd0	0.10671198
76	0x3ced5aae	0.028973904
77	0x3dfa4973	0.122210406
78	0x3dbb6122	0.09149386
79	0x3db626aa	0.08894093
80	0x3d199fba	0.037505843
81	0x3cce77c2	0.02520359
82	0x3c5460f8	0.012962572
83	0x3ccf97a7	0.025340868
84	0xba4c57bc	-0.0007795056
85	0x3d587ae7	0.052851584
86	0x3c10980c	0.008825313
87	0xb42e6780	-1.6242666e-07
88	0x3d1afebe	0.037840597
89	0x3cc9db68	0.024640754
90	0x3d82fd18	0.0639593
91	0x3dce7f17	0.10082834
92	0xbc287114	-0.010280866
93	0x3c4fe1ab	0.012688081
94	0x3dc82ced	0.09774194
95	0x3d21ee2a	0.03953377
96	0xba9238a2	-0.0011155794
97	0xbbe08ee6	-0.0068529723
98	0x3c30cd2e	0.010791106
99	0x3d704e32	0.058668323
100	0x3d136e2f	0.03599375
101	0x3d6870a2	0.05674804
102	0x3dc02876	0.09382717
103	0x3cb771fd	0.022393221
104	0x3d47516b	0.04866163
105	0x3cfe04cd	0.031008149
106	0x3d94cec2	0.072659984
107	0x3c549b81	0.012976528
108	0x3d8558a3	0.06511047
109	0x3e0feab0	0.1405437
110	0xbb819d62	-0.003955529
111	0x3d256f28	0.04038921
112	0x3dbebf15	0.0931379
113	0x3d476f00	0.048689842
114	0x3d853ac5	0.0650535
115	0x3cc4eb0d	0.024037862
116	0xbcb1dc5c	-0.02171152
117	0x3d169bef	0.036769804
118	0x3d5f8a57	0.05457529
119	0x3c85b284	0.016320474
120	0x3e01501d	0.12628217
121	0x3c5d1b72	0.013495313
122	0x3d8bcadb	0.06825801
123	0x3bb33cf5	0.005469913
124	0x3d187709	0.037222896
125	0x3d668739	0.056281302
126	0x3d38fa58	0.04516062
127	0x3d5f6248	0.054537088

first_head.0.weight f4 [128, 128]
0	0xbc64c7b6	-0.01396363
1	0x3d5b0648	0.053472787
2	0x3d0161fc	0.031587586
3	0x3e030ba8	0.12797415
4	0x3cf089a5	0.029362509
5	0x3d0d983f	0.03456902
6	0xbb775ff2	-0.0037746397
7	0xbd6fe302	-0.0585661
8	0x3d17669c	0.03696309
9	0x3d41a3b3	0.047275256
10	0x3cc949f3	0.024571395
11	0x3ca1ba18	0.019742057
12	0x3dafb893	0.085801266
13	0xbd231ad1	-0.039820496
14	0x3de5a01d	0.1121218
15	0x3e537fd1	0.20654227
16	0x3d9e1bda	0.07720156
17	0xbc944f00	-0.018104076
18	0xbba7a50e	-0.0051161116
19	0x3c847f97	0.01617412
20	0x3c9a343b	0.018823734
21	0x3c7172fa	0.014736885
22	0x3996224f	0.0002863579
23	0x3ce6f9b2	0.028195236
24	0x3e042087	0.12903033
25	0xbdb4878d	-0.08814917
26	0x3da05f65	0.07830695
27	0xbd54067c	-0.051763996
28	0xbdd627e0	-0.10456824
29	0x3c06800a	0.008209238
30	0x3dced0b9	0.100984044
31	0x3c0c7256	0.008572182
32	0xbdd7a132	-0.105287924
33	0xbdad9214	-0.08475128
34	0x3b44f71b	0.0030054513
35	0x3bfa3a1f	0.007636323
36	0xae8e79a1	-6.479018e-11
37	0x3db33a84	0.08751395
38	0x3af61420	0.0018774308
39	0xbd9cbe15	-0.07653443
40	0x3d22d9e3	0.039758574
41	0xbd17e1ba	-0.037080504
42	0xbe06a8e9	-0.13150372
43	0xbdb95cc8	-0.090509
44	0xbd03f37e	-0.032214634
45	0xbd143957	-0.036187496
46	0xbbd767e9	-0.0065736664
47	0x3d7059c7	0.05867937
48	0x3d0b9024	0.03407301
49	0xbd0823f7	-0.033237424
50	0xbd344722	-0.04401315
51	0x3c522848	0.012826987
52	0x3c53ea92	0.012934344
53	0x3d04ccad	0.032421757
54	0x3e0170fa	0.12640753
55	0xbd4d7670	-0.05016178
56	0x3c9c5b6c	0.019086562
57	0xbbfd6247	-0.007732663
58	0x3d8e1e43	0.06939366
59	0x3c294c9c	0.0103332065
60	0x3c6275fd	0.013822076
61	0x3d3bbf63	0.045836817
62	0xbd512fa2	-0.051070817
63	0x3cd87ab0	0.02642569
64	0xbdbf41c5	-0.093387164
65	0xbcd4176c	-0.025890075
66	0xbdaaff97	-0.08349531
67	0x3be486ef	0.006974093
68	0x3e0f39ce	0.13986894
69	0x3ceb0675	0.028689602
70	0x00001dd5	1.0702e-41
71	0xbd069001	-0.032852177
72	0x3d3d68f7	0.04624268
73	0x3d9c9c3f	0.07646989
74	0x3cc51de9	0.024062114
75	0x3dc773a5	0.09738854
76	0x3d8fc838	0.070206106
77	0x3e22458c	0.15846843
78	0x3dba5b3c	0.09099433
79	0x3d22103d	0.039566267
80	0x3c280c28	0.0102568045
81	0x3dda8f83	0.10671904
82	0x3dcec418	0.10095996
83	0x3cfb542f	0.03067979
84	0xbbe0cd59	-0.006860417
85	0xbb67b70f	-0.0035356914
86	0x3d4f164b	0.05055837
87	0x80003856	-2.021e-41
88	0xbd348113	-0.044068407
89	0x3cc030a2	0.02346069
90	0x3dce278c	0.10066137
91	0xbdebd3bc	-0.115149945
92	0x3ccafae5	0.024777839
93	0x3b72c92b	0.0037046175
94	0x3dd0692f	0.10176312
95	0x3bf91176	0.0076009585
96	0xbd2b1f05	-0.04177763
97	0xbd0a846a	-0.033817686
98	0xbb863fe8	-0.0040969737
99	0xbd9f7c6a	-0.07787402
100	0xbc4554c0	-0.012044132
101	0x3d508eb2	0.050917335
102	0x3d620278	0.055178136
103	0x3ccfe03a	0.025375474
104	0xbd986ea5	-0.07442979
105	0xbcef1c85	-0.029188404
106	0x3cd20481	0.025636913
107	0xbd4824f8	-0.04886338
108	0x3c961c79	0.018324124
109	0x3d5b2ebe	0.053511374
110	0x3c640bd1	0.013918833
111	0x3db4668d	0.088086225
112	0x3c81e134	0.015854456
113	0xbda799da	-0.08183642
114	0x3c9dc46c	0.0192587
115	0x3cf861bc	0.03032004
116	0xbe8c035d	-0.27346316
117	0xbd68d4fb	-0.05684374
118	0x3bea6040	0.007152587
119	0xbcf686fa	-0.030093659
120	0x3e25ad3f	0.1617937
121	0xbcd41837	-0.025890453
122	0x3dc80619	0.09766788
123	0xbd9b83cf	-0.075935
124	0x3d8e520b	0.06949242
125	0x3d429f01	0.04751492
126	0x3d08104c	0.033218667
127	0x3d4e654c	0.050389573
128	0x3d77750b	0.060414355
129	0x3d237a18	0.03991136
130	0x3c0e8f5f	0.0087011745
131	0x3e4097c1	0.1880789
132	0x3c121420	0.008915931
133	0x3c28a377	0.010292879
134	0x3cb5a0cf	0.022171406
135	0xbd40f083	-0.04710437
136	0x3c638d4f	0.013888671
137	0x3c94be05	0.018157015
138	0x3bffba6f	0.007804207
139	0x3b854291	0.004066773
140	0x3d8118f4	0.063035876
141	0xbddb64f4	-0.10712615
142	0x3db1ee0e	0.086879835
143	0x3e05edbf	0.13078974
144	0x3d64ba04	0.05584146
145	0x3d9be193	0.07611384
146	0xbcf1f72b	-0.029536804
147	0x3cfd4c6a	0.030920226
148	0x3c1762cd	0.009239865
149	0xbbd3f8b3	-0.0064688562
150	0x3ac1932f	0.0014768596
151	0x3b96bf07	0.004600409
152	0x3d38de98	0.045134157
153	0xbdb4f961	-0.08836628
154	0x3d80e773	0.062941454
155	0xbd9ed7a7	-0.07755976
156	0xbe07f164	-0.13275677
157	0xbbf1a86b	-0.0073748133
158	0x3d2d4538	0.04230234
159	0xbaa609d8	-0.0012667729
160	0xbda34d30	-0.07973707
161	0xbd7bb495	-0.061451513
162	0xbd5b2208	-0.05349925
163	0x3d069406	0.03285601
164	0xadac21c7	-1.9569136e-11
165	0x3dda5e96	0.10662572
166	0xbbab6dae	-0.0052315807
167	0xbd1a93ee	-0.037738733
168	0x3d387af5	0.045039136
169	0xbd4c5da3	-0.049893986
170	0xbddbf000	-0.10739136
171	0xbdda3ca7	-0.106561
172	0xbbb7cf6e	-0.0056094443
173	0x3c079172	0.008274423
174	0x3cd5e825	0.026111672
175	0x3e1fdb24	0.1561094
176	0xbc767b4a	-0.015044043
177	0x3c8c4087	0.017120613
178	0xbd76e712	-0.06027896
179	0x3ca32b36	0.019918066
180	0x3d901fa4	0.07037285
181	0x3bd5b9ee	0.0065224087
182	0x3dd8607d	0.10565279
183	0xbca09eea	-0.019607026
184	0x3c31f6d8	0.010862075
185	0x3aa1002f	0.001228338
186	0x3df24aa9	0.118306465
187	0xbdd2d186	-0.1029387
188	0x3cfa13af	0.030526964
189	0xbd10e318	-0.035372823
190	0xbb854f35	-0.00406828
191	0x3cc80d4a	0.0244204
192	0x3d016b78	0.03159663
193	0x3b8f212b	0.0043679676
194	0xbc43cfe6	-0.011951422
195	0xba143bb9	-0.00056546513
196	0x3d57c74f	0.05268031
197	0x3cacdf6c	0.02110263
198	0x80000d8a	-4.857e-42
199	0x3cea1d5b	0.02857845
200	0x3ca0d439	0.019632446
201	0x3c339813	0.01096155
202	0x3c620850	0.013795927
203	0x3da73bf1	0.0816573
204	0x3d7cdc5c	0.06173359
205	0x3d059b19	0.032618616
206	0x3d5f7052	0.054550476
207	0x3d9a54ad	0.07535682
208	0x3b9fcc8d	0.0048766793
209	0x3df17e47	0.117916636
210	0xbb302329	-0.0026876426
211	0x3bf1bc8b	0.0073772124
212	0x3d67e5c6	0.056615613
213	0x3a9cf347	0.0011974358
214	0x3cc95fab	0.02458175
215	0x800011e0	-6.412e-42
216	0xbcbfac4c	-0.023397587
217	0x3bc408ac	0.005982479
218	0x3d37481a	0.044746496
219	0xbcd53c40	-0.026029706
220	0x3bc45aaf	0.0059922556
221	0xbd4f01d7	-0.050538864
222	0x3d2d8108	0.042359382
223	0xbba75b40	-0.0051073134
224	0xbd3dc9fc	-0.046335205
225	0xbcdd1bd3	-0.026990807
226	0x3a82a532	0.0009967445
227	0xbd46b76f	-0.04851478
228	0x3bf2ab97	0.007405709
229	0x3e1406a3	0.14455657
230	0x3d615651	0.05501396
231	0x3d464520	0.048405766
232	0xbe043eed	-0.1291463
233	0x3cb7ccab	0.02243646
234	0x3d624b65	0.055247683
235	0xbd0665e2	-0.032812007
236	0xbca62ab5	-0.020284036
237	0xbc8b140f	-0.016977338
238	0x3d1c42a9	0.03814951
239	0x3dd526c1	0.10407782
240	0x3df19e77	0.11797803
241	0xbd321381	-0.04347563
242	0xbca8ac01	-0.02058983
243	0x3be759b2	0.007060253
244	0xbd8d9d4f	-0.0691477
245	0xbd47b350	-0.04875499
246	0xbd5a6576	-0.053319417
247	0x3c8e7a35	0.017392257
248	0x3e237a79	0.15964688
249	0xbc6c76bc	-0.014432605
250	0x3db7da1e	0.089771494
251	0xbcc7dc07	-0.02439691
252	0x3d97e3f5	0.07416526
253	0x3cda4638	0.026644811
254	0x3c6ba2b6	0.014382055
255	0x3d9d20a6	0.07672243

first_head.0.bias f4 [128]
0	0x3dd5aa25	0.10432843
1	0x3da277a0	0.07932973
2	0x3d17d9f1	0.03707308
3	0xb678fdf5	-3.7102702e-06
4	0x3d66bd97	0.05633315
5	0x3d5a7cfd	0.053341854
6	0xba1973ff	-0.00058537716
7	0x3d778a72	0.060434766
8	0x3da1d0d5	0.0790116
9	0x3d02c17f	0.031922814
10	0x3d1cd49a	0.03828869
11	0x3d16849d	0.036747564
12	0x3adbf397	0.001678097
13	0x3d267b72	0.04064507
14	0x3d7f6eec	0.062361643
15	0x3d603d34	0.054745868
16	0x3bef2b92	0.007298895
17	0x3d91cece	0.07119523
18	0x3d016ca5	0.031597752
19	0x3d27ca16	0.04096421
20	0x3db36d2f	0.087610595
21	0x3d9467c7	0.072463565
22	0x3d50c027	0.0509645
23	0x3d64c071	0.05584759
24	0x3d7537a6	0.059867524
25	0x3cd38cc9	0.025823968
26	0x3d400c93	0.04688699
27	0x3dd16335	0.10224
28	0x3d991428	0.074745476
29	0x3c995014	0.018714942
30	0xb0f1cdbe	-1.7593533e-09
31	0x3db1376c	0.08653149
32	0x3d1e8a29	0.03870598
33	0x3db40789	0.087905
34	0x3d806802	0.06269838
35	0x3d87b731	0.06626738
36	0x3d3a3f5f	0.04547059
37	0x3d1d1618	0.03835115
38	0x3d8fe872	0.07026757
39	0x3d317987	0.043328788
40	0x3d8c745d	0.06858132
41	0x9cb9c535	-1.229325e-21
42	0x3ce3666a	0.027758796
43	0x3dbb5095	0.09146229
44	0x3d835fe3	0.06414773
45	0x3d931e82	0.07183553
46	0xb7cad92c	-2.4181405e-05
47	0x3ceaec0f	0.028677015
48	0x3d4fe2fd	0.050753582
49	0xb8e3b663	-0.00010858176
50	0x3d9bc1bb	0.076053105
51	0x3da42702	0.08015253
52	0x3d6ab8d7	0.057305183
53	0xa4ee7462	-1.0341321e-16
54	0x3d132da8	0.035932213
55	0x3da81e33	0.08208885
56	0x3d227f55	0.039672215
57	0x3d720b36	0.059092723
58	0x3d1c124c	0.038103387
59	0x3d0c9a08	0.034326583
60	0x3d34de11	0.04415709
61	0x3d5ef9f6	0.0544376
62	0x3d50c4ae	0.05096882
63	0x3d877ee7	0.066160016
64	0x3d140771	0.03613991
65	0x3cb02c70	0.021505564
66	0x8ae37bf0	-2.1905925e-32
67	0x3db171bd	0.08664272
68	0x3d7d0290	0.061770022
69	0xb8a91d13	-8.0639635e-05
70	0x3dc4420e	0.095829114
71	0x3d2017bc	0.039085135
72	0x3da8691e	0.082231745
73	0x3d220c62	0.03956259
74	0x3db55cc4	0.08855584
75	0x3d80c62d	0.06287799
76	0x3d1e9296	0.038714014
77	0x3d5f246d	0.054478098
78	0x3da10a7d	0.078633286
79	0xa7bb8fb4	-5.205873e-15
80	0x3da5904d	0.08084164
81	0x3d85541e	0.06510185
82	0x3cd96a3f	0.02653992
83	0x3bb7a38e	0.005604214
84	0xb6c106a4	-5.7526213e-06
85	0x3d84e660	0.06489253
86	0x3d939e5d	0.0720794
87	0xb56d826f	-8.8479186e-07
88	0xbaafb521	-0.0013405421
89	0x3d4c9aac	0.049952194
90	0x3dbba8c4	0.09163049
91	0x3d3054a7	0.04304948
92	0x3d1f3d22	0.03887666
93	0x3d90b5d3	0.0706593
94	0x3d194a03	0.0374241
95	0x3ce7e89e	0.028309163
96	0x3db29e54	0.08721605
97	0x3da471ef	0.080295436
98	0x3d308b1e	0.043101422
99	0x3d033774	0.032035306
100	0x3d573db5	0.052549083
101	0x3d66cf94	0.056350306
102	0x3d1c0a51	0.038095776
103	0x3ceb8a9e	0.028752621
104	0x3d412151	0.047150914
105	0x3dcc35da	0.09971209
106	0x3d17500c	0.036941573
107	0x3d0e9c9f	0.034817334
108	0x3d55c39d	0.052188504
109	0x3d2c9517	0.04213437
110	0xb32dc288	-4.0456626e-08
111	0x3d1da849	0.038490567
112	0x3d51cc84	0.051220432
113	0xb54c6f15	-7.615757e-07
114	0x3d8a5d3c	0.06756064
115	0x3d844523	0.06458499
116	0x3d6028da	0.05472646
117	0x3d89939b	0.06717607
118	0xa021d078	-1.3706207e-19
119	0x3d51689f	0.051125165
120	0x3d605ce4	0.054776087
121	0xb209ca3b	-8.020431e-09
122	0x3db5a6c3	0.08869698
123	0x3d4150ff	0.047196385
124	0x3d1c5fd4	0.038177326
125	0x3d8e239b	0.06940385
126	0x3dc34bc8	0.095359385
127	0x3d0d49b6	0.034494124

first_head.2.weight f4 [7, 128]
0	0xbe118f93	-0.14214925
1	0xbe8248cc	-0.25446165
2	0x3d028530	0.0318653
3	0xb87c8aaa	-6.0210623e-05
4	0xbe610ac3	-0.21976762
5	0xbc2b911d	-0.010471609
6	0x3adae197	0.0016699311
7	0x3ca39082	0.019966368
8	0xbe033e91	-0.12816836
9	0x3cd2bd68	0.025725082
10	0x3aa7d1f1	0.0012803656
11	0x3c88202b	0.016616901
12	0xbbb99048	-0.0056629516
13	0xbe337d9b	-0.17528383
14	0x3e95803d	0.291994
15	0xbe48d764	-0.19613415
16	0x3c3c4451	0.011490897
17	0x3dd48206	0.103763625
18	0x3dc2d1c4	0.09512666
19	0xbce5e985	-0.028065452
20	0x3e2616f8	0.162197
21	0xbd75deb3	-0.060026836
22	0xbe892bf7	-0.26791355
23	0x3ed6370d	0.41838875
24	0x3d3bb8ab	0.04583041
25	0xbd58c12d	-0.0529186
26	0x3c4c1ed8	0.012458526
27	0x3d217306	0.039416336
28	0x3da81074	0.08206263
29	0xbc5aea76	-0.013361564
30	0x302fd40a	6.3965955e-10
31	0x3d46b5f8	0.048513383
32	0x3c32bc25	0.010909115
33	0x3ebe3863	0.37152395
34	0x3d225d95	0.039640028
35	0x3e0f1cd9	0.13975848
36	0xbe304847	-0.17215072
37	0x3c9fee4b	0.019522807
38	0xbe47e657	-0.19521461
39	0x3f0e27b5	0.5552934
40	0x3e260578	0.16213024
41	0xa4beb746	-8.270984e-17
42	0xbd3cb457	-0.046070423
43	0x3de8450c	0.11341295
44	0x3df4a20d	0.11944971
45	0xbd175824	-0.03694929
46	0x379f8301	1.901528e-05
47	0xbe140892	-0.14456394
48	0xbd4d8f22	-0.05018533
49	0x39841acc	0.00025196967
50	0x3e99ad06	0.3001482
51	0x3e15e336	0.14637455
52	0x3eacd831	0.3375869
53	0xa3e71c7f	-2.5057139e-17
54	0x3d8e1419	0.06937427
55	0x3d6bf2d2	0.05760462
56	0xbe255495	-0.16145547
57	0xbdf68e2e	-0.120388374
58	0x3c8ba060	0.017044246
59	0x3d299f04	0.041411415
60	0xbe4ac0a0	-0.19800043
61	0xbdca5687	-0.09879785
62	0x3dd16433	0.102241896
63	0x3ede0789	0.43365124
64	0x3d7ffea2	0.062498696
65	0xbd02ada7	-0.03190389
66	0x0783bd4d	1.982195e-34
67	0x3e900d5e	0.28135198
68	0xbe19b5de	-0.15010783
69	0x39f2dac6	0.00046320836
70	0x3e4846b4	0.19558221
71	0x3c7fc344	0.01561052
72	0x3dcd18f8	0.10014528
73	0x3d2ffe2c	0.042967007
74	0x3e7073a5	0.23481615
75	0xbd27a325	-0.04092707
76	0x3c93aaa7	0.01802571
77	0x3efbe0d0	0.49194956
78	0xbe218719	-0.15774192
79	0x9b82f920	-2.166769e-22
80	0xbe319d84	-0.17345244
81	0xbe17f6c8	-0.14840233
82	0xbd69da30	-0.057092845
83	0xbad4b700	-0.0016228855
84	0x34350923	1.6860263e-07
85	0xbe3fc5b9	-0.18727769
86	0xbd5343ef	-0.05157846
87	0x35cc2acb	1.5211639e-06
88	0x39d4f50c	0.00040618365
89	0x3a3c9f9c	0.00071954145
90	0xbe1f0255	-0.15528233
91	0x3bfb86a2	0.0076759616
92	0x3c75067f	0.014955162
93	0xbe679bac	-0.22617978
94	0x3c476c80	0.0121718645
95	0xbceca12e	-0.02888545
96	0x3eda3d80	0.42625046
97	0xbca7f963	-0.020504659
98	0xbe7496c8	-0.23885643
99	0x3d5c4fd5	0.05378707
100	0xbe78b65f	-0.24288319
101	0x3d706c43	0.058696996
102	0x3cd7372b	0.026271423
103	0xbd5841fd	-0.052797306
104	0xbdcd8a07	-0.10036092
105	0x3b5e125a	0.003388545
106	0x3d4a1a52	0.049341507
107	0xbe7d4f4b	-0.24737279
108	0xbc6706d9	-0.014100754
109	0xbd66c310	-0.05633837
110	0xb82e6c1c	-4.1585517e-05
111	0x3c87a4c0	0.016558051
112	0xbe855fb8	-0.2604959
113	0xb95415ff	-0.0002022609
114	0xbcb3da33	-0.021954631
115	0xbe613880	-0.2199421
116	0xbd9ead9a	-0.077479556
117	0xbdcf3e20	-0.10119271
118	0x2b1630da	5.33585e-13
119	0xbe33202d	-0.17492743
120	0xbe66e9af	-0.2255008
121	0xb2187054	-8.873105e-09
122	0x3ccd7212	0.025078807
123	0x3c71fdd2	0.014769988
124	0x3c90a85d	0.017658407
125	0xbd7bceb2	-0.061476417
126	0x3ef849a8	0.48493695
127	0x3d9244aa	0.07142003
128	0x3bba2239	0.005680349
129	0xbccffaa6	-0.025388073
130	0x3e1ad167	0.15118943
131	0x36c508b7	5.872072e-06
132	0xbd3e42e4	-0.04645051
133	0xbd02f767	-0.031974223
134	0xb96b70c5	-0.00022453356
135	0xbd5af401	-0.053455357
136	0x3de4b1b6	0.11166708
137	0xbd86a545	-0.065744914
138	0x3e238709	0.1596948
139	0x3e1757a0	0.1477952
140	0xbc97cf68	-0.018531516
141	0x3ecc0737	0.39849254
142	0x3dafcad4	0.08583608
143	0x3c853d45	0.016264567
144	0xbd67b154	-0.056565598
145	0x3e023cc7	0.12718497
146	0x3e09d07c	0.13458437
147	0xbc4e3678	-0.012586229
148	0xbc4bae56	-0.012431702
149	0xbe230ed0	-0.1592362
150	0xbcaca7b4	-0.02107606
151	0xbe3f9f76	-0.18713173
152	0xbe48bae4	-0.19602543
153	0xbd96c798	-0.07362288
154	0xbd605dbb	-0.05477689
155	0x3e7ed38c	0.24885386
156	0xbc6f2cad	-0.014598054
157	0xbc325226	-0.0108838435
158	0x2f70e1e7	2.190813e-10
159	0xbe9676aa	-0.29387408
160	0x3e19e9da	0.15030614
161	0x3dd0fc50	0.10204375
162	0x3d53a46a	0.05167047
163	0xbe5dc79e	-0.21658179
164	0xbe963644	-0.29338276
165	0x3e115185	0.14191253
166	0xbdfab6c4	-0.12241891
167	0x3c9025e2	0.017596189
168	0xbcfff77f	-0.031245945
169	0x27ec0684	6.5510223e-15
170	0xbd86ced1	-0.06582416
171	0x3d815850	0.063156724
172	0x3e0890cc	0.13336486
173	0x3d08a4a3	0.033360135
174	0x38a0a55c	7.660195e-05
175	0xbe86a6f4	-0.2629925
176	0x3eb9a521	0.36258796
177	0xb8f78719	-0.00011803042
178	0xbe7a1afb	-0.24424355
179	0xbd15bb60	-0.036555648
180	0xbe80c89e	-0.2515306
181	0x23271ea0	9.059573e-18
182	0x3dfb8b92	0.1228248
183	0x3e042684	0.12905318
184	0x3f352831	0.7076445
185	0x3e96be0c	0.2944187
186	0x3e34210f	0.17590736
187	0x3e1cb43c	0.15303129
188	0xbe40f39f	-0.18842934
189	0xbce729ad	-0.028218115
190	0x3e87743d	0.2645587
191	0x3ee3a257	0.44459793
192	0x3e010c74	0.12602407
193	0xbdf14517	-0.11780756
194	0x898f6e1e	-3.452955e-33
195	0xbe84551f	-0.25846192
196	0x3ed23a19	0.4105995
197	0x391aafda	0.00014752094
198	0x3e8de3ff	0.2771301
199	0x3e0a1dc7	0.13487922
200	0x3e1b060a	0.15139022
201	0xbc913b28	-0.017728403
202	0xbe54abc6	-0.20768651
203	0xbc4e8d99	-0.012607002
204	0x3e0f39e1	0.13986923
205	0x3c972732	0.018451307
206	0xbe3d1cc3	-0.18468003
207	0xa01b8863	-1.3174137e-19
208	0xbe51b7fc	-0.2048034
209	0x3e2c40d0	0.16821599
210	0xbd8ed53f	-0.06974267
211	0xbcf49ad0	-0.029858977
212	0xb539f2a6	-6.927097e-07
213	0x3dc8cc40	0.098045826
214	0x3a635657	0.00086722284
215	0x360fcb5c	2.1427031e-06
216	0xbb46e9cc	-0.0030351756
217	0xbd2e72bd	-0.04258989
218	0x3e3fa88b	0.18716638
219	0xbd3d7471	-0.046253625
220	0x3e2fae72	0.1715639
221	0xbe821291	-0.2540479
222	0x3e27cd3e	0.16386887
223	0x3c52a4e2	0.012856694
224	0xbe9159e1	-0.28388885
225	0x3def599a	0.11687012
226	0xbe896b74	-0.26839793
227	0xbd599cad	-0.053127933
228	0x3f03f120	0.515398
229	0xbd42e327	-0.04757991
230	0x3e21459b	0.15749209
231	0xbd8a9f86	-0.06768708
232	0xbb3e4d66	-0.0029037832
233	0xbed7c558	-0.4214275
234	0x3e27840f	0.1635897
235	0xbe5f1487	-0.21785174
236	0x3d956aa6	0.07295732
237	0x3d719a8b	0.058985274
238	0x37a75dbc	1.99516e-05
239	0x3e0b7ea0	0.13622522
240	0x3f0a18da	0.5394417
241	0x35b5fe6c	1.3559597e-06
242	0xbd12f606	-0.035879157
243	0x3e613886	0.21994218
244	0xbd51449c	-0.05109082
245	0x3d861f8f	0.06548988
246	0x263eab4a	6.615163e-16
247	0x3e9aa02b	0.30200323
248	0xbd1ad254	-0.03779824
249	0x30a92f58	1.2309824e-09
250	0xbe1c5f15	-0.15270646
251	0xbd9f7152	-0.07785286
252	0x3e33dffc	0.17565912
253	0xbe731bf2	-0.23741129
254	0x3e6853fe	0.2268829
255	0x3e197f61	0.14989997

first_head.2.bias f4 [7]
0	0x3bda30c5	0.006658646
1	0xbbd8049d	-0.006592347
2	0xbc057ba0	-0.00814715
3	0x3d353095	0.044235785
4	0x3b595f2e	0.0033168304
5	0xbd2fad5b	-0.042889934
6	0x3c968db5	0.018378118
