src/models/saved_models/best_dqn.pt (torch, 746515 bytes, 10 tensors)

conv_block.0.weight f4 [128, 2, 4, 4]
00000000: cfd7 2e3d d640 d2bb e82d fe3c b221 2b3c
00000010: 5015 2a3d a2d4 9b3d c4b3 443d c975 e03d
00000020: dac7 2bbd 296f 55bd 5111 013d 4160 723e
00000030: c458 b5bd ead5 63bd e9f5 d4bd d456 1b3e
00000040: 5397 14bd c240 6b3c dfc0 80bd f37c 53be
00000050: 0c0e 04be 235b c9bd 23fd 47bd a404 bfbe
00000060: da40 6c3c 299a 803c 38b1 31bd a118 79be
00000070: 829d f93c bc54 cc3c 2105 943d 9dbe 62be
00000080: 2bf9 e53c e84e 5fbd 3147 8abd 2831 fe3b
00000090: 5e9a 0dbd 1bbf b1bc c6c4 09bd 18dc f7bd
000000a0: 66f6 e13c 9329 eebc 07d0 183c f981 bcbd
000000b0: 7bf2 adbd 0be0 193d dc91 c8bc 6a31 183e
000000c0: 5460 2ebd fd44 dabd 3dc5 17bc ff23 ecbd
000000d0: 012e 11bd b719 32bd 89f7 39bd b565 503e
000000e0: c18c 25bc 955d 02bd db37 56bd b98e ebbd
000000f0: 611d 233d af8c b6bd 3564 923a c362 53be
00000100: 89fc 403d 560e d03d 77f1 7cbd dbb7 f1bc
00000110: 1be1 733d 50ec f9bb 68db 09bd b46f c6bc
00000120: 9593 bd3d 2d6d 49bd ade1 89bd b0e7 91bb
00000130: a6a8 b03d 734a c53d d21e 90bc 88bb 9bbd
00000140: ae5d 0bbd bbd3 abbd d56a 41bd b49b 2cbc
00000150: 4e5e 70bd cba2 ce3b 1a88 7dbd 2926 c43b
00000160: 1591 553d 8f2b 173b b301 0e3d e8ba 8abd
00000170: 1ed4 543d 48ce 4a3d 7d9e f1bc addf a3bd
00000180: fdc2 a1bc 4e68 213d 0b49 05bd f3ee f43d
00000190: 3b96 02be 5936 66be 63ed 70be 17b6 2f3c
000001a0: ae6b 05bd f214 663d 79d8 9a3d 54c0 84bd
000001b0: 2079 953d a5e9 763d 5b3b e73d ca74 aabd
000001c0: 827f d13c 9606 1cbd 6dbe aa3c 8f77 c9bd
000001d0: 2017 d03d a344 003e 61dc d73d a479 663e
000001e0: 66a6 fe3b 9640 e9bc b6db fb3d 0c8e 04be
000001f0: d7ab 5abb 686d 3a3d f754 873d 4964 08be
00000200: 31f3 73bd 1c03 6ebd 7573 983d a049 8c3e
00000210: 6ea8 d2bc 75b0 cdbc 4000 eebd d8ff b7bd
00000220: fb26 d7bc fdef 373e 8b9f 763d 1569 1cbd
00000230: 4c60 893e 6fb6 8cbd 4cbf 8e3c 7ce9 98bd
00000240: 0e06 cf3b b6f6 063d 79d6 093d 62dd 62be
00000250: b0c6 8ebc 2c65 d5bb d635 59be de86 93bc
00000260: 3fe4 e73b 09dc 8abe 5002 c93d 0e50 34bc
00000270: 6f15 66be 1f1b e0ba 6e19 333d 7a9e 3ebd
00000280: a0bf 2cbe 00d6 54be 2476 24be 1bb6 49be
00000290: c21e ba3d a41b 333d 94a6 353e 7ffc 98bd
000002a0: bbfd bb3d 2e10 f43d 99d3 1f3d 4c6f bbbd
000002b0: 8486 c33d 2259 253c ce86 beba 3176 92bc
000002c0: a95f d63c a9d4 253e 21fc 293e 8a2a 10bc
000002d0: e193 96bd 5981 95bc cce1 abbd 30ca fb3c
000002e0: b3d4 57bd 3a71 eabd 8138 20bd c93b 2a3d
000002f0: ef89 09be 7bef d3bc e885 acbc d42c ac3d
00000300: 905f 8bbe c66a 10bd c1e2 1fbc 07be 03be
00000310: 95d0 7fbe 5d48 09bd d721 09be bfc0 743c
00000320: 629e 97be 84c9 d5bd 9a97 263c 4700 76bc
00000330: 5470 e7be 01d2 c9bd 630d a9bd f73b abbd
00000340: 4d98 963c a196 7c3b 68fb bcbb cbf7 3e3e
00000350: dc5d 8a3e 74d4 783b 6f99 023e 34f8 503c
00000360: c9fa 503e 4f66 cd3d 0573 2e3d a05f 8fba
00000370: 62dc 933e 6eba 223e 2ba8 103e 974f 003e
00000380: 9a92 4dbe 6f25 6e3a 2b9c 973c 5bb3 5c3c
00000390: 6d37 033d a4c1 a1bc 756f 7fbc 12ed 273d
000003a0: f119 813d b061 df3c 5bf6 de3d 18ee 0ebb
000003b0: 5c75 b63d 17be 5cbd ce8c 263d 5a78 7ebe
000003c0: f788 523e c70a 8bbc 5c7a 70bd f929 fabc
000003d0: 4d98 963d 509a cfbd cf51 cabb 118b 2cbd
000003e0: 8bd6 d23d 50b1 953d 99dc 65be 2a56 a0bc
000003f0: df78 873d 0d02 52bd 39e8 573d 1d79 673e
0.04268628 -0.0064164205 0.03102775 0.010445045 0.04152423 0.07608916 0.048023 0.10959966
-0.04193864 -0.052107964 0.031510655 0.2366953 -0.08854821 -0.055623926 -0.10398466 0.15169841
-0.036277127 0.014358701 -0.06286787 -0.20653133 -0.12895983 -0.09831836 -0.048825394 -0.37308228
0.014419759 0.01569851 -0.0433819 -0.24325801 0.030470613 0.024942748 0.07227541 -0.22143026
0.028072914 -0.05451861 -0.0675186 0.0077573247 -0.034571044 -0.021697572 -0.033634923 -0.121025264
0.027583312 -0.029072559 0.009326941 -0.09204478 -0.08493515 0.03756718 -0.024483614 0.148626
-0.042572334 -0.1065769 -0.009263334 -0.11530303 -0.035444263 -0.043481555 -0.045402084 0.20351298
-0.010104359 -0.031827528 -0.05229936 -0.115018316 0.03982294 -0.08913552 0.001116878 -0.20643143
0.047115836 0.10158984 -0.061753716 -0.029506614 0.05954085 -0.0076270476 -0.033656508 -0.024223186
0.09256665 -0.049176384 -0.06732497 -0.004452668 0.08625917 0.09633341 -0.017592821 -0.07604128
-0.034024887 -0.08389994 -0.047221024 -0.010535169 -0.058683686 0.0063060275 -0.061897375 0.0059859944
0.052140314 0.0023066734 0.03466959 -0.06773931 0.051960103 0.04951313 -0.029494518 -0.08001647
-0.019746298 0.039406113 -0.032540362 0.119596384 -0.12752621 -0.2248167 -0.23528056 0.010724566
-0.032573394 0.05617232 0.0756082 -0.06481996 0.072984934 0.060281415 0.11290618 -0.08323057
0.025573496 -0.03809222 0.020842755 -0.09837257 0.10160661 0.12526183 0.10540081 0.2250734
0.007771301 -0.02847318 0.12297766 -0.12944812 -0.0033366585 0.045514494 0.06608003 -0.13319506
-0.059558097 -0.058108434 0.07443897 0.2739992 -0.02571508 -0.025108555 -0.116211414 -0.08984345
-0.026263705 0.17962642 0.060210746 -0.03818615 0.2683128 -0.06870734 0.017425202 -0.074664086
0.0063178604 0.032950126 0.033651803 -0.22154763 -0.017428726 -0.006512305 -0.21211943 -0.018008646
0.0070767696 -0.27120999 0.09814894 -0.011005415 -0.22469114 -0.0017097926 0.043725424 -0.046537854
-0.16869974 -0.2078476 -0.16060692 -0.19698374 0.09087898 0.043727532 0.17739326 -0.07470035
0.091792546 0.119171485 0.039020155 -0.091520876 0.09547141 0.010092052 -0.0014536025 -0.017878624
0.026168661 0.16194405 0.16600086 -0.008799205 -0.073524244 -0.018250154 -0.08392677 0.030736059
-0.05269308 -0.114473775 -0.039116386 0.04156092 -0.13431524 -0.02587103 -0.021059945 0.08406988
-0.27221346 -0.035258077 -0.009758652 -0.12865458 -0.24981911 -0.033516277 -0.13391815 0.014938532
-0.29613024 -0.10438827 0.010167981 -0.015014715 -0.45202887 -0.09854508 -0.082545064 -0.08361047
0.01838317 0.003854193 -0.0057672746 0.18649213 0.27024734 0.0037968429 0.12753843 0.012754489
0.20408167 0.100292794 0.04259016 -0.0010938533 0.28879076 0.1589143 0.14126651 0.12530361
-0.20075455 0.00090845575 0.018507084 0.013470496 0.03203528 -0.019745655 -0.015590538 0.040997572
0.06303776 0.02726826 0.10886832 -0.0021809395 0.08909103 -0.05389222 0.040661626 -0.24850598
0.2056006 -0.016972912 -0.05871044 -0.030537592 0.07353268 -0.10136855 -0.006174303 -0.04212481
0.10294827 0.0730921 -0.22447433 -0.019572336 0.06614851 -0.051271487 0.0527117 0.22604795

conv_block.0.bias f4 [128]
00000000: 749c c2bd 8395 fdbd 2674 27be 2097 6abe
00000010: 421b e0be 9066 3bbe 04d9 a5be 3e6b 3cbe
00000020: 4b70 68be bc02 9fbe 5792 8fbe a568 9abe
00000030: a3a9 7f3c ad3c fcbd c04a 78be 53a0 55be
00000040: e1af 14bf 73c5 78be 3a2d 5cbe 28f5 17be
00000050: e2ea b2bd d191 e8be c375 03be b462 d3bd
00000060: a345 eabd 1594 bdbe 8607 24be ae7d f5bb
00000070: c7ce 17be fb75 c7be 898e 3cbc f9f8 29be
00000080: 71d6 3fbe 2ee5 edbd 96db 3ebe ff68 51be
00000090: ab07 9cbe c8cf 3dbe 9525 1ebd 03b8 ebbd
000000a0: f1f6 38bd 0d10 63be 07a5 3dbe 3af0 c6be
000000b0: 2252 3abe d9a0 afbc df93 33be 763c a5be
000000c0: 0c43 b7be cc3f adbe e44e 04be 47ed 24be
000000d0: 20d9 e3be dd51 13be 6359 05be 8880 f1bd
000000e0: 7932 c6bd 1358 35be a5ed 9dbe 7eae c5bd
000000f0: c074 37be 456f d8be 81dc ed3c 896d 1dbe
00000100: 6065 d0bd ef5b cfbd b349 6fbe 0002 7fbe
00000110: ff86 80be 996f 7abe dfad 29be 057a 71be
00000120: 4f53 74be 44bb 4abe cca6 9a3c e514 58be
00000130: a4fe 93be e84f e5be 2626 73be a9cb eebd
00000140: 9313 5fbe 30ed c4bd a34e 7bbe c8ce 38be
00000150: d866 54bd 19a8 13bd 7dc2 f4bc 9fea 0abe
00000160: 11f9 acbd 0ad4 81be 50e4 37be 08d6 c0be
00000170: 4235 0dbe ad84 92be 9ef7 5bbe 451a 2cbe
00000180: 0112 3dbe 6125 d2bc 17a5 cdbe 3df1 ffbd
00000190: de01 acbe d7d4 09be b949 62be ccce ebbd
000001a0: 1d02 3cbf 77bc 78be b2e3 93be 3d1e c2be
000001b0: 8ed7 0bbe 9699 5bbe 2199 24bf a365 47be
000001c0: 7262 f0bd 80cd 1ebe 8143 6bbe b384 92be
000001d0: ee5c 60be 8427 4cbe 9cb0 d9bd 6539 a0bc
000001e0: 5c3d 85bc bf6f 05be 4cc0 0bbe 1b88 28be
000001f0: 7748 75be 1c54 01be 69c0 05be b8ec 8fbe
-0.09502497 -0.12382033 -0.16352901 -0.22909212 -0.43770796 -0.18300843 -0.32392132 -0.18400285
-0.22699086 -0.31056774 -0.28041336 -0.30157962 0.015604409 -0.123162605 -0.24247265 -0.2086194
-0.5808087 -0.24294071 -0.21501628 -0.14839613 -0.087362066 -0.4542375 -0.12837891 -0.103215605
-0.114390634 -0.3702704 -0.16018495 -0.007491789 -0.14824973 -0.389572 -0.011508592 -0.16598882
-0.18734147 -0.11615978 -0.18638453 -0.20450209 -0.304746 -0.18536294 -0.03861006 -0.11509707
-0.045157377 -0.22174092 -0.18519984 -0.38855153 -0.18195394 -0.021439003 -0.17536877 -0.3227269
-0.3579334 -0.33837736 -0.1292072 -0.16106139 -0.4450159 -0.14386697 -0.1302238 -0.117920935
-0.09677596 -0.17709379 -0.3084537 -0.09652422 -0.1791563 -0.42272392 0.029035809 -0.15373816
-0.10175586 -0.10124957 -0.23367958 -0.24903107 -0.25102994 -0.24456634 -0.16570233 -0.23581703
-0.23859905 -0.19797999 0.018878363 -0.2110172 -0.28905213 -0.44787526 -0.23745021 -0.11659939
-0.2178481 -0.096155524 -0.24541716 -0.18047631 -0.051855892 -0.036048982 -0.029877895 -0.13566063
-0.08445943 -0.25357085 -0.17958188 -0.37663293 -0.13789847 -0.2861685 -0.21481177 -0.16806896
-0.18463899 -0.02565259 -0.40165016 -0.124971844 -0.33595175 -0.13460098 -0.22098435 -0.11514053
-0.73440725 -0.24290644 -0.28884655 -0.37913695 -0.13656446 -0.21445307 -0.64296156 -0.19472365
-0.11737527 -0.1550808 -0.2297497 -0.28616866 -0.2191045 -0.19936949 -0.10629389 -0.019558618
-0.01626461 -0.13030909 -0.13647574 -0.1645817 -0.23953424 -0.12629741 -0.1306168 -0.2811029

conv_block.2.weight f4 [128, 128, 2, 2]
00000000: a869 533d 2d57 28b9 7ef3 0b3d 8f9b a9bb
00000010: a988 9bbc 3df0 aebb c9e1 15bc 8d09 cc38
00000020: 62d2 90bb b046 2b3c cee2 27bb 1693 d2bb
00000030: 97a0 c2bb 0fd5 9c3c 1972 1b3c 0c85 3a3c
00000040: c898 033c 351b 51bb 9757 b9bb 6c14 aabc
00000050: 0d9d 8e3c b482 123c 8f38 17bd b731 cebb
00000060: 073a 053c 7f8a 5f3b fcd2 3bbb e772 a03b
00000070: aeac 9bbb 9ce4 3ebc 29f1 8a3b ae0e 2e3c
00000080: 92f9 623b 0b2b 87bc c0ac 143c baf4 99bc
00000090: d6af 173d d0fb a33c 6a0f f5ba 5f2e df3c
000000a0: 0013 0d3c 2ca7 66bc 7f77 033b 24c6 243b
000000b0: 6f7d ef3c 0d8f 253a b018 91bc 2f02 dc3a
000000c0: 37c9 cdbc fd72 c4bb f659 aaba d0d3 31bc
000000d0: 2f0b c7bb 1154 8f3c 4dd2 db3a 1f76 91bc
000000e0: 0086 9fba f02e e8bb c0e2 493b aded f23b
000000f0: 7f95 b53c 1ecd 51bb 9b5e 293c 336f bb3b
00000100: e25f 073b bc45 66bc 5ba7 453b b100 1a39
00000110: 7bd9 46bc 647b 863c 7c20 463c e971 acbb
00000120: 271e ab3b 6604 9e3c c265 78bc e6fa 943b
00000130: aa7e d73b 533f c3bc c269 0bbd 1884 d23a
00000140: 119a 70bb aecd 493c 3f29 87bc f3c9 e43a
00000150: 4cb8 37bb bb35 ceba e3e5 cbbb fa0f 58bc
00000160: df5d 61bb 7276 d6bb 8056 373c 7ca1 80b9
00000170: 6881 58bb d9f7 d53a 0e9c f73b 6444 c8bb
00000180: b6f4 52bc 2f70 f7bb 08ac 53bc 200b 79bb
00000190: bf4b 04bb 869d 8f3b 2d35 deba dcdb e73b
000001a0: 9d58 04bc 4ee7 c8b8 cd0e cebb 43ea 933c
000001b0: d147 173c eb75 8cbc c3b0 63bb a4f2 a3bc
000001c0: 3de9 8e3c b189 133d 211d 9fbc 6076 32bc
000001d0: 17cd a0ba ebee afbc c998 993c c433 0e3c
000001e0: 5a40 b7bb 69fc 8abc fa2d a3bb b1b6 fabb
000001f0: 07cd 5c3c 2f51 eabb 94a7 413c 8466 7a3a
00000200: 4e10 a33b 1a41 f23c 09cd 06bb 6855 813c
00000210: 6f86 80bb 1c20 b73b 6b33 733b d9ff 90bb
00000220: f67a 45bb 2276 273b 5cbd 96ba 9d34 b8ba
00000230: e6ce 983c a682 4fbc 51bd cebb 12ec 423c
00000240: 746a 27bc f88e 6f3a 14f0 1e3b d93c 65bc
00000250: b709 26bc c72a 38bc 464c 0e3c c61c ddb9
00000260: 1564 ecbb fb66 babc 80f1 493b 7d45 33bc
00000270: 9094 133a b1d9 a0bc 7807 82bc 1180 953b
00000280: 7254 a4bb f5c9 1bba 9ba8 adbc ba24 91bb
00000290: ad2a eabc 8234 e63c 8453 0cbc 873f 72bb
000002a0: 7b6f 1fbb ec0e 553c 583e f4ba 0dc3 69bc
000002b0: 6698 d7bc d73a 0bbc 1de0 d5bb aa91 de3b
000002c0: 9958 073d 3489 0bbb df57 28bc e33c 13bc
000002d0: 2fb0 ad3b de5e 033b b1b7 55bb 9732 0fbc
000002e0: c4a4 453d a1c1 4bbc d1ec 473c d781 11bc
000002f0: a07e 59bc 620d b83c b881 b83a 7c3f 22bb
00000300: 1a69 8b3a c552 813b d4b1 0a3c 2da4 3c3c
00000310: 042e c9bb 36e2 813c 5703 ffbb b32e fc3b
00000320: bbcb d2b8 d969 953b 6af4 b5bb 8e51 59ba
00000330: 32c5 bdbb eb83 8abc 9532 433a 0ed1 84ba
00000340: 6c0f 9fbb 6611 7abc 4e0f febb 672b 38bc
00000350: 1748 81bb c136 19ba 57f3 48bb 6a25 21bc
00000360: fe46 053b fd11 d7b9 b0d6 1f3c a4a9 1d3c
00000370: 0b6a 89ba dd65 1b3d 07e3 9cbb 62fe db3c
00000380: 7f67 503b c027 233d f300 20bb ebd6 e73b
00000390: d528 caba 665e 08bc c3c6 fbbb 9471 a33b
000003a0: 0625 8ebc 4958 17b9 cca1 323c 9baf 62bc
000003b0: 463a f7bc 78f1 e03a b739 2fbc 88b4 85bb
000003c0: a476 1e3b 17a8 77bb 879a 0d3c 27fe 49bc
000003d0: 005a 39ba 3567 4bbc 2d2b 3bbb 335e b83a
000003e0: 862f dabc 896a 88bc 520b eabb eabd 1abb
000003f0: 7c96 e0bb 4da0 c7bb e819 0c3c 4d7e 223c
0.051614434 -0.00016054204 0.03416776 -0.0051760147 -0.018986063 -0.005338697 -0.00914807 9.729257e-05
-0.004419611 0.010453865 -0.0025617364 -0.0064262254 -0.005939554 0.019144563 0.009487652 0.01138426
0.008032031 -0.0031907086 -0.0056561935 -0.020761691 0.017408872 0.008942295 -0.036919173 -0.0062925476
0.008131511 0.003410965 -0.0028659692 0.00489651 -0.0047508096 -0.011651184 0.0042401743 0.010623617
0.0034633619 -0.016500017 0.00907439 -0.018793453 0.037032925 0.020017534 -0.001869661 0.027243791
0.008610487 -0.014077943 0.002006024 0.0025142515 0.029234616 0.0006315567 -0.017711967 0.0016785319
-0.02512036 -0.005995153 -0.0012996781 -0.010853723 -0.0060743312 0.01749614 0.0016771049 -0.01775652
-0.0012170672 -0.0070856735 0.003080532 0.007413587 0.022166012 -0.0032013129 0.010337497 0.005720043
0.0020656516 -0.014054712 0.0030159566 0.00014686842 -0.012136812 0.01641626 0.012092706 -0.0052626026
0.0052221003 0.019289207 -0.01516098 0.004546511 0.006576379 -0.023833906 -0.034036405 0.0016061096
-0.0036712924 0.012317104 -0.01649916 0.0017455205 -0.0028033433 -0.0015732566 -0.006222473 -0.013187403
-0.0034388227 -0.0065448815 0.011190057 -0.00024534378 -0.0033036117 0.0016324475 0.007556445 -0.0061116684
-0.012875726 -0.007551215 -0.012919433 -0.0038001016 -0.002018675 0.004382792 -0.0016953103 0.00707577
-0.008077768 -9.579827e-05 -0.0062883855 0.01805604 0.009233431 -0.017146071 -0.003474281 -0.020013161
0.017445201 0.036019985 -0.01942307 -0.010892481 -0.0012268153 -0.02147623 0.018749611 0.008679334
-0.005592388 -0.016966062 -0.004979846 -0.007651173 0.013476617 -0.007150791 0.011819739 0.0009552019
0.004976309 0.029572058 -0.0020568988 0.015787795 -0.0039222757 0.0055885445 0.0037109505 -0.0044250307
-0.0030133105 0.002555259 -0.0011500525 -0.0014053766 0.018653344 -0.012665426 -0.0063091894 0.011897104
-0.0102182515 0.00091384305 0.0024251984 -0.013991558 -0.010134152 -0.011240668 0.008685177 -0.00042173843
-0.007214079 -0.022754183 0.0030814111 -0.01094186 0.00056297425 -0.019635053 -0.015872702 0.004562386
-0.0050149495 -0.00059428747 -0.021198561 -0.004429427 -0.028584803 0.02810121 -0.008564834 -0.0036964135
-0.0024327922 0.013004046 -0.0018634303 -0.014267695 -0.026317786 -0.008497915 -0.0065269605 0.006792267
0.033043478 -0.0021291496 -0.010274856 -0.0089866845 0.0053005437 0.002004556 -0.003261071 -0.008740089
0.048252836 -0.012436301 0.0122024575 -0.008881054 -0.013274819 0.022467319 0.0014076745 -0.0024757078
0.0010636181 0.0039466345 0.008465249 0.011513752 -0.0061395187 0.015854936 -0.0077823806 0.0076959967
-0.00010051528 0.004559737 -0.005552818 -0.00082900457 -0.00579133 -0.016908607 0.0007446197 -0.0010133104
-0.0048541334 -0.015262937 -0.0077532893 -0.011240817 -0.0039453614 -0.0005844646 -0.003066262 -0.00983558
0.0020336504 -0.00041021398 0.009755775 0.009622965 -0.0010483874 0.03793894 -0.004787806 0.026854698
0.003179997 0.03983283 -0.0024414628 0.0070751808 -0.0015423546 -0.008323288 -0.0076836064 0.004987905
-0.017351639 -0.00014433371 0.010902833 -0.013835813 -0.030179154 0.0017161807 -0.010694913 -0.004080359
0.0024179602 -0.0037789398 0.008642799 -0.012328661 -0.0007070601 -0.012414743 -0.002855967 0.001406616
-0.026633989 -0.016652362 -0.007142463 -0.0023611733 -0.0068538766 -0.0060921074 0.008551098 0.009917808

conv_block.2.bias f4 [128]
00000000: 0cbf 22bd 0c1d 14bc 6147 f3bd 5845 bfbb
00000010: be6c 45bb 73db 1abe e81b adbb 585a 9cb9
00000020: 8880 39bc ceae b5bc 60e6 9bbd 5034 52bc
00000030: f5a0 bf3b 0108 7fbc 7188 54bc e2e1 bfbd
00000040: ed46 2cbd 1383 e0bd 8ea5 cebd f36e cfab
00000050: b9ba a7b7 bb77 d2bd eee8 3bb7 3f51 83bd
00000060: 68e2 c3bd 57ca 18bd a749 babd a0d9 9d3c
00000070: 8fbf cdbd 630b c7bd e919 498d afc0 e4bd
00000080: 8907 28be 0e22 cfbc 3ad5 c5bd 955a d0bd
00000090: 8a72 eabc 4887 bda0 c263 ecbd 5366 6fbd
000000a0: a933 f7bc 5f95 2fbd d47d 253e 579d cebd
000000b0: 9763 a9bd 0c49 5fbc eeaa b9bb 82da 73bd
000000c0: 5614 23b5 f00e 89bd c0ec 30be 529e 7ebb
000000d0: 366d c6bd aa96 53bd 96be 0e3e 6e03 163d
000000e0: b959 a3bd 6278 adb8 6ef7 193d 658a f3bd
000000f0: 15e1 72bd a9c5 00be 360b aebd e478 37be
00000100: ad0f 92bc 56f4 90bc bc5f f4bd be38 54be
00000110: 6515 18be 7703 89bd bc02 89b9 b359 d4ae
00000120: f86d 89bd bfd0 acbd dfe6 9bbd eea5 a3bc
00000130: 3d6b e8bd 5f05 b7bd 1f91 89bc aabc 54ba
00000140: d026 b9bc 1747 adb0 aa63 b6b6 7637 aaba
00000150: 09ae 06be 015f cc91 8ed0 88a7 bfa0 c7bd
00000160: fce7 99bb 4c67 0d3b 95c0 b2bd c2fd 0bbb
00000170: f2e5 8cbd 7d33 efbc 917d 83bd 0ea6 24be
00000180: c28d c5bd 4818 7dbc 9786 b9bd 677b ceb6
00000190: abc8 f6bd 33d5 e3bd c48f 69bd c149 93ba
000001a0: 1d1e 41bd 4f80 19bd f903 eb9f 2a60 6f38
000001b0: ce9f a295 bf70 7a3d 9713 3eb7 f7f6 863d
000001c0: 528b 9fbd b503 f8bd 2f60 41b8 c0d3 00bc
000001d0: d0cf 5ebd c085 c8bd 8563 033c b539 00be
000001e0: 9e95 b3bd 96c6 18a5 cf4b 4dbe e0bf f2bb
000001f0: 2ef3 d6b8 9a3e 8dbc c81b e6bc 94d4 31bd
-0.039732978 -0.009040128 -0.11878849 -0.005837124 -0.003012463 -0.15122776 -0.0052828677 -0.0002982195
-0.011322148 -0.02217808 -0.076123 -0.012829855 0.005848045 -0.015565873 -0.012971983 -0.093692556
-0.042059828 -0.109625004 -0.10090171 -1.4739029e-12 -1.99949e-05 -0.10276743 -1.1200302e-05 -0.06411981
-0.09564668 -0.03730234 -0.09096079 0.01926881 -0.100463025 -0.09718969 -6.1969095e-31 -0.11169564
-0.16409124 -0.025284793 -0.0965981 -0.10173527 -0.02861907 -3.2107367e-19 -0.11542465 -0.058447193
-0.030176 -0.04286706 0.16161281 -0.10088604 -0.082709484 -0.013628256 -0.0056661284 -0.059534557
-6.0751825e-07 -0.06692302 -0.17277813 -0.003885169 -0.09688799 -0.051657356 0.1393989 0.036624365
-0.079760976 -8.271706e-05 0.037589483 -0.11891631 -0.059296686 -0.12575401 -0.08498232 -0.1791721
-0.01782974 -0.017694633 -0.119323224 -0.2072477 -0.14851911 -0.06690114 -0.00026132714 -9.6565776e-11
-0.06710428 -0.08438253 -0.076123945 -0.019976582 -0.11348579 -0.08936571 -0.016792832 -0.00081152713
-0.022601515 -1.2607612e-09 -5.435625e-06 -0.0012986499 -0.13152327 -3.2244076e-28 -3.79737e-15 -0.09747457
-0.004696844 0.0021576462 -0.08728138 -0.0021360968 -0.06879796 -0.029199356 -0.06420434 -0.1607897
-0.09646179 -0.015447684 -0.09058874 -6.1536443e-06 -0.12049993 -0.11124649 -0.05702187 -0.001123719
-0.04714786 -0.03747588 -9.9532944e-20 5.70716e-05 -6.5683406e-26 0.06114268 -1.1329444e-05 0.065900736
-0.07790245 -0.12110082 -4.6104364e-05 -0.007862985 -0.054397404 -0.09791136 0.008019333 -0.12522013
-0.087687716 -1.3251182e-16 -0.2004845 -0.007408127 -0.00010249611 -0.017241765 -0.028089419 -0.04341562

fc_block.0.weight f4 [128, 768]
00000000: 04df f1bc c060 c4bb 1533 91ba 2c12 cfba
00000010: 5c7a aebc f429 753c f7c9 09bd 0bbf 57bd
00000020: 84b7 c23b ec93 02bd 7993 503a a45e d23c
00000030: 7c71 4cbd c597 8dbd b585 d03c b862 d53c
00000040: 6e16 8abc a86b b93d 5a6e 22bd 7457 68bc
00000050: 9e3b c13c 00cc 623d ab9a ac3c 4bfc b5bd
00000060: 9279 abbc 1789 90bd 338a c53c aa6d 7b3a
00000070: 4b1f c8bd af56 83bd 6118 c83d 0be8 5b3d
00000080: ed90 5d3d 50c5 98bc 2979 c63c 1680 1f3e
00000090: 8c42 5f81 807d 8681 c8bc 8581 e29c ac81
000000a0: 0c49 ec81 8405 3b02 0078 0580 20fe 2682
000000b0: 00dc 5d81 4032 f701 8069 4601 c0c7 9081
000000c0: d3d1 6380 8615 8b80 c9b2 7a00 a71f 0a00
000000d0: d8d0 6080 ac55 1780 62db 0bbd 6537 273c
000000e0: 2504 d7bd 47ed 963c d8fa 2c3c 8da5 243c
000000f0: 07a6 30bd 278b 0a3c a3a3 3b3c 2aed 803c
00000100: 75d0 1bbd c234 acbb 13c6 8c3d 5e8e 06bd
00000110: 3e5c c03c 7bba 8bbc 6a1a 683c 8929 db3c
00000120: 7cf5 a6bc bb40 abbc 03ca c4bc c9ad 91bc
00000130: be3e 1dbb 2a9b f23a 889b 8201 70e7 3501
00000140: ed0c 1d02 08af 5900 56b6 e501 48fe 4880
00000150: f26e b4bb 945b 71bc 687a 853c 3ed5 c7bd
00000160: 767e 3fbd d6b9 a2bc 7b31 cfbc 5225 38bd
00000170: fbc8 373c 4264 853c fa39 8d3c 514b 053c
00000180: 66c8 6cbb 39ca 4b3c 935f 2fbc 1e74 41bc
00000190: fdd3 823d b640 aeba ecd0 30bc 0ca4 f5bc
000001a0: 1580 613c 8e67 1abd ffc1 9b3c b371 de3c
000001b0: 6643 74bd 0b76 eb3b 7aa8 423c 6c46 a5bd
000001c0: 0536 00bd 5d7e e53d b602 0080 5701 0000
000001d0: c409 0080 2108 0000 4505 0000 af07 0000
000001e0: 00fd 3501 c093 8f81 c07c 2382 4036 c001
000001f0: 0055 cb00 4039 0382 b509 cc3c cc9f 12bd
00000200: 8ddf 82bd 4f52 093b cd90 b43d acd5 80bd
00000210: 4a0a 0080 4105 0000 eb00 0080 1018 2882
00000220: 440a 0080 4109 0080 34a8 c8bd f5e4 5ebd
00000230: 5239 71bd 800e 5abc f239 2dbd 9d52 bebc
00000240: a7e1 193b 53bf 30bd 99c5 823c 85e4 12bd
00000250: 4609 a6bc d44f 153c 2bc7 adbd e3fb 83bc
00000260: fa9b 2cbd 7784 7abc 044f a6bc 9694 ec3b
00000270: 49b9 cfbc a548 12bd 2725 513d a4c3 0d3c
00000280: ef5b 81bc 1276 853c 5f20 4c3d d25a bfbc
00000290: f470 ec3b 123d 6bbc 4318 933a 12e3 7e3b
000002a0: db67 d2bd 8562 bebc deb2 5ebd 5351 a1bd
000002b0: a505 e73d e48d cabd b267 c5bb 1786 c33a
000002c0: 85dc 7abd ff6a 1dbd 4463 f63c 19f8 01bd
000002d0: de03 0080 5b0c 0080 de01 0000 9805 0000
000002e0: be09 0000 0b0a 0000 f907 63bd 575e 7d3c
000002f0: 1331 10bc 359d 6fbb e1cd 663d 5fef 3fbd
00000300: e844 cdbc 6baa 33bd 29be e0bc 7727 d9bc
00000310: c97b bbbd 6177 8c3d 80b6 883c b93a 763c
00000320: f3ec 71bc cd63 4d3d 74e0 4b3c eb6e 253d
00000330: 1f7d af3c 835c a83c ce5c 173d 38b0 1bbd
00000340: 9098 12bd 1ea0 1c3c d4cd 76bd 3ee2 e2bc
00000350: 8f99 5cbd 9fbb 8ebd 4aac 02bd b83c 67bd
00000360: ec7a ad81 a8cd ae01 1007 9800 d8e3 0601
00000370: 4b49 1902 9c1e c381 3c0a 0080 ce0a 0080
00000380: e800 0000 340b 0000 0a0b 0080 aa04 0080
00000390: e216 03bd 5bfe ffbc 35f1 c0bc 5c6c 363b
000003a0: 8432 d83b 8a81 d73c 6649 84bd 70d4 1c3d
000003b0: e800 2bbd d043 9d3b 0df4 1bbd 86dd 2cbd
000003c0: 937d 00bd 6ec1 9bbc 3d8f 6cbc f3e5 69bd
000003d0: 70fd 243b ae66 7bbd d597 3cbb 0eaa 2d3d
000003e0: 9f66 1d3d fb62 1abd eb36 393d 31cb b4ba
000003f0: 0b58 343c e816 e0bc 6614 32bd 4c83 5fbc
-0.029525287 -0.005992979 -0.0011077846 -0.0015798262 -0.02129858 0.014963616 -0.033639874 -0.052672427
0.005942287 -0.03187935 0.00079565455 0.025679894 -0.049912915 -0.06913713 0.025454381 0.02604805
-0.016856398 0.09053737 -0.03965602 -0.014181007 0.023587998 0.05537033 0.021069845 -0.08886012
-0.020931993 -0.07057398 0.02411375 0.00095912314 -0.09771594 -0.06413018 0.09770275 0.05368809
0.05409329 -0.018648773 0.024227696 0.15576205 -4.1006376e-38 -4.940391e-38 -4.912737e-38 -6.3407937e-38
-8.6797525e-38 1.3740173e-37 -5.02225e-40 -1.2268684e-37 -4.0749132e-38 9.0805575e-38 3.644255e-38 -5.3183873e-38
-9.166985e-39 -1.2772855e-38 1.1268067e-38 9.2971e-40 -8.891127e-39 -2.14295e-39 -0.034144767 0.010206078
-0.104988374 0.01842369 0.010557853 0.010049236 -0.043127086 0.008456028 0.011452588 0.015738089
-0.038040597 -0.0052553127 0.06873717 -0.032850616 0.023481485 -0.017056694 0.014166454 0.026753204
-0.020380728 -0.02090489 -0.024022108 -0.017783063 -0.0023993696 0.0018509377 4.7977634e-38 3.3410498e-38
1.1538248e-37 8.236149e-39 8.4382954e-38 -6.703375e-39 -0.00550639 -0.014731307 0.01629372 -0.097574696
-0.046751462 -0.019864004 -0.025292149 -0.044957466 0.011217351 0.016283158 0.01723956 0.008135633
-0.003613019 0.01243835 -0.010703939 -0.01180747 0.0638809 -0.0013294432 -0.010791998 -0.02998545
0.013763447 -0.037696414 0.019013403 0.027153825 -0.05963459 0.0071857027 0.011880988 -0.080700725
-0.031301517 0.112057425 -9.73e-43 4.8e-43 -3.503e-42 2.916e-42 1.89e-42 2.756e-42
3.3425968e-38 -5.2741915e-38 -1.201115e-37 7.0607506e-38 1.8673098e-38 -9.64079e-38 0.024906972 -0.035796925
-0.06390295 0.00209536 0.08816681 -0.06290755 -3.691e-42 1.885e-42 -3.3e-43 -1.2349596e-37
-3.683e-42 -3.32e-42 -0.09797707 -0.05441757 -0.058892556 -0.013309121 -0.04229159 -0.023232752
0.0023480447 -0.04315121 0.015963363 -0.035862464 -0.020268094 0.009113271 -0.08485254 -0.01611132
-0.04214094 -0.015290371 -0.02030135 0.0072198613 -0.025356906 -0.03571381 0.05106082 0.008652601
-0.015790908 0.016291652 0.04983556 -0.023358736 0.0072156135 -0.014357822 0.001122244 0.0038892669
-0.10273715 -0.023240337 -0.0543698 -0.078768395 0.112803735 -0.09890345 -0.0060243243 0.0014917281
-0.06124546 -0.038432118 0.03007663 -0.031730745 -1.387e-42 -4.432e-42 6.7e-43 2.007e-42
3.495e-42 3.603e-42 -0.055427525 0.015464387 -0.008800763 -0.0036562209 0.056348685 -0.04685914
-0.025057271 -0.043863695 -0.027434425 -0.026508076 -0.091544695 0.06858707 0.016688585 0.015028649
-0.014765966 0.050144006 0.0124436505 0.040388983 0.021421967 0.020551926 0.03695374 -0.038009852
-0.035790026 0.009559659 -0.060254887 -0.027695771 -0.053857382 -0.0696938 -0.03190259 -0.05645439
-6.372655e-38 6.421261e-38 1.3961529e-38 2.4775383e-38 1.1261699e-37 -7.167561e-38 -3.671e-42 -3.876e-42
3.25e-43 4.019e-42 -3.96e-42 -1.673e-42 -0.032004245 -0.031249216 -0.023552516 0.0027835583
0.006597819 0.026306886 -0.06459312 0.038288534 -0.04174891 0.0047993436 -0.03807454 -0.04220345
-0.031369757 -0.019013133 -0.014438448 -0.057104062 0.0025175475 -0.06137722 -0.0028777022 0.042398505
0.038427945 -0.03769205 0.04521839 -0.0013793466 0.011007319 -0.027354673 -0.043476485 -0.013642143

fc_block.0.bias f4 [128]
00000000: 35fa 8d3d 3d9e 523d de13 473d f537 de3d
00000010: ed96 4b3d 9306 4d3d 209f b53d 0c6f f5bc
00000020: 618d 4b3d 3c33 133d c883 493d a4ae 563d
00000030: f576 d73d 5b5f ee3d 1815 853d 65a8 f23d
00000040: 15df 463d 3c02 ac3d 5ff1 453d f8da 483d
00000050: 7f0e 4b3d e4f4 823d bbcd 4b3d 685a 523d
00000060: 0f51 043e 32d2 833d f66c bc3d 82d5 e13d
00000070: 03c2 f83d 8c6b 463d d500 623d b487 493d
00000080: fa0d 433c f5ba 9d3d 6002 863d e1c3 453d
00000090: 4e44 493d 87a2 423e 3d33 4a3d 9c2d a63d
000000a0: 8bf3 8a3d c806 5b3d 8769 9b3d 47e1 8f3c
000000b0: 102f e63c fad9 1a3d 40f2 ae3d c725 313e
000000c0: a5eb 463d 0658 4b3d 4ad7 d93d e5e5 8f3d
000000d0: 3dcb f83d 9169 503d 2217 a73d c071 563d
000000e0: 96af 8e3d f5a8 793d f4a9 a73d 6844 05bc
000000f0: 68aa a73b b320 b03d 0ffb 4b3d d5f4 493d
00000100: 07eb b43d 3000 473d 1039 733d 2aab 513c
00000110: afa1 3a3d ee2b 4e3d d34d 503d a1b1 863c
00000120: c088 2a3d ed77 4a3d 706b e83c ee71 053e
00000130: 4155 7e3d 80fb fa3d 486a c83d 2d8c 9c3d
00000140: 04fa 463d 2726 4a3d 1462 b33d e1d0 473d
00000150: ca6e 483d c17d 7a3d e20c 6dbb d487 463d
00000160: 715f 043d 76d4 4b3d 6787 813d e214 d43d
00000170: 073e 603d 52d4 b23b 7f59 b73d 9b6d 483d
00000180: bfb8 493d 0c06 4e3d 1c7e 513d f0a5 873d
00000190: bb70 593d 5626 7c3d 80bd 9e3d a655 5b3d
000001a0: 176f 883d b571 c93c 6988 783d ee42 353d
000001b0: 2bfc 8a3d 99be 193e bc91 4a3d 76b8 693d
000001c0: e35b b93d f3b8 883d 9f3c 973d 1021 47bb
000001d0: faa1 babc 7d7b 233d 7c10 773d fbef 483d
000001e0: ca96 243e e5e9 483d 0549 473d 05ea 9d3d
000001f0: f7a1 563d 4bbf bc3d 7ece 19bc 8c0d 963d
0.06932489 0.05142044 0.04860293 0.10850517 0.04970448 0.050055098 0.08868241 -0.029960178
0.049695376 0.035937533 0.049197942 0.052412644 0.10520736 0.11639281 0.06498164 0.11848525
0.04855259 0.08398864 0.048325893 0.04903695 0.04957437 0.063943654 0.049756747 0.05135575
0.12921546 0.06436576 0.0920047 0.110270515 0.1214638 0.04844241 0.055176575 0.049201682
0.011905188 0.07701675 0.06543422 0.048282508 0.049137406 0.19007312 0.04936527 0.08114168
0.067847334 0.053473264 0.07588487 0.017563475 0.028098613 0.037805535 0.08542299 0.17299567
0.048564572 0.049644493 0.10636766 0.07026271 0.121481396 0.050881926 0.08158709 0.052354574
0.06967084 0.060952146 0.08186713 -0.008133985 0.0051167496 0.08599987 0.049799975 0.049305756
0.088338904 0.048584163 0.05938059 0.012797156 0.04556435 0.050334863 0.05085547 0.016442122
0.04163432 0.049430776 0.028371543 0.13031742 0.062093023 0.12255001 0.097858965 0.07643924
0.048578277 0.04935279 0.08758941 0.048783187 0.04893378 0.061155085 -0.0036171009 0.04846938
0.032317583 0.049763165 0.06324654 0.103555456 0.054746654 0.0054574395 0.08952617 0.048932653
0.049248453 0.050298735 0.051145658 0.06623447 0.053086024 0.061559997 0.07750988 0.053548478
0.06661814 0.024590353 0.060676966 0.044253282 0.067863785 0.15014113 0.04945539 0.05706068
0.09050729 0.06675901 0.073846094 -0.0030384697 -0.022782315 0.03991269 0.060318455 0.04905699
0.16073146 0.049051184 0.04865362 0.07710651 0.052400555 0.09216174 -0.0093876105 0.073268026

first_head.0.weight f4 [128, 128]
00000000: 227f 0f3c f880 113c a5a1 4a3b b896 dd3d
00000010: 38b1 843b d544 693d 26af dcbc 9380 bdbd
00000020: e815 9d3b 0271 b73c 4d2f 3e3b e77f 5a3c
00000030: 596c ac3d 914c 46bc bbee 173e 7f1b 423e
00000040: 1a4c 4f3b 0261 08bc 0e6b 3c3c 68a6 5d3b
00000050: 1a9d 153b a822 a23d ca6a bb3b e9b9 0e3c
00000060: 7656 9a3d 1795 23bd 4f04 123c 2994 9dbd
00000070: baf2 ebbd e51e da3a bcc8 933d 5eca 373b
00000080: b341 b4bd 07eb a63c 1cf7 4fbd f091 fd3a
00000090: d2b3 173b 03c8 a13d c253 9d3b fb73 60bd
000000a0: 388a d13c 58f7 033d fdce 0ebe d3e3 3bbd
000000b0: b8f0 02bd e3b3 c2bc 1a8b f23b 1f60 793d
000000c0: 1c9d d23a 2fdc d93b 79a3 8cbd 1095 a63c
000000d0: 15c9 cabd 1031 043c 4694 ca3d 0476 e3bd
000000e0: 25ed 953c b303 cebb 2b73 fe3d 304c c33b
000000f0: 0527 8f3d 9e0b 12bd 94fa c93b dbbd 813b
00000100: 507e 57bd 6f6a 8a3b e619 b2bc fd1f fc3d
00000110: cfd3 b53d 5d9a 93bd ee36 053c 7e21 bfbd
00000120: d07d c93d 614d 973b 293f 9b3c 3a0f d63d
00000130: 2998 993c f758 073e b0fa d23c 503f 283e
00000140: 43bc 8d3a 7f75 5d3b c48d eabc 3305 293b
00000150: ec6f 2e3b 7447 673d d88b d53c e823 353b
00000160: 7ce5 01be 9549 283c 8490 c63c 8c31 f6bd
00000170: 420e 9e3c f5c8 10bd 8f94 033e f64a 353b
00000180: a855 663a 27cd 853d 9ba3 543b 954b 36bd
00000190: 6310 cabd 5834 3d3d 41d5 b93d a29e b73d
000001a0: 1b6e 38bd f69f 90bd a51d 943d 2959 abbd
000001b0: 3d51 823d bbfd 603c e085 7e3b 38c1 733d
000001c0: 6710 c53b aebe c8bd 33fc ed3c 5004 19bd
000001d0: d59b 89be b623 6b39 8757 59bd c1e3 583b
000001e0: 637f 0f3e b033 6e3b 81c8 3d3d 0429 a83c
000001f0: 5dce 5a3c 8993 d2bc 0ae6 913c 8d05 2a3e
00000200: c1c9 9abc e05c 66bc 0ab7 52bc 213d 2c3e
00000210: fea8 5fbc 0548 8fbc 6b81 44bc 12f7 33bd
00000220: b665 62bc 54d0 993c 8c93 4dbc 9740 64bc
00000230: 1ef8 813c 8489 b1bc 0ddb a2bb 602c c53d
00000240: eabc 4cbc b85e b23c abeb 3ebd 6f5d 60bc
00000250: b94b 50bc 1635 69bc bfee 5ebc a4d6 66bc
00000260: 51b1 22bb 7092 3abc c8b7 97bb 2be4 97bd
00000270: 34eb 0cbe b986 4ebc 0d5e 90bc db64 4dbc
00000280: 62e1 47bc 3303 7cbc e136 70bc 5970 4fbc
00000290: f699 4fbc ca39 953d 5e0f 55bc 1bff 09bd
000002a0: 46e8 33bb 372b 79bc ad54 90bd 70e9 45bd
000002b0: c25e 0cbd 3dc6 2d3b 0a22 81bc 16bb d53d
000002c0: 9235 4fbc 41bd 63bc 2c6f 6bbd 3e5e 65bd
000002d0: 21f3 deba 2173 6bbc 7dd3 8a3d 8bd0 f1bb
000002e0: 599e 3cbc 0ca1 3fbc 415f 7d3d 574f 0bbd
000002f0: ce9c 2bbd a1fa 26bc 2b7e 55bc 375a 51bc
00000300: e16d ab3b 6da6 5dbc 9e80 203d ae98 8e3b
00000310: bcac 173d 56ab d0bc 6134 6ebc 3e01 58bd
00000320: f6ce 363d 86b9 4abc 408b d9bc c112 103d
00000330: 312a d7bc 3577 d9ba 5295 6cbb 47ba 323d
00000340: da91 4ebc 8065 7fbc 4d1a 68bc 87b6 56bc
00000350: 8d93 42bc 3db3 4e3d 1074 c0bb c504 4ebc
00000360: a3c2 44bd 193d 84bc d98b 683d 2645 55bd
00000370: ea1f 63bc 2bab 83bc 415f 13bb f915 52bc
00000380: 0acf 4fbc 018a 68bc 6d7c 3bbc 1adb 40bc
00000390: 5067 bbbc 7b0d 053e 15ec 7b3d fd97 ab3c
000003a0: 9305 04bd 1ec7 2c3b 0386 02bd 4935 39bc
000003b0: 4c3e 88bc aedf a1bc a6ff 5abc 1a7d 01bd
000003c0: 99c6 aa3d a4fe 21bd 74d5 7fbc 6169 89bc
000003d0: 28b9 20bd 2de8 a6bc 4fda 8dbc 783c 53bc
000003e0: ac09 a13d da67 45bc d0ff 35bd 6ad5 7ebc
000003f0: 1906 68bc 5259 eebc 596c 2d3d 43c1 b03b
0.008758338 0.008880846 0.0030919102 0.10819763 0.0040494464 0.05695041 -0.026938986 -0.09253039
0.004793871 0.022392754 0.0029019893 0.013336158 0.08419103 -0.012103216 0.14837162 0.18955801
0.0031631053 -0.00832391 0.011500133 0.003382111 0.0022829236 0.079167664 0.0057195174 0.008711317
0.07536022 -0.039937105 0.00891216 -0.07694275 -0.11520906 0.0016641287 0.072160214 0.0028044204
-0.08801594 0.020375742 -0.05077277 0.0019345861 0.0023147953 0.07899477 0.0048012445 -0.054798108
0.025578603 0.032218307 -0.13946147 -0.045871567 -0.03196785 -0.023767417 0.007401836 0.060882684
0.0016068551 0.0066485624 -0.068671174 0.02033475 -0.099016346 0.008068338 0.09891562 -0.11106494
0.018301556 -0.006287062 0.1242431 0.00596001 0.06989864 -0.03565561 0.0061639044 0.0039594
-0.052610695 0.0042241137 -0.021740865 0.12310789 0.0887829 -0.07207177 0.008130772 -0.0933256
0.0983845 0.0046173786 0.018951016 0.10452123 0.018749313 0.13217531 0.025754303 0.16430402
0.0010813553 0.0033791957 -0.028632052 0.0025790452 0.0026617004 0.056464627 0.02606766 0.002763981
-0.12685198 0.01027145 0.024238832 -0.12021169 0.019293908 -0.035347898 0.1284964 0.0027663088
0.00087865675 0.0653327 0.003244615 -0.044505674 -0.09866407 0.046192497 0.09073878 0.08965804
-0.04502688 -0.0706176 0.07232217 -0.08366615 0.06363151 0.013732369 0.003883712 0.05951044
0.006013918 -0.09801994 0.029050922 -0.03735763 -0.26876703 0.0002242465 -0.05306199 0.0033094736
0.14013438 0.0036346726 0.046333794 0.02052737 0.013354865 -0.025705116 0.017809886 0.1660368
-0.018895032 -0.014060229 -0.012861023 0.16820194 -0.013651131 -0.017490396 -0.011993746 -0.043936796
-0.013818195 0.018776096 -0.012547385 -0.013931415 0.015865382 -0.021672018 -0.0049699605 0.096276045
-0.0124962125 0.021773681 -0.04661147 -0.013694151 -0.012713366 -0.014233848 -0.013606726 -0.01408926
-0.0024824927 -0.0113874525 -0.0046300627 -0.074165665 -0.13761598 -0.012605363 -0.017622972 -0.012536253
-0.012199732 -0.015381622 -0.014661522 -0.012661063 -0.0126709845 0.07286413 -0.013004152 -0.033690553
-0.0027451678 -0.015208057 -0.070474006 -0.048318326 -0.034270056 0.0026515864 -0.015763301 0.104360744
-0.0126470495 -0.013900102 -0.05747907 -0.05599808 -0.0017009714 -0.014370711 0.067786194 -0.0073795966
-0.011512362 -0.011696111 0.06185842 -0.03401121 -0.041897587 -0.0101915905 -0.013030569 -0.012777857
0.0052316044 -0.0135284485 0.03918516 0.004351697 0.037029967 -0.025472324 -0.014538855 -0.05273556
0.044630967 -0.012373334 -0.026555657 0.035174135 -0.026265236 -0.0016591313 -0.0036099744 0.04363468
-0.012608016 -0.015588164 -0.014166427 -0.013105041 -0.011875999 0.050463904 -0.0058732107 -0.012574379
-0.048037183 -0.016142415 0.056773994 -0.0520679 -0.013862589 -0.01607283 -0.0022487196 -0.0128226215
-0.012683639 -0.014193059 -0.01144324 -0.011770988 -0.022876412 0.12993424 0.061504442 0.020946497
-0.03223188 0.00263638 -0.031866085 -0.011304208 -0.016631268 -0.01975998 -0.013366615 -0.031613447
0.08338661 -0.039549485 -0.015614856 -0.016773881 -0.03923908 -0.020374382 -0.017316012 -0.012892835
0.07863173 -0.012048686 -0.044433415 -0.015553812 -0.01416161 -0.029095326 0.042339657 0.0053941323

first_head.0.bias f4 [128]
00000000: 3a93 c53d a741 973d 9fea 1ea5 886e 713d
00000010: 2726 703d cc1c b33d a52a 0d3d c954 a93d
00000020: 89ec fda6 c6b8 3a3d 4823 0d3d 6ffb 0d3d
00000030: 8f78 db3d c0ff 4f3d 6ee6 7c3d 9315 5f3d
00000040: 0f7b 0d3d 2ddf 9a3d 0ce2 0d3d ee89 373d
00000050: 52eb 953d 13ec c13d b52b af3d 2f4e 9f3d
00000060: ca2a 9b3d 662f 0d3d c568 b63d a5ef 8c3d
00000070: 42f1 dc3d cdb4 0d3d 59e0 353d 8712 8d3d
00000080: 55cb 0d3d 6bd0 af3d f9d3 c1b6 2474 a13d
00000090: 335b 893d 95cf 9e3b d819 8f3d 6d25 ac3d
000000a0: dc9d c03d bddf 0b3d 2cce 1e3d a653 8e3d
000000b0: 77b8 dbb9 d137 323d 51dc 6ab9 684e 8b3d
000000c0: 5b78 273c b006 023d 8ce6 8d3d 172a d13d
000000d0: 8d36 4c3d dcde 0d3d 311e 0b3d 2210 993d
000000e0: c171 2c3d 4aa2 623d 9631 0e3d 11c2 28ae
000000f0: fa37 4f3d 8d9b 8e3d 2930 7b3d efae 753d
00000100: 07fd 0c3d 6986 0d3d cb10 9bb7 6e57 963d
00000110: e79a 7a3d 182b 853d 6f0c d83d 80b9 0d3d
00000120: b972 bb3d ce2f 863d 81f7 693d bc8a db3d
00000130: fa40 043d f35e 7a3d b703 a03d 7972 0d3d
00000140: 4b62 9e3d 67e8 17b0 72e1 0c3d e2a5 88ba
00000150: 636e 7e3d 2083 323d 7b14 9f9e 4c95 0d3d
00000160: 5b58 0d3d 03d2 933d ac40 a73d 2f11 af3d
00000170: 153d 0d3d 1eff 953d a8af 283c 767f 833d
00000180: ee0d cd3d 3de9 963d f183 39ba 035a 853d
00000190: d357 843d bbae 883d 7507 0e3d a502 883d
000001a0: 66b5 723d 843c d63d 3ca7 eb92 4e87 3e3d
000001b0: b4bd 9a3d 36ea 9b3d 224c 0b3d c0b6 0c3d
000001c0: 5038 7c3d ce1a 3d3d 7081 9b3d 489e a83d
000001d0: b97d 9e3d 9c8d d43d 07d8 993d 481a 8e3d
000001e0: 9d78 be3d 9af4 0b3d fa52 d43d 8882 903d
000001f0: 1e8b e03b a823 a13d 11af 793d 92df afb0
0.09647222 0.07385569 -1.3783808e-16 0.0589433 0.058630135 0.08745727 0.034464497 0.082681246
-1.7619515e-15 0.04558637 0.034457475 0.034663614 0.10716354 0.05078101 0.061743192 0.054463934
0.034541186 0.07562099 0.034639403 0.044809274 0.073202744 0.09468856 0.08553258 0.07778584
0.07576521 0.03446903 0.08906702 0.06881646 0.10788204 0.034596253 0.044403408 0.068882994
0.03461774 0.085846744 -5.776525e-06 0.0788348 0.06706848 0.004846523 0.06987351 0.08405576
0.09405109 0.03414892 0.03877084 0.069495484 -0.00041908372 0.043510262 -0.00022398053 0.06802064
0.010221566 0.03174466 0.06928739 0.10213106 0.04985671 0.034636363 0.03396434 0.0747378
0.04210067 0.055330552 0.034715258 -3.8371143e-11 0.050590493 0.06963263 0.061325226 0.059981283
0.034420993 0.03455201 -1.848526e-05 0.07340895 0.061182883 0.0650236 0.105492465 0.034600735
0.09152741 0.06552087 0.057120804 0.10719821 0.03228853 0.061125707 0.078132086 0.034532998
0.07733592 -5.5263744e-10 0.03439469 -0.0010425413 0.06211699 0.04358208 -1.684325e-20 0.03456621
0.03450809 0.07217791 0.08166632 0.085481994 0.03448208 0.0732405 0.010295786 0.064207956
0.100124225 0.073687054 -0.0007076851 0.06511309 0.06462064 0.06673952 0.03467508 0.066411294
0.059255026 0.10460761 -1.4871811e-27 0.046515755 0.07555714 0.076130316 0.034008153 0.03435397
0.06157714 0.04616814 0.075930476 0.08233315 0.077388234 0.10378572 0.07511907 0.069386065
0.09300349 0.034168817 0.10367389 0.07056147 0.0068525216 0.07868129 0.060957972 -1.2796468e-09

first_head.2.weight f4 [7, 128]
00000000: 0727 febd 06f1 39bd 424b 5134 b8f4 7e3e
00000010: 15d0 7abe 339f e03c a238 17be feba 633e
00000020: 761d e939 6338 a0bb 299d 16be 4825 1abe
00000030: 1d1a 703d 3c0e 75be 8fc6 963e 7a76 38be
00000040: 04f7 16be d554 a43d 3b34 17be a805 343c
00000050: af87 873e 0cdf 91bd 9eec 88be 0985 c43e
00000060: 03db 013d 51a5 16be 6d03 113c e76a 4f3d
00000070: ca3b 9b3d 8a57 17be 8404 723d 3611 593d
00000080: 6e17 17be 2a2b 903e 8dc4 0b38 3c66 e93d
00000090: 3283 34be d8bc 19be e5c8 5bbe f6ce f53e
000000a0: 48d9 ac3e 39cf 18be 3a4a 853d a8a8 fb3d
000000b0: e213 0c3b 8749 0b3d 82b4 213b 7ce5 2fbe
000000c0: de9d e43c c04f a33d b850 a33e b428 0c3e
000000d0: 8511 bb3e 1229 17be dda3 1ebe 7bb7 c83c
000000e0: 729a 7abd 3cb6 23be ac1b 17be 13ae 63b6
000000f0: 4371 41be 24fc 7bbd 5a96 e03d 94ee b63e
00000100: b1a8 16be 3b37 17be 9fb5 3f3b b203 5b3e
00000110: af84 56be 9479 3cbd 2c46 093e 0932 17be
00000120: 2730 9f3d 701f 033e e1b8 6c3e f746 d7bd
00000130: 1c49 533d 4075 e23e 5962 a7bd 42f4 16be
00000140: 9ded 22be 2716 1f37 206e 17be 49d3 a63a
00000150: 877c e03c fa4a d23c 8112 47a2 afd1 16be
00000160: 79a5 16be b44a ae3d c9ad 153d c93e e23d
00000170: c878 17be 251a acbd 64c0 14be cab8 c93c
00000180: 3b27 b63e 084c b43b 8152 013a f900 403e
00000190: 7a14 2fbe 15c8 0c3e 263a 17be 9fc2 203e
000001a0: d6af 75bc 9b9f 0ebc a853 3c32 aeba 50be
000001b0: 9ee5 3a3c c50e c8bc 73e2 16be b74f 18be
000001c0: 3bd1 2abe 1652 08bc 2b7c b73c c9a1 7dbe
000001d0: 9845 f8bc f9d7 b8bd e5a4 4f3e 83bb 5dbe
000001e0: a4bc 89be 319b 17be 1cd6 f33d 19a2 02bd
000001f0: 68b4 12be d67a 493d cbde d93e 7a83 0739
00000200: 940d 913c 2261 c7bc 2518 e2ad 83a4 2abc
00000210: 63e3 173c 4afd d63d 31cc 0cbe 1f1e c4bb
00000220: dc01 21b8 b370 c3bb 9072 0cbe 8312 0fbe
00000230: c2fd 2b3d b5f3 b43e c8cf 713d ba28 183e
00000240: f6ab 0cbe e9d8 883d 4db8 0cbe 676d a2bb
00000250: d2e2 ca3d 87d1 a5bd 830b 59bb fd38 6ebe
00000260: 215f 3fbe d671 0cbe 7bc1 7b3d 116a a73d
00000270: 9b50 75bc fad0 0cbe 47f9 cebb aa52 193c
00000280: d7bd 0cbe 89fd a33d 558d 9339 8f20 5dbe
00000290: c50f 8bbe 51a7 21be 46d4 77bd f9fb e63d
000002a0: c662 95be 4ce0 0dbe 2042 de3c cac3 fc3d
000002b0: 640b 27ba 61a1 4e3c df67 4a3b 2072 4fbe
000002c0: c722 e13c 8e2b 913a b8aa 73be acd6 5fbc
000002d0: 77cb e2bd 8daa 0cbe a847 12be 7e14 4d3d
000002e0: 0783 353f fd40 b13e 0d64 0cbe 09d4 9735
000002f0: 7a88 2fbe 85db aa3c 479e 553e 6a9c f93e
00000300: 588c 0cbe 2dba 0cbe 1418 163a 5070 b4be
00000310: ac29 e23e 36c0 a8bd 952d 623e bbb7 0cbe
00000320: a814 a03d f7fa a63d 0ac3 16be 02c3 ff3d
00000330: 0e82 d03c 2694 c33d 9bc2 babd 9bbd 0cbe
00000340: 2184 67be 1419 99b9 fae6 0cbe 223d fa3a
00000350: c2b1 8b3d 7866 be3c c1dc 5220 738a 0cbe
00000360: 1f6d 0cbe 6555 e43b b242 e23d 5e4a 2f3d
00000370: f8df 0cbe 812b aabd 2c06 0bbe 6e34 13bd
00000380: 9730 bebe 63e7 483d 2537 f2bb 1e39 2bbd
00000390: 6ca9 ec3e 38e9 593c c6b8 0cbe 96d6 f33d
000003a0: 768e 2d3d 1657 b4be 6cfa 9333 ea2c 58be
000003b0: d783 1c3e 8c57 8b3d e24a 15be 24af 0dbe
000003c0: 8dbb ff3e 1a5e 1b3d 07a4 8b3d bfb6 683e
000003d0: a274 5e3c 0982 623e 2054 3e3d 0a11 873e
000003e0: 2b71 993d f244 0dbe 045e 20bc ed70 3fbd
000003f0: 1097 26be 43c6 07bd 2ad7 9d3e 4c11 1c37
-0.124097876 -0.045395873 1.949202e-07 0.2489804 -0.2449344 0.027419662 -0.14767697 0.222393
0.00044463173 -0.0048895343 -0.1470839 -0.15053284 0.058618654 -0.23931211 0.29448363 -0.18013945
-0.14742666 0.08023993 -0.14766018 0.010987677 0.26470706 -0.07122621 -0.26743025 0.38382748
0.031703006 -0.147115 0.008850914 0.05063906 0.07579763 -0.14779487 0.059086338 0.05299493
-0.14755031 0.28157932 3.3323235e-05 0.11396453 -0.17628172 -0.15013444 -0.21463354 0.4800946
0.33759522 -0.14922799 0.06508298 0.12288028 0.0021374156 0.034005668 0.0024674241 -0.17177385
0.027907308 0.079741955 0.3189752 0.13687402 0.36536804 -0.14761761 -0.15492196 0.024501553
-0.061182447 -0.15987486 -0.1475665 -3.392696e-06 -0.18890862 -0.061519757 0.10966177 0.35728896
-0.14712788 -0.14767163 0.0029252542 0.21388128 -0.20949052 -0.046014383 0.13405675 -0.1476518
0.07772856 0.12804961 0.231174 -0.10511582 0.051583394 0.4423008 -0.08173055 -0.14741614
-0.15910955 9.482296e-06 -0.14788103 0.0012727763 0.02740313 0.025670517 -2.6979325e-18 -0.14728425
-0.1471156 0.08510342 0.036542688 0.110471316 -0.14792168 -0.08403424 -0.14526516 0.024624247
0.35576805 0.0055022277 0.00049332535 0.18750371 -0.17097655 0.137482 -0.14768276 0.15699242
-0.014995536 -0.008705045 1.09620615e-08 -0.20383713 0.011407284 -0.024421105 -0.14734821 -0.14874159
-0.16681378 -0.008320352 0.022398075 -0.24768747 -0.030306622 -0.090255685 0.20277746 -0.21653561
-0.26901734 -0.14805295 0.119060725 -0.03189287 -0.14326632 0.04918941 0.4255279 0.00012923582
0.01770667 -0.024338309 -2.5703948e-11 -0.010415199 0.009270522 0.1049753 -0.13749768 -0.005985036
-3.8387123e-05 -0.0059643625 -0.13715577 -0.13971905 0.04199005 0.35342184 0.059036046 0.14859286
-0.13737473 0.06681997 -0.1374218 -0.0049568894 0.09906544 -0.08096605 -0.0033118434 -0.23263927
-0.18688633 -0.137153 0.061463814 0.081745274 -0.014972831 -0.13751593 -0.0063163373 0.009358088
-0.13744293 0.08007342 0.00028143325 -0.21594451 -0.2716047 -0.15786482 -0.060505174 0.11278529
-0.2917692 -0.13855094 0.02713114 0.12342031 -0.0006372242 0.012611718 0.0030884666 -0.20258379
0.027482403 0.0011075602 -0.23795593 -0.013662022 -0.11073964 -0.13736935 -0.14285147 0.05006837
0.70903057 0.34619895 -0.13710041 1.1312087e-06 -0.17141905 0.020856628 0.2086116 0.48752147
-0.13725412 -0.13742895 0.0005725634 -0.35241938 0.44172418 -0.08239786 0.220877 -0.13741963
0.0781644 0.081533365 -0.14722839 0.12488367 0.02545264 0.095497414 -0.09119149 -0.13744204
-0.22608997 -0.0002920112 -0.13759986 0.0019091705 0.06821014 0.02324222 1.7860733e-19 -0.13724689
-0.13713501 0.0069681876 0.11047877 0.04279553 -0.13757312 -0.08309079 -0.13576573 -0.035938673
-0.37146446 0.049048793 -0.0073918276 -0.041802518 0.4622301 0.013300233 -0.1374236 0.119061634
0.04237219 -0.3522269 6.8907724e-08 -0.21110883 0.15284668 0.068038076 -0.14579347 -0.13836342
0.49947777 0.03793154 0.06818395 0.22725962 0.013577612 0.22119917 0.046466947 0.26380187
0.07492288 -0.13795832 -0.00978804 -0.046738554 -0.16268563 -0.03314806 0.3082822 9.302352e-06

first_head.2.bias f4 [7]
00000000: 6c8e 89bb 0e92 37b9 8640 be3c 49a7 ff3c
00000010: d632 223b 6ab9 66bb 1906 cc3c
-0.004197886 -0.0001750665 0.023224127 0.031207697 0.002474954 -0.003520573 0.024905251
