src/models/saved_models/best_reinforce.pt (torch, 814315 bytes, 13 tensors)

conv_block.0.weight f4 [128, 2, 4, 4]
0	0x3d2ed7cf	0.04268628
1	0xbbd240d6	-0.0064164205
2	0x3cfe2de8	0.03102775
3	0x3c2b21b2	0.010445045
4	0x3d2a1550	0.04152423
5	0x3d9bd4a2	0.07608916
6	0x3d44b3c4	0.048023
7	0x3de075c9	0.10959966
8	0xbd2bc7da	-0.04193864
9	0xbd556f29	-0.052107964
10	0x3d011151	0.031510655
11	0x3e726041	0.2366953
12	0xbdb558c4	-0.08854821
13	0xbd63d5ea	-0.055623926
14	0xbdd4f5e9	-0.10398466
15	0x3e1b56d4	0.15169841
16	0xbd149753	-0.036277127
17	0x3c6b40c2	0.014358701
18	0xbd80c0df	-0.06286787
19	0xbe537cf3	-0.20653133
20	0xbe040e0c	-0.12895983
21	0xbdc95b23	-0.09831836
22	0xbd47fd23	-0.048825394
23	0xbebf04a4	-0.37308228
24	0x3c6c40da	0.014419759
25	0x3c809a29	0.01569851
26	0xbd31b138	-0.0433819
27	0xbe7918a1	-0.24325801
28	0x3cf99d82	0.030470613
29	0x3ccc54bc	0.024942748
30	0x3d940521	0.07227541
31	0xbe62be9d	-0.22143026
32	0x3ce5f92b	0.028072914
33	0xbd5f4ee8	-0.05451861
34	0xbd8a4731	-0.0675186
35	0x3bfe3128	0.0077573247
36	0xbd0d9a5e	-0.034571044
37	0xbcb1bf1b	-0.021697572
38	0xbd09c4c6	-0.033634923
39	0xbdf7dc18	-0.121025264
40	0x3ce1f666	0.027583312
41	0xbcee2993	-0.029072559
42	0x3c18d007	0.009326941
43	0xbdbc81f9	-0.09204478
44	0xbdadf27b	-0.08493515
45	0x3d19e00b	0.03756718
46	0xbcc891dc	-0.024483614
47	0x3e18316a	0.148626
48	0xbd2e6054	-0.042572334
49	0xbdda44fd	-0.1065769
50	0xbc17c53d	-0.009263334
51	0xbdec23ff	-0.11530303
52	0xbd112e01	-0.035444263
53	0xbd3219b7	-0.043481555
54	0xbd39f789	-0.045402084
55	0x3e5065b5	0.20351298
56	0xbc258cc1	-0.010104359
57	0xbd025d95	-0.031827528
58	0xbd5637db	-0.05229936
59	0xbdeb8eb9	-0.115018316
60	0x3d231d61	0.03982294
61	0xbdb68caf	-0.08913552
62	0x3a926435	0.001116878
63	0xbe5362c3	-0.20643143
64	0x3d40fc89	0.047115836
65	0x3dd00e56	0.10158984
66	0xbd7cf177	-0.061753716
67	0xbcf1b7db	-0.029506614
68	0x3d73e11b	0.05954085
69	0xbbf9ec50	-0.0076270476
70	0xbd09db68	-0.033656508
71	0xbcc66fb4	-0.024223186
72	0x3dbd9395	0.09256665
73	0xbd496d2d	-0.049176384
74	0xbd89e1ad	-0.06732497
75	0xbb91e7b0	-0.004452668
76	0x3db0a8a6	0.08625917
77	0x3dc54a73	0.09633341
78	0xbc901ed2	-0.017592821
79	0xbd9bbb88	-0.07604128
80	0xbd0b5dae	-0.034024887
81	0xbdabd3bb	-0.08389994
82	0xbd416ad5	-0.047221024
83	0xbc2c9bb4	-0.010535169
84	0xbd705e4e	-0.058683686
85	0x3bcea2cb	0.0063060275
86	0xbd7d881a	-0.061897375
87	0x3bc42629	0.0059859944
88	0x3d559115	0.052140314
89	0x3b172b8f	0.0023066734
90	0x3d0e01b3	0.03466959
91	0xbd8abae8	-0.06773931
92	0x3d54d41e	0.051960103
93	0x3d4ace48	0.04951313
94	0xbcf19e7d	-0.029494518
95	0xbda3dfad	-0.08001647
96	0xbca1c2fd	-0.019746298
97	0x3d21684e	0.039406113
98	0xbd05490b	-0.032540362
99	0x3df4eef3	0.119596384
100	0xbe02963b	-0.12752621
101	0xbe663659	-0.2248167
102	0xbe70ed63	-0.23528056
103	0x3c2fb617	0.010724566
104	0xbd056bae	-0.032573394
105	0x3d6614f2	0.05617232
106	0x3d9ad879	0.0756082
107	0xbd84c054	-0.06481996
108	0x3d957920	0.072984934
109	0x3d76e9a5	0.060281415
110	0x3de73b5b	0.11290618
111	0xbdaa74ca	-0.08323057
112	0x3cd17f82	0.025573496
113	0xbd1c0696	-0.03809222
114	0x3caabe6d	0.020842755
115	0xbdc9778f	-0.09837257
116	0x3dd01720	0.10160661
117	0x3e0044a3	0.12526183
118	0x3dd7dc61	0.10540081
119	0x3e6679a4	0.2250734
120	0x3bfea666	0.007771301
121	0xbce94096	-0.02847318
122	0x3dfbdbb6	0.12297766
123	0xbe048e0c	-0.12944812
124	0xbb5aabd7	-0.0033366585
125	0x3d3a6d68	0.045514494
126	0x3d8754f7	0.06608003
127	0xbe086449	-0.13319506
128	0xbd73f331	-0.059558097
129	0xbd6e031c	-0.058108434
130	0x3d987375	0.07443897
131	0x3e8c49a0	0.2739992
132	0xbcd2a86e	-0.02571508
133	0xbccdb075	-0.025108555
134	0xbdee0040	-0.116211414
135	0xbdb7ffd8	-0.08984345
136	0xbcd726fb	-0.026263705
137	0x3e37effd	0.17962642
138	0x3d769f8b	0.060210746
139	0xbd1c6915	-0.03818615
140	0x3e89604c	0.2683128
141	0xbd8cb66f	-0.06870734
142	0x3c8ebf4c	0.017425202
143	0xbd98e97c	-0.074664086
144	0x3bcf060e	0.0063178604
145	0x3d06f6b6	0.032950126
146	0x3d09d679	0.033651803
147	0xbe62dd62	-0.22154763
148	0xbc8ec6b0	-0.017428726
149	0xbbd5652c	-0.006512305
150	0xbe5935d6	-0.21211943
151	0xbc9386de	-0.018008646
152	0x3be7e43f	0.0070767696
153	0xbe8adc09	-0.27120999
154	0x3dc90250	0.09814894
155	0xbc34500e	-0.011005415
156	0xbe66156f	-0.22469114
157	0xbae01b1f	-0.0017097926
158	0x3d33196e	0.043725424
159	0xbd3e9e7a	-0.046537854
160	0xbe2cbfa0	-0.16869974
161	0xbe54d600	-0.2078476
162	0xbe247624	-0.16060692
163	0xbe49b61b	-0.19698374
164	0x3dba1ec2	0.09087898
165	0x3d331ba4	0.043727532
166	0x3e35a694	0.17739326
167	0xbd98fc7f	-0.07470035
168	0x3dbbfdbb	0.091792546
169	0x3df4102e	0.119171485
170	0x3d1fd399	0.039020155
171	0xbdbb6f4c	-0.091520876
172	0x3dc38684	0.09547141
173	0x3c255922	0.010092052
174	0xbabe86ce	-0.0014536025
175	0xbc927631	-0.017878624
176	0x3cd65fa9	0.026168661
177	0x3e25d4a9	0.16194405
178	0x3e29fc21	0.16600086
179	0xbc102a8a	-0.008799205
180	0xbd9693e1	-0.073524244
181	0xbc958159	-0.018250154
182	0xbdabe1cc	-0.08392677
183	0x3cfbca30	0.030736059
184	0xbd57d4b3	-0.05269308
185	0xbdea713a	-0.114473775
186	0xbd203881	-0.039116386
187	0x3d2a3bc9	0.04156092
188	0xbe0989ef	-0.13431524
189	0xbcd3ef7b	-0.02587103
190	0xbcac85e8	-0.021059945
191	0x3dac2cd4	0.08406988
192	0xbe8b5f90	-0.27221346
193	0xbd106ac6	-0.035258077
194	0xbc1fe2c1	-0.009758652
195	0xbe03be07	-0.12865458
196	0xbe7fd095	-0.24981911
197	0xbd09485d	-0.033516277
198	0xbe0921d7	-0.13391815
199	0x3c74c0bf	0.014938532
200	0xbe979e62	-0.29613024
201	0xbdd5c984	-0.10438827
202	0x3c26979a	0.010167981
203	0xbc760047	-0.015014715
204	0xbee77054	-0.45202887
205	0xbdc9d201	-0.09854508
206	0xbda90d63	-0.082545064
207	0xbdab3bf7	-0.08361047
208	0x3c96984d	0.01838317
209	0x3b7c96a1	0.003854193
210	0xbbbcfb68	-0.0057672746
211	0x3e3ef7cb	0.18649213
212	0x3e8a5ddc	0.27024734
213	0x3b78d474	0.0037968429
214	0x3e02996f	0.12753843
215	0x3c50f834	0.012754489
216	0x3e50fac9	0.20408167
217	0x3dcd664f	0.100292794
218	0x3d2e7305	0.04259016
219	0xba8f5fa0	-0.0010938533
220	0x3e93dc62	0.28879076
221	0x3e22ba6e	0.1589143
222	0x3e10a82b	0.14126651
223	0x3e004f97	0.12530361
224	0xbe4d929a	-0.20075455
225	0x3a6e256f	0.00090845575
226	0x3c979c2b	0.018507084
227	0x3c5cb35b	0.013470496
228	0x3d03376d	0.03203528
229	0xbca1c1a4	-0.019745655
230	0xbc7f6f75	-0.015590538
231	0x3d27ed12	0.040997572
232	0x3d8119f1	0.06303776
233	0x3cdf61b0	0.02726826
234	0x3ddef65b	0.10886832
235	0xbb0eee18	-0.0021809395
236	0x3db6755c	0.08909103
237	0xbd5cbe17	-0.05389222
238	0x3d268cce	0.040661626
239	0xbe7e785a	-0.24850598
240	0x3e5288f7	0.2056006
241	0xbc8b0ac7	-0.016972912
242	0xbd707a5c	-0.05871044
243	0xbcfa29f9	-0.030537592
244	0x3d96984d	0.07353268
245	0xbdcf9a50	-0.10136855
246	0xbbca51cf	-0.006174303
247	0xbd2c8b11	-0.04212481
248	0x3dd2d68b	0.10294827
249	0x3d95b150	0.0730921
250	0xbe65dc99	-0.22447433
251	0xbca0562a	-0.019572336
252	0x3d8778df	0.06614851
253	0xbd52020d	-0.051271487
254	0x3d57e839	0.0527117
255	0x3e67791d	0.22604795

conv_block.0.bias f4 [128]
0	0xbdc29c74	-0.09502497
1	0xbdfd9583	-0.12382033
2	0xbe277426	-0.16352901
3	0xbe6a9720	-0.22909212
4	0xbee01b42	-0.43770796
5	0xbe3b6690	-0.18300843
6	0xbea5d904	-0.32392132
7	0xbe3c6b3e	-0.18400285
8	0xbe68704b	-0.22699086
9	0xbe9f02bc	-0.31056774
10	0xbe8f9257	-0.28041336
11	0xbe9a68a5	-0.30157962
12	0x3c7fa9a3	0.015604409
13	0xbdfc3cad	-0.123162605
14	0xbe784ac0	-0.24247265
15	0xbe55a053	-0.2086194
16	0xbf14afe1	-0.5808087
17	0xbe78c573	-0.24294071
18	0xbe5c2d3a	-0.21501628
19	0xbe17f528	-0.14839613
20	0xbdb2eae2	-0.087362066
21	0xbee891d1	-0.4542375
22	0xbe0375c3	-0.12837891
23	0xbdd362b4	-0.103215605
24	0xbdea45a3	-0.114390634
25	0xbebd9415	-0.3702704
26	0xbe240786	-0.16018495
27	0xbbf57dae	-0.007491789
28	0xbe17cec7	-0.14824973
29	0xbec775fb	-0.389572
30	0xbc3c8e89	-0.011508592
31	0xbe29f8f9	-0.16598882
32	0xbe3fd671	-0.18734147
33	0xbdede52e	-0.11615978
34	0xbe3edb96	-0.18638453
35	0xbe5168ff	-0.20450209
36	0xbe9c07ab	-0.304746
37	0xbe3dcfc8	-0.18536294
38	0xbd1e2595	-0.03861006
39	0xbdebb803	-0.11509707
40	0xbd38f6f1	-0.045157377
41	0xbe63100d	-0.22174092
42	0xbe3da507	-0.18519984
43	0xbec6f03a	-0.38855153
44	0xbe3a5222	-0.18195394
45	0xbcafa0d9	-0.021439003
46	0xbe3393df	-0.17536877
47	0xbea53c76	-0.3227269
48	0xbeb7430c	-0.3579334
49	0xbead3fcc	-0.33837736
50	0xbe044ee4	-0.1292072
51	0xbe24ed47	-0.16106139
52	0xbee3d920	-0.4450159
53	0xbe1351dd	-0.14386697
54	0xbe055963	-0.1302238
55	0xbdf18088	-0.117920935
56	0xbdc63279	-0.09677596
57	0xbe355813	-0.17709379
58	0xbe9deda5	-0.3084537
59	0xbdc5ae7e	-0.09652422
60	0xbe3774c0	-0.1791563
61	0xbed86f45	-0.42272392
62	0x3ceddc81	0.029035809
63	0xbe1d6d89	-0.15373816
64	0xbdd06560	-0.10175586
65	0xbdcf5bef	-0.10124957
66	0xbe6f49b3	-0.23367958
67	0xbe7f0200	-0.24903107
68	0xbe8086ff	-0.25102994
69	0xbe7a6f99	-0.24456634
70	0xbe29addf	-0.16570233
71	0xbe717a05	-0.23581703
72	0xbe74534f	-0.23859905
73	0xbe4abb44	-0.19797999
74	0x3c9aa6cc	0.018878363
75	0xbe5814e5	-0.2110172
76	0xbe93fea4	-0.28905213
77	0xbee54fe8	-0.44787526
78	0xbe732626	-0.23745021
79	0xbdeecba9	-0.11659939
80	0xbe5f1393	-0.2178481
81	0xbdc4ed30	-0.096155524
82	0xbe7b4ea3	-0.24541716
83	0xbe38cec8	-0.18047631
84	0xbd5466d8	-0.051855892
85	0xbd13a819	-0.036048982
86	0xbcf4c27d	-0.029877895
87	0xbe0aea9f	-0.13566063
88	0xbdacf911	-0.08445943
89	0xbe81d40a	-0.25357085
90	0xbe37e450	-0.17958188
91	0xbec0d608	-0.37663293
92	0xbe0d3542	-0.13789847
93	0xbe9284ad	-0.2861685
94	0xbe5bf79e	-0.21481177
95	0xbe2c1a45	-0.16806896
96	0xbe3d1201	-0.18463899
97	0xbcd22561	-0.02565259
98	0xbecda517	-0.40165016
99	0xbdfff13d	-0.124971844
100	0xbeac01de	-0.33595175
101	0xbe09d4d7	-0.13460098
102	0xbe6249b9	-0.22098435
103	0xbdebcecc	-0.11514053
104	0xbf3c021d	-0.73440725
105	0xbe78bc77	-0.24290644
106	0xbe93e3b2	-0.28884655
107	0xbec21e3d	-0.37913695
108	0xbe0bd78e	-0.13656446
109	0xbe5b9996	-0.21445307
110	0xbf249921	-0.64296156
111	0xbe4765a3	-0.19472365
112	0xbdf06272	-0.11737527
113	0xbe1ecd80	-0.1550808
114	0xbe6b4381	-0.2297497
115	0xbe9284b3	-0.28616866
116	0xbe605cee	-0.2191045
117	0xbe4c2784	-0.19936949
118	0xbdd9b09c	-0.10629389
119	0xbca03965	-0.019558618
120	0xbc853d5c	-0.01626461
121	0xbe056fbf	-0.13030909
122	0xbe0bc04c	-0.13647574
123	0xbe28881b	-0.1645817
124	0xbe754877	-0.23953424
125	0xbe01541c	-0.12629741
126	0xbe05c069	-0.1306168
127	0xbe8fecb8	-0.2811029

conv_block.2.weight f4 [128, 128, 2, 2]
0	0x3d5369a8	0.051614434
1	0xb928572d	-0.00016054204
2	0x3d0bf37e	0.03416776
3	0xbba99b8f	-0.0051760147
4	0xbc9b88a9	-0.018986063
5	0xbbaef03d	-0.005338697
6	0xbc15e1c9	-0.00914807
7	0x38cc098d	9.729257e-05
8	0xbb90d262	-0.004419611
9	0x3c2b46b0	0.010453865
10	0xbb27e2ce	-0.0025617364
11	0xbbd29316	-0.0064262254
12	0xbbc2a097	-0.005939554
13	0x3c9cd50f	0.019144563
14	0x3c1b7219	0.009487652
15	0x3c3a850c	0.01138426
16	0x3c0398c8	0.008032031
17	0xbb511b35	-0.0031907086
18	0xbbb95797	-0.0056561935
19	0xbcaa146c	-0.020761691
20	0x3c8e9d0d	0.017408872
21	0x3c1282b4	0.008942295
22	0xbd17388f	-0.036919173
23	0xbbce31b7	-0.0062925476
24	0x3c053a07	0.008131511
25	0x3b5f8a7f	0.003410965
26	0xbb3bd2fc	-0.0028659692
27	0x3ba072e7	0.00489651
28	0xbb9bacae	-0.0047508096
29	0xbc3ee49c	-0.011651184
30	0x3b8af129	0.0042401743
31	0x3c2e0eae	0.010623617
32	0x3b62f992	0.0034633619
33	0xbc872b0b	-0.016500017
34	0x3c14acc0	0.00907439
35	0xbc99f4ba	-0.018793453
36	0x3d17afd6	0.037032925
37	0x3ca3fbd0	0.020017534
38	0xbaf50f6a	-0.001869661
39	0x3cdf2e5f	0.027243791
40	0x3c0d1300	0.008610487
41	0xbc66a72c	-0.014077943
42	0x3b03777f	0.002006024
43	0x3b24c624	0.0025142515
44	0x3cef7d6f	0.029234616
45	0x3a258f0d	0.0006315567
46	0xbc9118b0	-0.017711967
47	0x3adc022f	0.0016785319
48	0xbccdc937	-0.02512036
49	0xbbc472fd	-0.005995153
50	0xbaaa59f6	-0.0012996781
51	0xbc31d3d0	-0.010853723
52	0xbbc70b2f	-0.0060743312
53	0x3c8f5411	0.01749614
54	0x3adbd24d	0.0016771049
55	0xbc91761f	-0.01775652
56	0xba9f8600	-0.0012170672
57	0xbbe82ef0	-0.0070856735
58	0x3b49e2c0	0.003080532
59	0x3bf2edad	0.007413587
60	0x3cb5957f	0.022166012
61	0xbb51cd1e	-0.0032013129
62	0x3c295e9b	0.010337497
63	0x3bbb6f33	0.005720043
64	0x3b075fe2	0.0020656516
65	0xbc6645bc	-0.014054712
66	0x3b45a75b	0.0030159566
67	0x391a00b1	0.00014686842
68	0xbc46d97b	-0.012136812
69	0x3c867b64	0.01641626
70	0x3c46207c	0.012092706
71	0xbbac71e9	-0.0052626026
72	0x3bab1e27	0.0052221003
73	0x3c9e0466	0.019289207
74	0xbc7865c2	-0.01516098
75	0x3b94fae6	0.004546511
76	0x3bd77eaa	0.006576379
77	0xbcc33f53	-0.023833906
78	0xbd0b69c2	-0.034036405
79	0x3ad28418	0.0016061096
80	0xbb709a11	-0.0036712924
81	0x3c49cdae	0.012317104
82	0xbc87293f	-0.01649916
83	0x3ae4c9f3	0.0017455205
84	0xbb37b84c	-0.0028033433
85	0xbace35bb	-0.0015732566
86	0xbbcbe5e3	-0.006222473
87	0xbc580ffa	-0.013187403
88	0xbb615ddf	-0.0034388227
89	0xbbd67672	-0.0065448815
90	0x3c375680	0.011190057
91	0xb980a17c	-0.00024534378
92	0xbb588168	-0.0033036117
93	0x3ad5f7d9	0.0016324475
94	0x3bf79c0e	0.007556445
95	0xbbc84464	-0.0061116684
96	0xbc52f4b6	-0.012875726
97	0xbbf7702f	-0.007551215
98	0xbc53ac08	-0.012919433
99	0xbb790b20	-0.0038001016
100	0xbb044bbf	-0.002018675
101	0x3b8f9d86	0.004382792
102	0xbade352d	-0.0016953103
103	0x3be7dbdc	0.00707577
104	0xbc04589d	-0.008077768
105	0xb8c8e74e	-9.579827e-05
106	0xbbce0ecd	-0.0062883855
107	0x3c93ea43	0.01805604
108	0x3c1747d1	0.009233431
109	0xbc8c75eb	-0.017146071
110	0xbb63b0c3	-0.003474281
111	0xbca3f2a4	-0.020013161
112	0x3c8ee93d	0.017445201
113	0x3d1389b1	0.036019985
114	0xbc9f1d21	-0.01942307
115	0xbc327660	-0.010892481
116	0xbaa0cd17	-0.0012268153
117	0xbcafeeeb	-0.02147623
118	0x3c9998c9	0.018749611
119	0x3c0e33c4	0.008679334
120	0xbbb7405a	-0.005592388
121	0xbc8afc69	-0.016966062
122	0xbba32dfa	-0.004979846
123	0xbbfab6b1	-0.007651173
124	0x3c5ccd07	0.013476617
125	0xbbea512f	-0.007150791
126	0x3c41a794	0.011819739
127	0x3a7a6684	0.0009552019
128	0x3ba3104e	0.004976309
129	0x3cf2411a	0.029572058
130	0xbb06cd09	-0.0020568988
131	0x3c815568	0.015787795
132	0xbb80866f	-0.0039222757
133	0x3bb7201c	0.0055885445
134	0x3b73336b	0.0037109505
135	0xbb90ffd9	-0.0044250307
136	0xbb457af6	-0.0030133105
137	0x3b277622	0.002555259
138	0xba96bd5c	-0.0011500525
139	0xbab8349d	-0.0014053766
140	0x3c98cee6	0.018653344
141	0xbc4f82a6	-0.012665426
142	0xbbcebd51	-0.0063091894
143	0x3c42ec12	0.011897104
144	0xbc276a74	-0.0102182515
145	0x3a6f8ef8	0.00091384305
146	0x3b1ef014	0.0024251984
147	0xbc653cd9	-0.013991558
148	0xbc2609b7	-0.010134152
149	0xbc382ac7	-0.011240668
150	0x3c0e4c46	0.008685177
151	0xb9dd1cc6	-0.00042173843
152	0xbbec6415	-0.007214079
153	0xbcba66fb	-0.022754183
154	0x3b49f180	0.0030814111
155	0xbc33457d	-0.01094186
156	0x3a139490	0.00056297425
157	0xbca0d9b1	-0.019635053
158	0xbc820778	-0.015872702
159	0x3b958011	0.004562386
160	0xbba45472	-0.0050149495
161	0xba1bc9f5	-0.00059428747
162	0xbcada89b	-0.021198561
163	0xbb9124ba	-0.004429427
164	0xbcea2aad	-0.028584803
165	0x3ce63482	0.02810121
166	0xbc0c5384	-0.008564834
167	0xbb723f87	-0.0036964135
168	0xbb1f6f7b	-0.0024327922
169	0x3c550eec	0.013004046
170	0xbaf43e58	-0.0018634303
171	0xbc69c30d	-0.014267695
172	0xbcd79866	-0.026317786
173	0xbc0b3ad7	-0.008497915
174	0xbbd5e01d	-0.0065269605
175	0x3bde91aa	0.006792267
176	0x3d075899	0.033043478
177	0xbb0b8934	-0.0021291496
178	0xbc2857df	-0.010274856
179	0xbc133ce3	-0.0089866845
180	0x3badb02f	0.0053005437
181	0x3b035ede	0.002004556
182	0xbb55b7b1	-0.003261071
183	0xbc0f3297	-0.008740089
184	0x3d45a4c4	0.048252836
185	0xbc4bc1a1	-0.012436301
186	0x3c47ecd1	0.0122024575
187	0xbc1181d7	-0.008881054
188	0xbc597ea0	-0.013274819
189	0x3cb80d62	0.022467319
190	0x3ab881b8	0.0014076745
191	0xbb223f7c	-0.0024757078
192	0x3a8b691a	0.0010636181
193	0x3b8152c5	0.0039466345
194	0x3c0ab1d4	0.008465249
195	0x3c3ca42d	0.011513752
196	0xbbc92e04	-0.0061395187
197	0x3c81e236	0.015854936
198	0xbbff0357	-0.0077823806
199	0x3bfc2eb3	0.0076959967
200	0xb8d2cbbb	-0.00010051528
201	0x3b9569d9	0.004559737
202	0xbbb5f46a	-0.005552818
203	0xba59518e	-0.00082900457
204	0xbbbdc532	-0.00579133
205	0xbc8a83eb	-0.016908607
206	0x3a433295	0.0007446197
207	0xba84d10e	-0.0010133104
208	0xbb9f0f6c	-0.0048541334
209	0xbc7a1166	-0.015262937
210	0xbbfe0f4e	-0.0077532893
211	0xbc382b67	-0.011240817
212	0xbb814817	-0.0039453614
213	0xba1936c1	-0.0005844646
214	0xbb48f357	-0.003066262
215	0xbc21256a	-0.00983558
216	0x3b0546fe	0.0020336504
217	0xb9d711fd	-0.00041021398
218	0x3c1fd6b0	0.009755775
219	0x3c1da9a4	0.009622965
220	0xba896a0b	-0.0010483874
221	0x3d1b65dd	0.03793894
222	0xbb9ce307	-0.004787806
223	0x3cdbfe62	0.026854698
224	0x3b50677f	0.003179997
225	0x3d2327c0	0.03983283
226	0xbb2000f3	-0.0024414628
227	0x3be7d6eb	0.0070751808
228	0xbaca28d5	-0.0015423546
229	0xbc085e66	-0.008323288
230	0xbbfbc6c3	-0.0076836064
231	0x3ba37194	0.004987905
232	0xbc8e2506	-0.017351639
233	0xb9175849	-0.00014433371
234	0x3c32a1cc	0.010902833
235	0xbc62af9b	-0.013835813
236	0xbcf73a46	-0.030179154
237	0x3ae0f178	0.0017161807
238	0xbc2f39b7	-0.010694913
239	0xbb85b488	-0.004080359
240	0x3b1e76a4	0.0024179602
241	0xbb77a817	-0.0037789398
242	0x3c0d9a87	0.008642799
243	0xbc49fe27	-0.012328661
244	0xba395a00	-0.0007070601
245	0xbc4b6735	-0.012414743
246	0xbb3b2b2d	-0.002855967
247	0x3ab85e33	0.001406616
248	0xbcda2f86	-0.026633989
249	0xbc886a89	-0.016652362
250	0xbbea0b52	-0.007142463
251	0xbb1abdea	-0.0023611733
252	0xbbe0967c	-0.0068538766
253	0xbbc7a04d	-0.0060921074
254	0x3c0c19e8	0.008551098
255	0x3c227e4d	0.009917808

conv_block.2.bias f4 [128]
0	0xbd22bf0c	-0.039732978
1	0xbc141d0c	-0.009040128
2	0xbdf34761	-0.11878849
3	0xbbbf4558	-0.005837124
4	0xbb456cbe	-0.003012463
5	0xbe1adb73	-0.15122776
6	0xbbad1be8	-0.0052828677
7	0xb99c5a58	-0.0002982195
8	0xbc398088	-0.011322148
9	0xbcb5aece	-0.02217808
10	0xbd9be660	-0.076123
11	0xbc523450	-0.012829855
12	0x3bbfa0f5	0.005848045
13	0xbc7f0801	-0.015565873
14	0xbc548871	-0.012971983
15	0xbdbfe1e2	-0.093692556
16	0xbd2c46ed	-0.042059828
17	0xbde08313	-0.109625004
18	0xbdcea58e	-0.10090171
19	0xabcf6ef3	-1.4739029e-12
20	0xb7a7bab9	-1.99949e-05
21	0xbdd277bb	-0.10276743
22	0xb73be8ee	-1.1200302e-05
23	0xbd83513f	-0.06411981
24	0xbdc3e268	-0.09564668
25	0xbd18ca57	-0.03730234
26	0xbdba49a7	-0.09096079
27	0x3c9dd9a0	0.01926881
28	0xbdcdbf8f	-0.100463025
29	0xbdc70b63	-0.09718969
30	0x8d4919e9	-6.1969095e-31
31	0xbde4c0af	-0.11169564
32	0xbe280789	-0.16409124
33	0xbccf220e	-0.025284793
34	0xbdc5d53a	-0.0965981
35	0xbdd05a95	-0.10173527
36	0xbcea728a	-0.02861907
37	0xa0bd8748	-3.2107367e-19
38	0xbdec63c2	-0.11542465
39	0xbd6f6653	-0.058447193
40	0xbcf733a9	-0.030176
41	0xbd2f955f	-0.04286706
42	0x3e257dd4	0.16161281
43	0xbdce9d57	-0.10088604
44	0xbda96397	-0.082709484
45	0xbc5f490c	-0.013628256
46	0xbbb9aaee	-0.0056661284
47	0xbd73da82	-0.059534557
48	0xb5231456	-6.0751825e-07
49	0xbd890ef0	-0.06692302
50	0xbe30ecc0	-0.17277813
51	0xbb7e9e52	-0.003885169
52	0xbdc66d36	-0.09688799
53	0xbd5396aa	-0.051657356
54	0x3e0ebe96	0.1393989
55	0x3d16036e	0.036624365
56	0xbda359b9	-0.079760976
57	0xb8ad7862	-8.271706e-05
58	0x3d19f76e	0.037589483
59	0xbdf38a65	-0.11891631
60	0xbd72e115	-0.059296686
61	0xbe00c5a9	-0.12575401
62	0xbdae0b36	-0.08498232
63	0xbe3778e4	-0.1791721
64	0xbc920fad	-0.01782974
65	0xbc90f456	-0.017694633
66	0xbdf45fbc	-0.119323224
67	0xbe5438be	-0.2072477
68	0xbe181565	-0.14851911
69	0xbd890377	-0.06690114
70	0xb98902bc	-0.00026132714
71	0xaed459b3	-9.6565776e-11
72	0xbd896df8	-0.06710428
73	0xbdacd0bf	-0.08438253
74	0xbd9be6df	-0.076123945
75	0xbca3a5ee	-0.019976582
76	0xbde86b3d	-0.11348579
77	0xbdb7055f	-0.08936571
78	0xbc89911f	-0.016792832
79	0xba54bcaa	-0.00081152713
80	0xbcb926d0	-0.022601515
81	0xb0ad4717	-1.2607612e-09
82	0xb6b663aa	-5.435625e-06
83	0xbaaa3776	-0.0012986499
84	0xbe06ae09	-0.13152327
85	0x91cc5f01	-3.2244076e-28
86	0xa788d08e	-3.79737e-15
87	0xbdc7a0bf	-0.09747457
88	0xbb99e7fc	-0.004696844
89	0x3b0d674c	0.0021576462
90	0xbdb2c095	-0.08728138
91	0xbb0bfdc2	-0.0021360968
92	0xbd8ce5f2	-0.06879796
93	0xbcef337d	-0.029199356
94	0xbd837d91	-0.06420434
95	0xbe24a60e	-0.1607897
96	0xbdc58dc2	-0.09646179
97	0xbc7d1848	-0.015447684
98	0xbdb98697	-0.09058874
99	0xb6ce7b67	-6.1536443e-06
100	0xbdf6c8ab	-0.12049993
101	0xbde3d533	-0.11124649
102	0xbd698fc4	-0.05702187
103	0xba9349c1	-0.001123719
104	0xbd411e1d	-0.04714786
105	0xbd19804f	-0.03747588
106	0x9feb03f9	-9.9532944e-20
107	0x386f602a	5.70716e-05
108	0x95a29fce	-6.5683406e-26
109	0x3d7a70bf	0.06114268
110	0xb73e1397	-1.1329444e-05
111	0x3d86f6f7	0.065900736
112	0xbd9f8b52	-0.07790245
113	0xbdf803b5	-0.12110082
114	0xb841602f	-4.6104364e-05
115	0xbc00d3c0	-0.007862985
116	0xbd5ecfd0	-0.054397404
117	0xbdc885c0	-0.09791136
118	0x3c036385	0.008019333
119	0xbe0039b5	-0.12522013
120	0xbdb3959e	-0.087687716
121	0xa518c696	-1.3251182e-16
122	0xbe4d4bcf	-0.2004845
123	0xbbf2bfe0	-0.007408127
124	0xb8d6f32e	-0.00010249611
125	0xbc8d3e9a	-0.017241765
126	0xbce61bc8	-0.028089419
127	0xbd31d494	-0.04341562

fc_block.0.weight f4 [128, 768]
0	0xbc68dadb	-0.014212335
1	0xba048d86	-0.0005056489
2	0x3c9f5b59	0.019452738
3	0xbbca8d29	-0.0061813784
4	0x3bf51d57	0.007480304
5	0x3b7ceac2	0.0038592075
6	0x3cb1074b	0.021609923
7	0xbd9ebe85	-0.077511825
8	0x3d8341ac	0.0640901
9	0x3c6b10e7	0.014347292
10	0xbd935c3c	-0.07195327
11	0x3d83ec8a	0.064416006
12	0xbd0bc834	-0.034126475
13	0xbc13a6b1	-0.00901191
14	0x3d7cfa26	0.061761998
15	0xbd0e6d49	-0.03477219
16	0x3b8e2f5b	0.0043391413
17	0x3dd4c0ea	0.10388358
18	0xb7fde5a6	-3.0266889e-05
19	0x3b871474	0.0041223112
20	0x3b05aef9	0.0020398481
21	0xbc9d5c47	-0.01920904
22	0x3d2a5a75	0.041590173
23	0xbd4e63ab	-0.05038802
24	0x3cf5f886	0.030025732
25	0x3c1f7972	0.009733545
26	0x3b2360e7	0.0024929584
27	0x3cc438ba	0.02395283
28	0x3bcc65a9	0.006237705
29	0xbd00cb13	-0.031443667
30	0x3c88dd42	0.016707066
31	0xbc0c9758	-0.008581005
32	0x3d1024e0	0.035191417
33	0xbcbc1c7d	-0.022962803
34	0xbc6f35f9	-0.01460027
35	0x3e1951b0	0.14972568
36	0x00000974	3.391e-42
37	0x00000548	1.895e-42
38	0x00000403	1.439e-42
39	0x800009e4	-3.548e-42
40	0x800004f6	-1.78e-42
41	0x8000069d	-2.372e-42
42	0x8000151c	-7.573e-42
43	0x80001528	-7.59e-42
44	0x0000133c	6.9e-42
45	0x800012f4	-6.799e-42
46	0x80000b3c	-4.03e-42
47	0x80000b94	-4.153e-42
48	0x376b3434	1.4019246e-05
49	0x36b0ac75	5.2652854e-06
50	0x37ae68c2	2.0791198e-05
51	0x3a13bfd0	0.0005636187
52	0x3b3ec319	0.0029107986
53	0x3ab58fa9	0.0013852018
54	0x3b3bce76	0.0028656996
55	0x3ca42281	0.020035984
56	0x3d10532a	0.03523556
57	0xbdb11f74	-0.08648577
58	0x3cb0c41f	0.021577893
59	0x3dc295e2	0.09501244
60	0x3cbe43f5	0.023225764
61	0xbc49e633	-0.01232295
62	0x3b59bb7b	0.003322332
63	0x3d00e4ff	0.031468388
64	0xbd38d371	-0.04512352
65	0xbca0ab26	-0.01961286
66	0x3c3d210b	0.011543523
67	0x3b8d28a4	0.0043078233
68	0x3c2394b0	0.00998418
69	0x3ce81cdc	0.028334074
70	0x3a00ad39	0.00049086247
71	0xbb8d490c	-0.0043116864
72	0x3b8c6876	0.0042849137
73	0x3b734251	0.0037118385
74	0x3b5d8b94	0.003380512
75	0x3ba7c576	0.0051199747
76	0x3b8b5cf7	0.0042530256
77	0x3b9c8c94	0.0047775004
78	0x000012c3	6.73e-42
79	0x00000e05	5.029e-42
80	0x80000737	-2.588e-42
81	0x00000dcd	4.951e-42
82	0x800006e3	-2.47e-42
83	0x80001102	-6.101e-42
84	0xb99a974d	-0.00029485897
85	0xbac58147	-0.0015068435
86	0x3a23c89f	0.00062478514
87	0x3a50085d	0.00079358165
88	0xbc6fcd5d	-0.014636365
89	0xbb30e8a0	-0.0026994124
90	0xbba088ff	-0.0048991437
91	0xbd53ab78	-0.051677197
92	0x3d285d96	0.041104876
93	0x3c3e6465	0.011620616
94	0xbd0c35a0	-0.03423083
95	0x3cc0c3e5	0.02353091
96	0xbaf0ce39	-0.0018372006
97	0xbb6775a8	-0.0035317931
98	0x39a122ce	0.00030734245
99	0xbb368a2f	-0.002785336
100	0x3b59c72f	0.0033230295
101	0xbbf14b1d	-0.0073636905
102	0xbd30f644	-0.043203607
103	0x3bea4c5c	0.007150216
104	0x3b9f79d3	0.0048668175
105	0xbcb3a568	-0.021929458
106	0xbc488104	-0.012237791
107	0x3bc2c4b9	0.0059438613
108	0xbd3197b0	-0.04335755
109	0xbc552594	-0.013009448
110	0x3d23ca41	0.039987806
111	0xbde210e5	-0.110383786
112	0xbc8db1c9	-0.017296689
113	0x3de85c38	0.11345714
114	0x800002b6	-9.73e-43
115	0x00000157	4.8e-43
116	0x800009c4	-3.503e-42
117	0x00000821	2.916e-42
118	0x00000545	1.89e-42
119	0x000007af	2.756e-42
120	0x000004c4	1.71e-42
121	0x80000624	-2.203e-42
122	0x000003d0	1.368e-42
123	0x0000066c	2.304e-42
124	0x000010c4	6.014e-42
125	0x00000924	3.279e-42
126	0xbbb09b27	-0.0053895894
127	0x3c9b6d17	0.018972917
128	0xbdaf381a	-0.085556224
129	0xbaca6c7f	-0.0015443711
130	0x3d85d0a7	0.06533938
131	0xbe2ef587	-0.17085849
132	0x80000a4a	-3.691e-42
133	0x00000541	1.885e-42
134	0x800000eb	-3.3e-43
135	0x80001057	-5.862e-42
136	0x80000a44	-3.683e-42
137	0x80000941	-3.32e-42
138	0x3a27a6b4	0.0006395385
139	0xbcfccde4	-0.030859895
140	0xbca17880	-0.01971078
141	0x3ce6df77	0.028182728
142	0xbd7aa885	-0.06119587
143	0xbbeaed45	-0.007169398
144	0xbc6f2ee0	-0.014598578
145	0xb9b80299	-0.0003509715
146	0x3d65a8e7	0.05606928
147	0xbd1f7a4a	-0.038934983
148	0x3c066998	0.008203886
149	0x3da3d86c	0.080002636
150	0x3cb61a5d	0.022229368
151	0xbb85ef48	-0.0040873624
152	0xbc78992d	-0.015173239
153	0xbcc7369b	-0.02431803
154	0x3c351ab4	0.01105373
155	0xbcbc9854	-0.023021854
156	0xbd8e8268	-0.06958467
157	0xbc1df6b6	-0.00964134
158	0x3d00034d	0.031253148
159	0xbd2f1332	-0.042742915
160	0x3b8f1c4c	0.004367387
161	0x3cc797a6	0.024364304
162	0x3c32961f	0.0109000495
163	0x3d0da818	0.034584135
164	0x3cbc26a9	0.022967653
165	0x3c4d7972	0.012541162
166	0x3d854257	0.06506794
167	0x3d102a12	0.03519637
168	0xbd081034	-0.033218578
169	0x3d0242e8	0.031802088
170	0xbc807698	-0.01568155
171	0xbcb49dc3	-0.022047883
172	0x3d1a1a73	0.03762288
173	0xbd019bcc	-0.03164272
174	0xba139f03	-0.00056312996
175	0xbbafe278	-0.0053675734
176	0xbda8ec06	-0.08248143
177	0xbcb62886	-0.02223612
178	0x3c45e9fb	0.012079711
179	0xbd6b4ce4	-0.057446375
180	0x800003de	-1.387e-42
181	0x80000c5b	-4.432e-42
182	0x000001de	6.7e-43
183	0x00000598	2.007e-42
184	0x000009be	3.495e-42
185	0x00000a0b	3.603e-42
186	0x3afa0666	0.0019075393
187	0x3b2a0fa9	0.0025949276
188	0x3c047f7b	0.008087034
189	0xbd00df16	-0.03146275
190	0x3d0b8139	0.034058783
191	0xbd5a2bf5	-0.053264577
192	0xbcb951db	-0.02262204
193	0xbceb97f5	-0.028758982
194	0xbc5ed39c	-0.013600256
195	0xbd4bee9b	-0.0497881
196	0xbd39f628	-0.04540077
197	0x3ce521dc	0.027970247
198	0xbca8168c	-0.020518564
199	0xbcd34950	-0.025791794
200	0xbbb35c7a	-0.0054736705
201	0x3c361aef	0.01111482
202	0xbc80d6b0	-0.015727371
203	0x3c38303c	0.011241969
204	0x3bdd46ff	0.006752848
205	0xbbd7d02d	-0.006586096
206	0x3c68c095	0.014206071
207	0x3cef5094	0.029213227
208	0xbc50bd83	-0.012740496
209	0xbc8b7b5e	-0.0170266
210	0xbd129cb8	-0.03579399
211	0x3c79235b	0.015206183
212	0xbde99335	-0.11405031
213	0xbc850d4a	-0.016241688
214	0x3acb0503	0.0015489165
215	0xbda0f974	-0.078600794
216	0x00000630	2.22e-42
217	0x80001056	-5.86e-42
218	0x80000c05	-4.312e-42
219	0x80000895	-3.079e-42
220	0x80000163	-4.97e-43
221	0x800002b3	-9.68e-43
222	0x80000a3c	-3.671e-42
223	0x80000ace	-3.876e-42
224	0x000000e8	3.25e-43
225	0x00000b34	4.019e-42
226	0x80000b0a	-3.96e-42
227	0x800004aa	-1.673e-42
228	0xbd4b7c84	-0.049679294
229	0xbceec7e8	-0.029148057
230	0xba869c14	-0.0010269904
231	0xbc53f17c	-0.012935992
232	0xbcf88337	-0.030336006
233	0xb764bf94	-1.3634464e-05
234	0xbc98841e	-0.018617686
235	0x3cb565c6	0.022143256
236	0xbd0bad23	-0.034100663
237	0xbbc26a30	-0.0059330687
238	0xbc6ed844	-0.014577929
239	0xbd599d5f	-0.053128596
240	0xbbd3cfc7	-0.006463978
241	0x3c914e8f	0.017737655
242	0xbcd209d8	-0.02563946
243	0xbbac7f44	-0.0052641947
244	0x3d480cc7	0.04884031
245	0xbdc4fd6f	-0.09618651
246	0x3cd5beac	0.026091896
247	0x3c52b462	0.012860389
248	0x3c769e3f	0.015052377
249	0xbbc26d79	-0.0059334603
250	0x3ca31f0c	0.019912265
251	0x3be518d1	0.0069914837
252	0x3d6b205b	0.057403903
253	0xbc9c3c8b	-0.019071838
254	0x3b129999	0.0022369383
255	0x3d1d32cb	0.038378518

fc_block.0.bias f4 [128]
0	0x3db11a77	0.08647626
1	0x923ea42a	-6.0155777e-28
2	0xb78b8df6	-1.6636197e-05
3	0x3dfc4ea8	0.1231969
4	0xb8044957	-3.1539555e-05
5	0xbbb8274e	-0.00561992
6	0xbaf2eace	-0.0018533112
7	0x3c921164	0.017830558
8	0xb8047304	-3.157837e-05
9	0x3cdfd0b9	0.027321206
10	0xb7831361	-1.5625441e-05
11	0xa7d49ed5	-5.9014026e-15
12	0x3def019f	0.11670231
13	0x3e096f9b	0.1342148
14	0x3d811cea	0.06304343
15	0x3e0971b4	0.1342228
16	0x3b7d64dc	0.0038664853
17	0x3dd9da5c	0.10637352
18	0x3d6a37db	0.057182174
19	0xb7f5053b	-2.9208712e-05
20	0xb808f673	-3.265445e-05
21	0xb92bd45b	-0.0001638694
22	0x3b747f32	0.003730726
23	0x8e3e8944	-2.34854e-30
24	0x3e2aaef5	0.16668303
25	0x3d848774	0.06471148
26	0x3df62e48	0.12020546
27	0x3e1310a8	0.14361823
28	0x3de028e0	0.10945296
29	0x3b1a8891	0.0023579935
30	0xbc6877fd	-0.014188764
31	0xb7196685	-9.14338e-06
32	0x3d43c83a	0.047798373
33	0xb9f81172	-0.00047315244
34	0xbb3c2542	-0.002870873
35	0xb5f494ef	-1.8222762e-06
36	0x3b2022ea	0.0024434873
37	0x3e4bc3f3	0.19898967
38	0xb6d10d8b	-6.230262e-06
39	0x3de4149d	0.11136744
40	0x3dda6584	0.10663894
41	0x3b7ffba5	0.0039059904
42	0x3db19ce8	0.086725056
43	0x3c77313f	0.015087425
44	0x3d662901	0.056191448
45	0xbb68fa2f	-0.0035549512
46	0x3b485502	0.0030568247
47	0x3e537831	0.20651318
48	0xb67c5471	-3.7600078e-06
49	0x3b82d31c	0.0039924514
50	0x3e0667f1	0.13125588
51	0x3da2b617	0.07944887
52	0x3e1775e8	0.14791071
53	0x82632fdc	-1.6691061e-37
54	0x3de03e39	0.10949368
55	0x3dc45501	0.09586526
56	0x3ddffdf1	0.10937107
57	0x3c72d034	0.014820147
58	0x3db7be8a	0.08971889
59	0x3d5fc689	0.054632697
60	0xbc20fc07	-0.009825713
61	0xbb323d2a	-0.00271971
62	0xb6db36e5	-6.533099e-06
63	0xb7ee086a	-2.8375729e-05
64	0x3dd7ecbf	0.105432026
65	0xb6af7751	-5.2292967e-06
66	0x3e08d491	0.13362338
67	0x3b8083fa	0.003921983
68	0x3db985ea	0.09058745
69	0x3d6b4cf8	0.05744645
70	0x3a8c61d4	0.0010710307
71	0xb8686bb2	-5.541341e-05
72	0x3dcc2eea	0.09969886
73	0x3b801ff2	0.003910058
74	0x3cccc472	0.024996016
75	0x3e265c30	0.16246104
76	0x3d9f86cc	0.07789382
77	0x3e2109db	0.15726416
78	0x3e0c9b14	0.13731033
79	0x3dfaf920	0.12254548
80	0xb7f99dd8	-2.9756615e-05
81	0xb734b40b	-1.0770756e-05
82	0x3bb0ca25	0.0053951913
83	0xb8004bd2	-3.058819e-05
84	0xb6f01d29	-7.155952e-06
85	0x3d7ec92c	0.06220357
86	0xa64cf9a8	-7.1115065e-16
87	0xb67e074b	-3.7853194e-06
88	0x3da45e43	0.080257915
89	0x3a2e2c54	0.00066441786
90	0x3db0ffca	0.08642538
91	0x3decc70b	0.11561402
92	0xaf20d504	-1.4627594e-10
93	0x3d7223f7	0.05911633
94	0x3e18c268	0.1491791
95	0xb7ca3bfd	-2.410821e-05
96	0x3b71ddeb	0.0036905955
97	0xbb6294e1	-0.0034573602
98	0x3bac597a	0.00525969
99	0x3d9b3541	0.07578517
100	0x3d9dac51	0.07698882
101	0x3df2d3f3	0.11856832
102	0x3e09d90d	0.13461705
103	0x3b75ec5f	0.0037524921
104	0x3daf759c	0.08567354
105	0x3d641a0d	0.055688906
106	0x3d868a99	0.06569404
107	0x3d48aed8	0.04899487
108	0xb99ab627	-0.00029508883
109	0x3e263510	0.16231179
110	0x3ac82bb5	0.0015271815
111	0x3d7f8ce2	0.062390216
112	0x3e018efa	0.12652197
113	0x3dbeebe1	0.09322334
114	0xba004935	-0.0004893721
115	0xb69d7329	-4.692371e-06
116	0x3d26dc73	0.04073758
117	0x3d731d7f	0.0593543
118	0x3da0876b	0.07838329
119	0xb5cc1f85	-1.5208358e-06
120	0x3e421c1b	0.18956034
121	0x3b78b40a	0.0037949109
122	0x3d2fe3f2	0.042941995
123	0x3b76cdf3	0.0037659376
124	0xa855b6cf	-1.18635155e-14
125	0x3de53f7d	0.1119375
126	0xb5d91ab6	-1.6175534e-06
127	0x3dc1f845	0.09471182

first_head.0.weight f4 [128, 128]
0	0xbcbf4689	-0.023349063
1	0x800013dc	-7.124e-42
2	0x00001059	5.864e-42
3	0x3dc2d7b0	0.095137954
4	0x80000020	-4.5e-44
5	0xb405c333	-1.2457603e-07
6	0x00000dfd	5.018e-42
7	0xbd25b9f9	-0.04046056
8	0x00000aec	3.918e-42
9	0x3c86dea8	0.016463593
10	0x80001253	-6.573e-42
11	0x80000409	-1.448e-42
12	0x3dedd7a3	0.11613395
13	0x3c15e10e	0.0091478955
14	0x3d17421e	0.03692829
15	0x3e414bf7	0.18876635
16	0x39772f0a	0.00023573279
17	0x3cd3c79a	0.025852013
18	0xbcbc1961	-0.02296132
19	0x00000fa0	5.605e-42
20	0x323fce99	1.1164638e-08
21	0x800012eb	-6.786e-42
22	0x397405ff	0.00023271887
23	0x0000071e	2.553e-42
24	0x3d8ac613	0.06776061
25	0xbd1eee51	-0.038801495
26	0x3d68bddd	0.056821693
27	0xbda65815	-0.08122269
28	0xbdea600e	-0.11444102
29	0x396a84ce	0.00022365453
30	0xb7589b28	-1.2910728e-05
31	0x800005e4	-2.113e-42
32	0xbdca2b17	-0.098715
33	0x8000072d	-2.574e-42
34	0x80000791	-2.714e-42
35	0x80001414	-7.203e-42
36	0x38d38c96	0.0001008745
37	0x3dbd1151	0.092318185
38	0x00001399	7.03e-42
39	0xbc2e16ae	-0.010625524
40	0x3c5c15c2	0.013432922
41	0x39730667	0.00023176671
42	0xbddcbe1b	-0.10778447
43	0xbc169897	-0.009191654
44	0x3d2c78da	0.04210744
45	0x00000971	3.387e-42
46	0x389ea2ba	7.564337e-05
47	0x3d352243	0.044222128
48	0x0000132e	6.88e-42
49	0x396916e4	0.00022229139
50	0xbd352c0e	-0.044231467
51	0x3cebb934	0.028774835
52	0x3c166fbd	0.009181914
53	0x000010a1	5.965e-42
54	0x3da2b730	0.079450965
55	0xbdb9d4bf	-0.09073781
56	0xbbdaeb1e	-0.00668086
57	0x3a9fe8e9	0.001220015
58	0x3dffbbc7	0.124869876
59	0x3d3dfbe3	0.046382796
60	0xb868058e	-5.5318284e-05
61	0x00000b20	3.991e-42
62	0x00000f88	5.572e-42
63	0x00001300	6.816e-42
64	0xbd4d1a07	-0.05007365
65	0x00000099	2.14e-43
66	0xbc7ab330	-0.015301511
67	0x396efadb	0.000227909
68	0x3dea40f7	0.11438172
69	0xbd52cb8b	-0.051463645
70	0x3937c4f8	0.00017525617
71	0x80000f5e	-5.513e-42
72	0x3df2b62c	0.11851153
73	0x3973991b	0.00023231322
74	0x3ba27e07	0.0049588713
75	0x3d682c15	0.056682665
76	0x3d537475	0.051624734
77	0x3e21e7bb	0.15811054
78	0x3bce2e46	0.0062921373
79	0x3e28bc2c	0.16478032
80	0x80000524	-1.844e-42
81	0x000011ba	6.359e-42
82	0x399d0b65	0.00029953863
83	0x80000ec8	-5.303e-42
84	0x000003a2	1.303e-42
85	0x3d7fd581	0.062459473
86	0x00000818	2.903e-42
87	0x80001506	-7.542e-42
88	0xbd9ce4c5	-0.07660822
89	0x37d387ab	2.5216335e-05
90	0x3dfd6407	0.12372594
91	0xbddc6cf6	-0.1076297
92	0x000014b8	7.432e-42
93	0x3cd9fd38	0.026610002
94	0x3e30f159	0.17279567
95	0x8000013d	-4.44e-43
96	0x3983982e	0.0002509965
97	0x3b89c815	0.00420476
98	0x39902d5d	0.0002749962
99	0xbcdc4ff0	-0.026893586
100	0x3bff3ba1	0.0077890907
101	0x3d80abe9	0.06282789
102	0x3e576875	0.21035941
103	0x3976048a	0.00023462079
104	0xbd3e4bae	-0.046458893
105	0xbd67d9c9	-0.05660418
106	0x3d8eb326	0.069677636
107	0xbd82abc4	-0.06380418
108	0x800003f4	-1.418e-42
109	0x3c6fc69a	0.014634753
110	0x38996e86	7.316195e-05
111	0x3d29c6cc	0.041449353
112	0xbd0445ae	-0.032293014
113	0xbcbd13d9	-0.023080753
114	0x80000ae2	-3.904e-42
115	0x000006ed	2.485e-42
116	0xbe466611	-0.19374873
117	0x3ca2633b	0.019822707
118	0x3cd648e4	0.026157804
119	0x000010c4	6.014e-42
120	0x3dcbddfd	0.0995445
121	0x39710097	0.00022983771
122	0xbd005e27	-0.03133979
123	0x39769c84	0.00023518695
124	0x800012b8	-6.715e-42
125	0xbcf7784d	-0.030208731
126	0x00000e38	5.101e-42
127	0x3e1c376a	0.15255514
128	0xbb51132c	-0.0031902296
129	0x00000934	3.301e-42
130	0x80000721	-2.557e-42
131	0x3e4e9926	0.20175609
132	0x80000e74	-5.185e-42
133	0xb534ed73	-6.740076e-07
134	0x00000ae1	3.903e-42
135	0xbdbd936e	-0.092566356
136	0x00000310	1.099e-42
137	0x3c2a9607	0.010411746
138	0x00001377	6.983e-42
139	0x0000033a	1.157e-42
140	0x3d21ab3f	0.039469954
141	0xbdc03956	-0.09385936
142	0x3d29ec41	0.041485075
143	0x3e10e49c	0.14149708
144	0x3919183c	0.00014600245
145	0x3ddf096f	0.10890471
146	0xbd08a031	-0.033355895
147	0x000007f4	2.853e-42
148	0xb396275b	-6.992078e-08
149	0x80000529	-1.851e-42
150	0x3916a6bd	0.0001436723
151	0x00001034	5.813e-42
152	0xbd36b9e7	-0.044610884
153	0xbd2c25df	-0.042028304
154	0xbc2671a6	-0.010158932
155	0xbe0b53fd	-0.13606258
156	0xbe375ada	-0.17905751
157	0x38f0f82f	0.000114903196
158	0x3712d76a	8.752433e-06
159	0x800006e8	-2.477e-42
160	0xbdf03185	-0.11728195
161	0x800002d6	-1.017e-42
162	0x80001488	-7.365e-42
163	0x00000330	1.143e-42
164	0x369aa0f9	4.6082973e-06
165	0x3dd41b8b	0.10356816
166	0x000003b3	1.327e-42
167	0xbd13cc32	-0.036083408
168	0x3d704aac	0.058664963
169	0x39158ae3	0.00014261487
170	0xbdc19b2a	-0.09453423
171	0xbd0e1ece	-0.034697346
172	0x3d88c908	0.06678969
173	0x00000bc5	4.222e-42
174	0x3885ef46	6.386502e-05
175	0x3e168069	0.14697422
176	0x00000b2a	4.005e-42
177	0x38fe35cf	0.000121216864
178	0xbd46b0d8	-0.048508495
179	0x3c744550	0.0149091035
180	0x3af3d2c2	0.001860224
181	0x000014e4	7.494e-42
182	0x3e02c441	0.12770177
183	0xbdd99c84	-0.10625556
184	0xbd44489c	-0.04792081
185	0x3a8681fd	0.0010262128
186	0x3e243895	0.1603721
187	0xbe0ef0e5	-0.13959081
188	0xbad9a515	-0.0016604984
189	0x000004dc	1.743e-42
190	0x80001471	-7.333e-42
191	0x0000131d	6.857e-42
192	0x3c5a7d62	0.013335558
193	0x000007fe	2.867e-42
194	0xbd71a860	-0.058998466
195	0x3916e4dd	0.00014390373
196	0x3d81ebda	0.06343813
197	0xbd8e11f8	-0.06937021
198	0x3909dd11	0.00013147692
199	0x800014ef	-7.51e-42
200	0x3d4b0394	0.04956396
201	0x3918f79e	0.00014588094
202	0xbc9917b7	-0.018688066
203	0x3dcaeaa2	0.09908034
204	0x3d7a3ed5	0.061095078
205	0x3bd1495a	0.006386918
206	0x3d3c4620	0.045965314
207	0x3ddfa366	0.10919838
208	0x80001049	-5.842e-42
209	0x00000885	3.056e-42
210	0x396b302a	0.00022429289
211	0x80000684	-2.337e-42
212	0x00000fef	5.716e-42
213	0x3d1e8c4d	0.03870802
214	0x00001441	7.266e-42
215	0x800009b1	-3.477e-42
216	0xbd7626b7	-0.060095515
217	0xb6ecf7f7	-7.062215e-06
218	0x3df682c5	0.12036661
219	0xbcbe071f	-0.023196755
220	0x80001319	-6.851e-42
221	0xbced8aff	-0.028996943
222	0x3d61f203	0.05516244
223	0x00000a54	3.705e-42
224	0x3923ebae	0.00015632689
225	0xbaeabe63	-0.0017909523
226	0x3946d48e	0.00018961934
227	0xbd0c1937	-0.034203734
228	0x3da37f86	0.079833075
229	0x3e72571d	0.23666044
230	0x3e18be98	0.14916456
231	0x391ce06d	0.00014960924
232	0xbe1fd3b0	-0.15608096
233	0xbd9bec92	-0.076134816
234	0x3d59f6b2	0.053213783
235	0xbd59f73a	-0.05321429
236	0x00000a97	3.799e-42
237	0xbd63b439	-0.055591796
238	0x374d31cb	1.22305455e-05
239	0x3c861616	0.016367953
240	0x3de80c5d	0.11330483
241	0xbc514055	-0.012771686
242	0x80001173	-6.26e-42
243	0x8000133e	-6.903e-42
244	0xbdf898f3	-0.12138548
245	0x3d18fbf1	0.037349645
246	0xbcbd5702	-0.023112778
247	0x000011fc	6.452e-42
248	0x3e0e6dad	0.13909025
249	0x39141c67	0.0001412496
250	0xbceeffab	-0.029174646
251	0x391a6c34	0.00014726893
252	0x80000fa3	-5.61e-42
253	0x3bc6920f	0.006059892
254	0x00000d53	4.78e-42
255	0x3da22e74	0.079190165

first_head.0.bias f4 [128]
0	0x3deb4d0e	0.114893064
1	0x3db3e98b	0.08784779
2	0xb6b4425d	-5.3721437e-06
3	0x3dcd3f34	0.10021821
4	0x3da6e367	0.08148842
5	0x3e16f721	0.1474271
6	0x38c6ca28	9.47903e-05
7	0x3e04e6c2	0.12978652
8	0x3de8f946	0.1137567
9	0x3d8a319c	0.067477435
10	0xb0037734	-4.782692e-10
11	0x881f999c	-4.802789e-34
12	0xba44892e	-0.0007497248
13	0x3da130f2	0.07870664
14	0x3d982ce9	0.07430441
15	0x3da8993d	0.08232353
16	0xaf7e3f27	-2.3123602e-10
17	0x3deffc24	0.11718014
18	0xb30b9fb3	-3.2508705e-08
19	0x3df27b93	0.11839976
20	0x3de668f2	0.112504855
21	0x3e03816c	0.1284234
22	0x3db58f45	0.08865217
23	0x3daf6f8b	0.08566197
24	0x3da5c727	0.08094626
25	0xace9c756	-6.644389e-12
26	0x3dedcbb5	0.1161112
27	0x3df73376	0.12070362
28	0x3dc64949	0.09681947
29	0xb539cc3f	-6.921509e-07
30	0x3dcb7b8f	0.09935676
31	0x3dcae18e	0.099063024
32	0xb7303911	-1.0503704e-05
33	0x3db011ec	0.08597168
34	0x3dee36d0	0.116315484
35	0x3dbf2935	0.093340315
36	0x3da83037	0.08212321
37	0x8b29418a	-3.2597522e-32
38	0x3dc41996	0.09575193
39	0x3dc484e3	0.09595659
40	0x3ddfc87c	0.10926911
41	0xb97bfb3f	-0.00024030822
42	0xa0cf35c1	-3.5102735e-19
43	0x3da60b1c	0.08107588
44	0x3dc2e48f	0.0951625
45	0x3dbd052c	0.09229502
46	0x3da15f8d	0.07879553
47	0x3d9be2ca	0.07611616
48	0x3d873a56	0.066029236
49	0x3deb0461	0.114754446
50	0x3d9f45be	0.07776974
51	0x3de46860	0.111527205
52	0x3d91b595	0.07114712
53	0xb72883d1	-1.0044271e-05
54	0xb73cc4a9	-1.1251462e-05
55	0x3e00d88e	0.12582609
56	0x3d8fd311	0.070226796
57	0x3d8ba72f	0.06818997
58	0xb75c8382	-1.3143641e-05
59	0xa0383198	-1.5601815e-19
60	0x3da9619f	0.08270573
61	0x3de9e87f	0.11421298
62	0x3d93dffe	0.072204575
63	0x3dad6762	0.08466984
64	0xb3133f59	-3.428372e-08
65	0x9bf43c88	-4.0405531e-22
66	0xb2a01715	-1.8636948e-08
67	0x3da74cf8	0.081689775
68	0x3dad0644	0.08448461
69	0x3da92e16	0.08260743
70	0x3dc64266	0.09680633
71	0xb7c99373	-2.4029729e-05
72	0x3e0628b0	0.13101459
73	0x3ddb9c98	0.10723227
74	0x3db6baf5	0.08922378
75	0x3e073b13	0.13206129
76	0xabf59d3b	-1.7451937e-12
77	0x3dbed08a	0.093171194
78	0x3de1f6d0	0.11033404
79	0xb856cc4a	-5.1211835e-05
80	0x3dd6586f	0.10466086
81	0x3d9f742c	0.0778583
82	0xb5934094	-1.0971148e-06
83	0x9901886a	-6.696692e-24
84	0x3dc5cab3	0.096578024
85	0x3dae74c5	0.08518366
86	0x3dd1e0ba	0.10247941
87	0x38856d91	6.3623425e-05
88	0xa394a95a	-1.6117915e-17
89	0x3df81db4	0.121150404
90	0x3dde4ca1	0.108544596
91	0x3dbebdc3	0.09313538
92	0xb779f046	-1.48975e-05
93	0x3dcc9fae	0.09991394
94	0xb12d385d	-2.5206852e-09
95	0x3dc300b5	0.09521619
96	0x3dc9c6b1	0.098523505
97	0x3dd1187d	0.10209749
98	0x3dac6381	0.08417416
99	0x3dc30c9c	0.095238894
100	0x3dae74d9	0.08518381
101	0x3dd27835	0.10276834
102	0xb562ae66	-8.4445344e-07
103	0x395474fe	0.00020261478
104	0x3da9f5d3	0.082988404
105	0x3e03d970	0.12875915
106	0xb7b16f7e	-2.1151962e-05
107	0x3d99f5ef	0.07517611
108	0x3dedddd8	0.11614579
109	0x3dd062fd	0.101751305
110	0xac2eee6b	-2.4859236e-12
111	0xb71fe7f4	-9.531144e-06
112	0x3da5e425	0.08100156
113	0x3d9a6e5d	0.075405814
114	0x3db6c802	0.08924867
115	0x3daf89e5	0.08571223
116	0x3dcb5b3e	0.099295124
117	0x3ded637b	0.1159124
118	0x3dd4f103	0.10397532
119	0x3d997d76	0.07494633
120	0x3dadb9de	0.08482717
121	0x391585f3	0.00014259647
122	0x3e0edf05	0.13952263
123	0x3dc94678	0.09827894
124	0x0b0df8c5	2.7342766e-32
125	0x3df964ed	0.12177453
126	0x3dc7b4d2	0.097512856
127	0xb3672635	-5.3818628e-08

first_head.2.weight f4 [7, 128]
0	0xbdbb8b43	-0.091574214
1	0xbe8c9506	-0.27457446
2	0xb439fed4	-1.7322174e-07
3	0x3eae4dba	0.34043676
4	0xbe82c52e	-0.2554106
5	0xbdaa62a3	-0.08319595
6	0x38362386	4.3425265e-05
7	0x3e8f19dc	0.27949417
8	0xbeef3bc0	-0.46725273
9	0xbe81c853	-0.25348148
10	0x9f535cf1	-4.4757867e-20
11	0x80000178	-5.27e-43
12	0xba773035	-0.00094294857
13	0xbe6f6fe6	-0.2338253
14	0x3eb28890	0.34869814
15	0xbe430c32	-0.19047621
16	0x96836809	-2.1229847e-25
17	0x3e0df46e	0.13862774
18	0x800013ba	-7.077e-42
19	0xbd10f2ea	-0.03538791
20	0x3e99a8e9	0.3001168
21	0xbeea65fc	-0.45780933
22	0xbebcdf54	-0.36889136
23	0x3ef1b58f	0.4720883
24	0x3dba0cfc	0.09084508
25	0x800002ee	-1.051e-42
26	0xbe01954d	-0.1265461
27	0xbb3bc4dd	-0.0028651275
28	0x3dbb8a1c	0.09157202
29	0xb5cd93db	-1.5316722e-06
30	0x3e92af35	0.28649297
31	0x3d9e08f1	0.07716549
32	0xb50fa5be	-5.351284e-07
33	0x3e9e9b02	0.30977637
34	0x3e39db7f	0.18150137
35	0x3e3afe27	0.18261014
36	0xbe4de03f	-0.20105074
37	0xacba3695	-5.2924978e-12
38	0xbe381af7	-0.17979036
39	0x3eee9ab7	0.46602413
40	0x3ec6fe6d	0.38865986
41	0xb94657f6	-0.0001891552
42	0xb8d8ea71	-0.00010343351
43	0x3e50076c	0.20315331
44	0x3e72850c	0.23683566
45	0xb9caedee	-0.00038705714
46	0xbe5d5490	-0.2161429
47	0xbe018133	-0.12646942
48	0x3cdb0e78	0.026740298
49	0x3ead4406	0.3384096
50	0x3ed0e054	0.4079615
51	0x3e0eb5ce	0.1393654
52	0x3ed341c4	0.41261113
53	0xb7e19b63	-2.6894448e-05
54	0xb6139d39	-2.1996223e-06
55	0x3d90dfd9	0.070739456
56	0xbe104c1e	-0.14091536
57	0xbe65120f	-0.2237017
58	0x3827f612	4.0045074e-05
59	0x800005db	-2.1e-42
60	0xbe4bd0c5	-0.19903858
61	0xbf047763	-0.5174467
62	0x3e22502e	0.15850899
63	0x3eb0c30d	0.34523812
64	0x36c1fcbb	5.78127e-06
65	0x12d04e85	1.3146002e-27
66	0x00000bd9	4.25e-42
67	0x3e8ed882	0.27899557
68	0xbeb5366a	-0.35393077
69	0x3d31a596	0.043370806
70	0x3e274682	0.1633549
71	0x379fc39a	1.9045361e-05
72	0x3e24d386	0.16096315
73	0x3e8a1f07	0.26976797
74	0x3e81536c	0.25258958
75	0xbf1e2f98	-0.6179137
76	0x26552550	7.394979e-16
77	0x3ee76b06	0.4519884
78	0xbeba4ebc	-0.36388195
79	0x3501a343	4.829382e-07
80	0xbdf750a0	-0.12075925
81	0xbe928e4f	-0.28624198
82	0xadaa4dfb	-1.9361393e-11
83	0x800009ec	-3.559e-42
84	0xbe2ceb05	-0.16886528
85	0xbe664d81	-0.22490503
86	0xbd9b38a0	-0.0757916
87	0x39179f0d	0.00014459733
88	0x80000f63	-5.52e-42
89	0x3e11a88e	0.14224455
90	0xbe5a796b	-0.2133538
91	0x3e0879fd	0.13327785
92	0x386e6615	5.6838693e-05
93	0xbe7e19d5	-0.24814542
94	0xb18cad87	-4.094264e-09
95	0xbdb7f69f	-0.08982586
96	0x3eba94e6	0.36441725
97	0xbd7c49d1	-0.061593834
98	0xbeaf89cb	-0.34284815
99	0x3ea95e8f	0.33079955
100	0xbea517d0	-0.3224473
101	0x3e54a301	0.20765306
102	0x1ff89eed	1.05295006e-19
103	0x388daf8c	6.756102e-05
104	0x3d6b06e5	0.057379622
105	0xbd1b3a97	-0.037897673
106	0xb4686976	-2.164505e-07
107	0xbe79c8f2	-0.24393061
108	0xbebc67c7	-0.36797926
109	0xbeb0b508	-0.34513116
110	0x3a92775e	0.001117449
111	0x3814da70	3.5489385e-05
112	0xbe5a34a1	-0.21309139
113	0xbe87f066	-0.26550597
114	0x3da9ac70	0.08284843
115	0xbec033a2	-0.37539393
116	0xbeafffc6	-0.34374827
117	0xbe866216	-0.2624671
118	0x3e7ba808	0.24575818
119	0xbe5770ea	-0.21039167
120	0xbe9f8741	-0.31157878
121	0x3a052504	0.0005079063
122	0x3e1154ce	0.14192507
123	0xbe81262a	-0.2522443
124	0x864f02ae	-3.8934342e-35
125	0x3cbeea45	0.023305068
126	0x3eded24a	0.43519813
127	0x000013f0	7.152e-42
128	0x3d0b130c	0.03395371
129	0xbd45c84f	-0.048286732
130	0xb62fe487	-2.6210053e-06
131	0xbea98518	-0.33109355
132	0x3cf42665	0.029803464
133	0x3e6ffe25	0.23436792
134	0xb8ec9a13	-0.000112820555
135	0xbe5e1586	-0.21687898
136	0x3e4cb64b	0.19991414
137	0xbe07cef6	-0.13262543
138	0x2e0de215	3.226049e-11
139	0x00000117	3.91e-43
140	0xbc325bf1	-0.010886178
141	0x3ec55e7b	0.38548645
142	0x3d98b461	0.074562795
143	0x3e4462a2	0.1917825
144	0xb4632bad	-2.1156912e-07
145	0x3e47140a	0.19441238
146	0x33028f38	3.039824e-08
147	0xbe9a3947	-0.30121824
148	0x3dcb7b6c	0.0993565
149	0xbf0f289d	-0.55921346
150	0x3d588134	0.052857593
151	0xbe518c5d	-0.204637
152	0xbe3e2acb	-0.18571012
153	0x80000683	-2.336e-42
154	0x3db5453d	0.08851097
155	0x3e9df590	0.30851412
156	0x3d49b024	0.049240246
157	0x2d31e5aa	1.0112281e-11
158	0x3e039845	0.12851055
159	0xbe9ae164	-0.30250084
160	0x379aaed3	1.843964e-05
161	0x3e376523	0.17909674
162	0x3e16bd7b	0.14720719
163	0xbec29b88	-0.38009286
164	0xbe8ffcd5	-0.28122583
165	0x00001278	6.625e-42
166	0xbd4bab47	-0.04972389
167	0x3e418fc8	0.18902504
168	0xbe8dcc5f	-0.27694985
169	0x3757e977	1.2869356e-05
170	0x000013d3	7.112e-42
171	0x3e094809	0.13406385
172	0x3e49087d	0.19632144
173	0x3e4ee1ad	0.20203276
174	0x3e51a25e	0.20472094
175	0xbe85aae0	-0.2610693
176	0x3eaac2fa	0.3335188
177	0x3c58ed7f	0.013240217
178	0xbe8fc669	-0.28081062
179	0x3c130281	0.008972765
180	0xbeaf4669	-0.34233406
181	0x38433d85	4.6548917e-05
182	0x3789a3ea	1.6408001e-05
183	0x3e67c655	0.22634251
184	0x3f197f72	0.5996009
185	0x3eb6ddbd	0.35716048
186	0xb81e8e8b	-3.780289e-05
187	0x8000095a	-3.355e-42
188	0xbe5f8e62	-0.21831658
189	0x3c0fb47a	0.008771056
190	0x3e4cc88b	0.19998376
191	0x3ee3f9d1	0.44526532
192	0x36e0649d	6.687433e-06
193	0x180b9579	1.8040793e-24
194	0x00000308	1.087e-42
195	0xbe899d8a	-0.26878005
196	0x3ec57fc1	0.3857403
197	0xbdab0266	-0.08350067
198	0x3e8dc5fc	0.27690113
199	0x37cffb2b	2.4793282e-05
200	0x3e7e34a1	0.24824764
201	0x3e160157	0.14648949
202	0xbe2d91f1	-0.16950203
203	0x3e4257f7	0.18978868
204	0x26b82009	1.2776248e-15
205	0x3e1a9ea6	0.15099582
206	0xbed4e605	-0.4158174
207	0xb6ffd361	-7.6242e-06
208	0xbe8901dd	-0.26759234
209	0x3e4bd005	0.19903572
210	0x8fb6f1e9	-1.8039766e-29
211	0x800010bd	-6.005e-42
212	0x3e94d711	0.29070333
213	0x3e24dd71	0.16100098
214	0x3c50bff1	0.012741075
215	0xb7b78912	-2.1879128e-05
216	0x80000162	-4.96e-43
217	0xbf1ce49b	-0.61286324
218	0x3e9b9ba1	0.30392173
219	0xbcb3ef19	-0.021964597
220	0x363bc0f0	2.7977476e-06
221	0xbeb75b7e	-0.3581199
222	0x33f9dca8	1.1635103e-07
223	0xbea0b75a	-0.31389886
224	0xbea4f5a4	-0.3221866
225	0x3e2751d5	0.1633981
226	0xbe9db0c6	-0.3079893
227	0xbed82aee	-0.42220253
228	0x3ecba440	0.3977375
229	0xbcfa0f9c	-0.030525021
230	0x2121dc7c	5.484073e-19
231	0xb93efe58	-0.00018214562
232	0x3dfce63e	0.12348603
233	0xbf18015b	-0.5937707
234	0x3777f46f	1.4779259e-05
235	0xbe7986dc	-0.24367851
236	0x3ebdc159	0.37061575
237	0x3e7ae6b5	0.2450207
238	0xba8bbbfa	-0.001066088
239	0x37e7b82a	2.7623104e-05
240	0x3eeafb01	0.45894626
241	0x3b0cfc66	0.0021512746
242	0x3db0d665	0.086346425
243	0x3e6803e8	0.2265774
244	0xbc06091a	-0.008180881
245	0x3e9120db	0.2834538
246	0x3cce6793	0.025195872
247	0x3e967729	0.29387787
248	0x3e0dbc1a	0.13841286
249	0x39d63c47	0.0004086217
250	0xbf463aad	-0.7743328
251	0xbeaefcec	-0.3417734
252	0x8b57d852	-4.1570235e-32
253	0xbf0a6835	-0.5406526
254	0x3eaa51a2	0.33265406
255	0x000007a9	2.748e-42

first_head.2.bias f4 [7]
0	0xbc2c106f	-0.010501965
1	0x3b97834e	0.004623807
2	0xbb2abbf7	-0.0026051977
3	0x3c4daf0b	0.0125539405
4	0x3c1a8402	0.009430887
5	0x3a79aacb	0.00095240463
6	0x3a835dca	0.0010022458
