src/models/saved_models/best_ppo.pt (torch, 814219 bytes, 13 tensors)

conv_block.0.weight f4 [128, 2, 4, 4]
00000000: cfd7 2e3d d640 d2bb e82d fe3c b221 2b3c
00000010: 5015 2a3d a2d4 9b3d c4b3 443d c975 e03d
00000020: dac7 2bbd 296f 55bd 5111 013d 4160 723e
00000030: c458 b5bd ead5 63bd e9f5 d4bd d456 1b3e
00000040: 5397 14bd c240 6b3c dfc0 80bd f37c 53be
00000050: 0c0e 04be 235b c9bd 23fd 47bd a404 bfbe
00000060: da40 6c3c 299a 803c 38b1 31bd a118 79be
00000070: 829d f93c bc54 cc3c 2105 943d 9dbe 62be
00000080: 2bf9 e53c e84e 5fbd 3147 8abd 2831 fe3b
00000090: 5e9a 0dbd 1bbf b1bc c6c4 09bd 18dc f7bd
000000a0: 66f6 e13c 9329 eebc 07d0 183c f981 bcbd
000000b0: 7bf2 adbd 0be0 193d dc91 c8bc 6a31 183e
000000c0: 5460 2ebd fd44 dabd 3dc5 17bc ff23 ecbd
000000d0: 012e 11bd b719 32bd 89f7 39bd b565 503e
000000e0: c18c 25bc 955d 02bd db37 56bd b98e ebbd
000000f0: 611d 233d af8c b6bd 3564 923a c362 53be
00000100: 89fc 403d 560e d03d 77f1 7cbd dbb7 f1bc
00000110: 1be1 733d 50ec f9bb 68db 09bd b46f c6bc
00000120: 9593 bd3d 2d6d 49bd ade1 89bd b0e7 91bb
00000130: a6a8 b03d 734a c53d d21e 90bc 88bb 9bbd
00000140: ae5d 0bbd bbd3 abbd d56a 41bd b49b 2cbc
00000150: 4e5e 70bd cba2 ce3b 1a88 7dbd 2926 c43b
00000160: 1591 553d 8f2b 173b b301 0e3d e8ba 8abd
00000170: 1ed4 543d 48ce 4a3d 7d9e f1bc addf a3bd
00000180: fdc2 a1bc 4e68 213d 0b49 05bd f3ee f43d
00000190: 3b96 02be 5936 66be 63ed 70be 17b6 2f3c
000001a0: ae6b 05bd f214 663d 79d8 9a3d 54c0 84bd
000001b0: 2079 953d a5e9 763d 5b3b e73d ca74 aabd
000001c0: 827f d13c 9606 1cbd 6dbe aa3c 8f77 c9bd
000001d0: 2017 d03d a344 003e 61dc d73d a479 663e
000001e0: 66a6 fe3b 9640 e9bc b6db fb3d 0c8e 04be
000001f0: d7ab 5abb 686d 3a3d f754 873d 4964 08be
00000200: 31f3 73bd 1c03 6ebd 7573 983d a049 8c3e
00000210: 6ea8 d2bc 75b0 cdbc 4000 eebd d8ff b7bd
00000220: fb26 d7bc fdef 373e 8b9f 763d 1569 1cbd
00000230: 4c60 893e 6fb6 8cbd 4cbf 8e3c 7ce9 98bd
00000240: 0e06 cf3b b6f6 063d 79d6 093d 62dd 62be
00000250: b0c6 8ebc 2c65 d5bb d635 59be de86 93bc
00000260: 3fe4 e73b 09dc 8abe 5002 c93d 0e50 34bc
00000270: 6f15 66be 1f1b e0ba 6e19 333d 7a9e 3ebd
00000280: a0bf 2cbe 00d6 54be 2476 24be 1bb6 49be
00000290: c21e ba3d a41b 333d 94a6 353e 7ffc 98bd
000002a0: bbfd bb3d 2e10 f43d 99d3 1f3d 4c6f bbbd
000002b0: 8486 c33d 2259 253c ce86 beba 3176 92bc
000002c0: a95f d63c a9d4 253e 21fc 293e 8a2a 10bc
000002d0: e193 96bd 5981 95bc cce1 abbd 30ca fb3c
000002e0: b3d4 57bd 3a71 eabd 8138 20bd c93b 2a3d
000002f0: ef89 09be 7bef d3bc e885 acbc d42c ac3d
00000300: 905f 8bbe c66a 10bd c1e2 1fbc 07be 03be
00000310: 95d0 7fbe 5d48 09bd d721 09be bfc0 743c
00000320: 629e 97be 84c9 d5bd 9a97 263c 4700 76bc
00000330: 5470 e7be 01d2 c9bd 630d a9bd f73b abbd
00000340: 4d98 963c a196 7c3b 68fb bcbb cbf7 3e3e
00000350: dc5d 8a3e 74d4 783b 6f99 023e 34f8 503c
00000360: c9fa 503e 4f66 cd3d 0573 2e3d a05f 8fba
00000370: 62dc 933e 6eba 223e 2ba8 103e 974f 003e
00000380: 9a92 4dbe 6f25 6e3a 2b9c 973c 5bb3 5c3c
00000390: 6d37 033d a4c1 a1bc 756f 7fbc 12ed 273d
000003a0: f119 813d b061 df3c 5bf6 de3d 18ee 0ebb
000003b0: 5c75 b63d 17be 5cbd ce8c 263d 5a78 7ebe
000003c0: f788 523e c70a 8bbc 5c7a 70bd f929 fabc
000003d0: 4d98 963d 509a cfbd cf51 cabb 118b 2cbd
000003e0: 8bd6 d23d 50b1 953d 99dc 65be 2a56 a0bc
000003f0: df78 873d 0d02 52bd 39e8 573d 1d79 673e
0.04268628 -0.0064164205 0.03102775 0.010445045 0.04152423 0.07608916 0.048023 0.10959966
-0.04193864 -0.052107964 0.031510655 0.2366953 -0.08854821 -0.055623926 -0.10398466 0.15169841
-0.036277127 0.014358701 -0.06286787 -0.20653133 -0.12895983 -0.09831836 -0.048825394 -0.37308228
0.014419759 0.01569851 -0.0433819 -0.24325801 0.030470613 0.024942748 0.07227541 -0.22143026
0.028072914 -0.05451861 -0.0675186 0.0077573247 -0.034571044 -0.021697572 -0.033634923 -0.121025264
0.027583312 -0.029072559 0.009326941 -0.09204478 -0.08493515 0.03756718 -0.024483614 0.148626
-0.042572334 -0.1065769 -0.009263334 -0.11530303 -0.035444263 -0.043481555 -0.045402084 0.20351298
-0.010104359 -0.031827528 -0.05229936 -0.115018316 0.03982294 -0.08913552 0.001116878 -0.20643143
0.047115836 0.10158984 -0.061753716 -0.029506614 0.05954085 -0.0076270476 -0.033656508 -0.024223186
0.09256665 -0.049176384 -0.06732497 -0.004452668 0.08625917 0.09633341 -0.017592821 -0.07604128
-0.034024887 -0.08389994 -0.047221024 -0.010535169 -0.058683686 0.0063060275 -0.061897375 0.0059859944
0.052140314 0.0023066734 0.03466959 -0.06773931 0.051960103 0.04951313 -0.029494518 -0.08001647
-0.019746298 0.039406113 -0.032540362 0.119596384 -0.12752621 -0.2248167 -0.23528056 0.010724566
-0.032573394 0.05617232 0.0756082 -0.06481996 0.072984934 0.060281415 0.11290618 -0.08323057
0.025573496 -0.03809222 0.020842755 -0.09837257 0.10160661 0.12526183 0.10540081 0.2250734
0.007771301 -0.02847318 0.12297766 -0.12944812 -0.0033366585 0.045514494 0.06608003 -0.13319506
-0.059558097 -0.058108434 0.07443897 0.2739992 -0.02571508 -0.025108555 -0.116211414 -0.08984345
-0.026263705 0.17962642 0.060210746 -0.03818615 0.2683128 -0.06870734 0.017425202 -0.074664086
0.0063178604 0.032950126 0.033651803 -0.22154763 -0.017428726 -0.006512305 -0.21211943 -0.018008646
0.0070767696 -0.27120999 0.09814894 -0.011005415 -0.22469114 -0.0017097926 0.043725424 -0.046537854
-0.16869974 -0.2078476 -0.16060692 -0.19698374 0.09087898 0.043727532 0.17739326 -0.07470035
0.091792546 0.119171485 0.039020155 -0.091520876 0.09547141 0.010092052 -0.0014536025 -0.017878624
0.026168661 0.16194405 0.16600086 -0.008799205 -0.073524244 -0.018250154 -0.08392677 0.030736059
-0.05269308 -0.114473775 -0.039116386 0.04156092 -0.13431524 -0.02587103 -0.021059945 0.08406988
-0.27221346 -0.035258077 -0.009758652 -0.12865458 -0.24981911 -0.033516277 -0.13391815 0.014938532
-0.29613024 -0.10438827 0.010167981 -0.015014715 -0.45202887 -0.09854508 -0.082545064 -0.08361047
0.01838317 0.003854193 -0.0057672746 0.18649213 0.27024734 0.0037968429 0.12753843 0.012754489
0.20408167 0.100292794 0.04259016 -0.0010938533 0.28879076 0.1589143 0.14126651 0.12530361
-0.20075455 0.00090845575 0.018507084 0.013470496 0.03203528 -0.019745655 -0.015590538 0.040997572
0.06303776 0.02726826 0.10886832 -0.0021809395 0.08909103 -0.05389222 0.040661626 -0.24850598
0.2056006 -0.016972912 -0.05871044 -0.030537592 0.07353268 -0.10136855 -0.006174303 -0.04212481
0.10294827 0.0730921 -0.22447433 -0.019572336 0.06614851 -0.051271487 0.0527117 0.22604795

conv_block.0.bias f4 [128]
00000000: 749c c2bd 8395 fdbd 2674 27be 2097 6abe
00000010: 421b e0be 9066 3bbe 04d9 a5be 3e6b 3cbe
00000020: 4b70 68be bc02 9fbe 5792 8fbe a568 9abe
00000030: a3a9 7f3c ad3c fcbd c04a 78be 53a0 55be
00000040: e1af 14bf 73c5 78be 3a2d 5cbe 28f5 17be
00000050: e2ea b2bd d191 e8be c375 03be b462 d3bd
00000060: a345 eabd 1594 bdbe 8607 24be ae7d f5bb
00000070: c7ce 17be fb75 c7be 898e 3cbc f9f8 29be
00000080: 71d6 3fbe 2ee5 edbd 96db 3ebe ff68 51be
00000090: ab07 9cbe c8cf 3dbe 9525 1ebd 03b8 ebbd
000000a0: f1f6 38bd 0d10 63be 07a5 3dbe 3af0 c6be
000000b0: 2252 3abe d9a0 afbc df93 33be 763c a5be
000000c0: 0c43 b7be cc3f adbe e44e 04be 47ed 24be
000000d0: 20d9 e3be dd51 13be 6359 05be 8880 f1bd
000000e0: 7932 c6bd 1358 35be a5ed 9dbe 7eae c5bd
000000f0: c074 37be 456f d8be 81dc ed3c 896d 1dbe
00000100: 6065 d0bd ef5b cfbd b349 6fbe 0002 7fbe
00000110: ff86 80be 996f 7abe dfad 29be 057a 71be
00000120: 4f53 74be 44bb 4abe cca6 9a3c e514 58be
00000130: a4fe 93be e84f e5be 2626 73be a9cb eebd
00000140: 9313 5fbe 30ed c4bd a34e 7bbe c8ce 38be
00000150: d866 54bd 19a8 13bd 7dc2 f4bc 9fea 0abe
00000160: 11f9 acbd 0ad4 81be 50e4 37be 08d6 c0be
00000170: 4235 0dbe ad84 92be 9ef7 5bbe 451a 2cbe
00000180: 0112 3dbe 6125 d2bc 17a5 cdbe 3df1 ffbd
00000190: de01 acbe d7d4 09be b949 62be ccce ebbd
000001a0: 1d02 3cbf 77bc 78be b2e3 93be 3d1e c2be
000001b0: 8ed7 0bbe 9699 5bbe 2199 24bf a365 47be
000001c0: 7262 f0bd 80cd 1ebe 8143 6bbe b384 92be
000001d0: ee5c 60be 8427 4cbe 9cb0 d9bd 6539 a0bc
000001e0: 5c3d 85bc bf6f 05be 4cc0 0bbe 1b88 28be
000001f0: 7748 75be 1c54 01be 69c0 05be b8ec 8fbe
-0.09502497 -0.12382033 -0.16352901 -0.22909212 -0.43770796 -0.18300843 -0.32392132 -0.18400285
-0.22699086 -0.31056774 -0.28041336 -0.30157962 0.015604409 -0.123162605 -0.24247265 -0.2086194
-0.5808087 -0.24294071 -0.21501628 -0.14839613 -0.087362066 -0.4542375 -0.12837891 -0.103215605
-0.114390634 -0.3702704 -0.16018495 -0.007491789 -0.14824973 -0.389572 -0.011508592 -0.16598882
-0.18734147 -0.11615978 -0.18638453 -0.20450209 -0.304746 -0.18536294 -0.03861006 -0.11509707
-0.045157377 -0.22174092 -0.18519984 -0.38855153 -0.18195394 -0.021439003 -0.17536877 -0.3227269
-0.3579334 -0.33837736 -0.1292072 -0.16106139 -0.4450159 -0.14386697 -0.1302238 -0.117920935
-0.09677596 -0.17709379 -0.3084537 -0.09652422 -0.1791563 -0.42272392 0.029035809 -0.15373816
-0.10175586 -0.10124957 -0.23367958 -0.24903107 -0.25102994 -0.24456634 -0.16570233 -0.23581703
-0.23859905 -0.19797999 0.018878363 -0.2110172 -0.28905213 -0.44787526 -0.23745021 -0.11659939
-0.2178481 -0.096155524 -0.24541716 -0.18047631 -0.051855892 -0.036048982 -0.029877895 -0.13566063
-0.08445943 -0.25357085 -0.17958188 -0.37663293 -0.13789847 -0.2861685 -0.21481177 -0.16806896
-0.18463899 -0.02565259 -0.40165016 -0.124971844 -0.33595175 -0.13460098 -0.22098435 -0.11514053
-0.73440725 -0.24290644 -0.28884655 -0.37913695 -0.13656446 -0.21445307 -0.64296156 -0.19472365
-0.11737527 -0.1550808 -0.2297497 -0.28616866 -0.2191045 -0.19936949 -0.10629389 -0.019558618
-0.01626461 -0.13030909 -0.13647574 -0.1645817 -0.23953424 -0.12629741 -0.1306168 -0.2811029

conv_block.2.weight f4 [128, 128, 2, 2]
00000000: a869 533d 2d57 28b9 7ef3 0b3d 8f9b a9bb
00000010: a988 9bbc 3df0 aebb c9e1 15bc 8d09 cc38
00000020: 62d2 90bb b046 2b3c cee2 27bb 1693 d2bb
00000030: 97a0 c2bb 0fd5 9c3c 1972 1b3c 0c85 3a3c
00000040: c898 033c 351b 51bb 9757 b9bb 6c14 aabc
00000050: 0d9d 8e3c b482 123c 8f38 17bd b731 cebb
00000060: 073a 053c 7f8a 5f3b fcd2 3bbb e772 a03b
00000070: aeac 9bbb 9ce4 3ebc 29f1 8a3b ae0e 2e3c
00000080: 92f9 623b 0b2b 87bc c0ac 143c baf4 99bc
00000090: d6af 173d d0fb a33c 6a0f f5ba 5f2e df3c
000000a0: 0013 0d3c 2ca7 66bc 7f77 033b 24c6 243b
000000b0: 6f7d ef3c 0d8f 253a b018 91bc 2f02 dc3a
000000c0: 37c9 cdbc fd72 c4bb f659 aaba d0d3 31bc
000000d0: 2f0b c7bb 1154 8f3c 4dd2 db3a 1f76 91bc
000000e0: 0086 9fba f02e e8bb c0e2 493b aded f23b
000000f0: 7f95 b53c 1ecd 51bb 9b5e 293c 336f bb3b
00000100: e25f 073b bc45 66bc 5ba7 453b b100 1a39
00000110: 7bd9 46bc 647b 863c 7c20 463c e971 acbb
00000120: 271e ab3b 6604 9e3c c265 78bc e6fa 943b
00000130: aa7e d73b 533f c3bc c269 0bbd 1884 d23a
00000140: 119a 70bb aecd 493c 3f29 87bc f3c9 e43a
00000150: 4cb8 37bb bb35 ceba e3e5 cbbb fa0f 58bc
00000160: df5d 61bb 7276 d6bb 8056 373c 7ca1 80b9
00000170: 6881 58bb d9f7 d53a 0e9c f73b 6444 c8bb
00000180: b6f4 52bc 2f70 f7bb 08ac 53bc 200b 79bb
00000190: bf4b 04bb 869d 8f3b 2d35 deba dcdb e73b
000001a0: 9d58 04bc 4ee7 c8b8 cd0e cebb 43ea 933c
000001b0: d147 173c eb75 8cbc c3b0 63bb a4f2 a3bc
000001c0: 3de9 8e3c b189 133d 211d 9fbc 6076 32bc
000001d0: 17cd a0ba ebee afbc c998 993c c433 0e3c
000001e0: 5a40 b7bb 69fc 8abc fa2d a3bb b1b6 fabb
000001f0: 07cd 5c3c 2f51 eabb 94a7 413c 8466 7a3a
00000200: 4e10 a33b 1a41 f23c 09cd 06bb 6855 813c
00000210: 6f86 80bb 1c20 b73b 6b33 733b d9ff 90bb
00000220: f67a 45bb 2276 273b 5cbd 96ba 9d34 b8ba
00000230: e6ce 983c a682 4fbc 51bd cebb 12ec 423c
00000240: 746a 27bc f88e 6f3a 14f0 1e3b d93c 65bc
00000250: b709 26bc c72a 38bc 464c 0e3c c61c ddb9
00000260: 1564 ecbb fb66 babc 80f1 493b 7d45 33bc
00000270: 9094 133a b1d9 a0bc 7807 82bc 1180 953b
00000280: 7254 a4bb f5c9 1bba 9ba8 adbc ba24 91bb
00000290: ad2a eabc 8234 e63c 8453 0cbc 873f 72bb
000002a0: 7b6f 1fbb ec0e 553c 583e f4ba 0dc3 69bc
000002b0: 6698 d7bc d73a 0bbc 1de0 d5bb aa91 de3b
000002c0: 9958 073d 3489 0bbb df57 28bc e33c 13bc
000002d0: 2fb0 ad3b de5e 033b b1b7 55bb 9732 0fbc
000002e0: c4a4 453d a1c1 4bbc d1ec 473c d781 11bc
000002f0: a07e 59bc 620d b83c b881 b83a 7c3f 22bb
00000300: 1a69 8b3a c552 813b d4b1 0a3c 2da4 3c3c
00000310: 042e c9bb 36e2 813c 5703 ffbb b32e fc3b
00000320: bbcb d2b8 d969 953b 6af4 b5bb 8e51 59ba
00000330: 32c5 bdbb eb83 8abc 9532 433a 0ed1 84ba
00000340: 6c0f 9fbb 6611 7abc 4e0f febb 672b 38bc
00000350: 1748 81bb c136 19ba 57f3 48bb 6a25 21bc
00000360: fe46 053b fd11 d7b9 b0d6 1f3c a4a9 1d3c
00000370: 0b6a 89ba dd65 1b3d 07e3 9cbb 62fe db3c
00000380: 7f67 503b c027 233d f300 20bb ebd6 e73b
00000390: d528 caba 665e 08bc c3c6 fbbb 9471 a33b
000003a0: 0625 8ebc 4958 17b9 cca1 323c 9baf 62bc
000003b0: 463a f7bc 78f1 e03a b739 2fbc 88b4 85bb
000003c0: a476 1e3b 17a8 77bb 879a 0d3c 27fe 49bc
000003d0: 005a 39ba 3567 4bbc 2d2b 3bbb 335e b83a
000003e0: 862f dabc 896a 88bc 520b eabb eabd 1abb
000003f0: 7c96 e0bb 4da0 c7bb e819 0c3c 4d7e 223c
0.051614434 -0.00016054204 0.03416776 -0.0051760147 -0.018986063 -0.005338697 -0.00914807 9.729257e-05
-0.004419611 0.010453865 -0.0025617364 -0.0064262254 -0.005939554 0.019144563 0.009487652 0.01138426
0.008032031 -0.0031907086 -0.0056561935 -0.020761691 0.017408872 0.008942295 -0.036919173 -0.0062925476
0.008131511 0.003410965 -0.0028659692 0.00489651 -0.0047508096 -0.011651184 0.0042401743 0.010623617
0.0034633619 -0.016500017 0.00907439 -0.018793453 0.037032925 0.020017534 -0.001869661 0.027243791
0.008610487 -0.014077943 0.002006024 0.0025142515 0.029234616 0.0006315567 -0.017711967 0.0016785319
-0.02512036 -0.005995153 -0.0012996781 -0.010853723 -0.0060743312 0.01749614 0.0016771049 -0.01775652
-0.0012170672 -0.0070856735 0.003080532 0.007413587 0.022166012 -0.0032013129 0.010337497 0.005720043
0.0020656516 -0.014054712 0.0030159566 0.00014686842 -0.012136812 0.01641626 0.012092706 -0.0052626026
0.0052221003 0.019289207 -0.01516098 0.004546511 0.006576379 -0.023833906 -0.034036405 0.0016061096
-0.0036712924 0.012317104 -0.01649916 0.0017455205 -0.0028033433 -0.0015732566 -0.006222473 -0.013187403
-0.0034388227 -0.0065448815 0.011190057 -0.00024534378 -0.0033036117 0.0016324475 0.007556445 -0.0061116684
-0.012875726 -0.007551215 -0.012919433 -0.0038001016 -0.002018675 0.004382792 -0.0016953103 0.00707577
-0.008077768 -9.579827e-05 -0.0062883855 0.01805604 0.009233431 -0.017146071 -0.003474281 -0.020013161
0.017445201 0.036019985 -0.01942307 -0.010892481 -0.0012268153 -0.02147623 0.018749611 0.008679334
-0.005592388 -0.016966062 -0.004979846 -0.007651173 0.013476617 -0.007150791 0.011819739 0.0009552019
0.004976309 0.029572058 -0.0020568988 0.015787795 -0.0039222757 0.0055885445 0.0037109505 -0.0044250307
-0.0030133105 0.002555259 -0.0011500525 -0.0014053766 0.018653344 -0.012665426 -0.0063091894 0.011897104
-0.0102182515 0.00091384305 0.0024251984 -0.013991558 -0.010134152 -0.011240668 0.008685177 -0.00042173843
-0.007214079 -0.022754183 0.0030814111 -0.01094186 0.00056297425 -0.019635053 -0.015872702 0.004562386
-0.0050149495 -0.00059428747 -0.021198561 -0.004429427 -0.028584803 0.02810121 -0.008564834 -0.0036964135
-0.0024327922 0.013004046 -0.0018634303 -0.014267695 -0.026317786 -0.008497915 -0.0065269605 0.006792267
0.033043478 -0.0021291496 -0.010274856 -0.0089866845 0.0053005437 0.002004556 -0.003261071 -0.008740089
0.048252836 -0.012436301 0.0122024575 -0.008881054 -0.013274819 0.022467319 0.0014076745 -0.0024757078
0.0010636181 0.0039466345 0.008465249 0.011513752 -0.0061395187 0.015854936 -0.0077823806 0.0076959967
-0.00010051528 0.004559737 -0.005552818 -0.00082900457 -0.00579133 -0.016908607 0.0007446197 -0.0010133104
-0.0048541334 -0.015262937 -0.0077532893 -0.011240817 -0.0039453614 -0.0005844646 -0.003066262 -0.00983558
0.0020336504 -0.00041021398 0.009755775 0.009622965 -0.0010483874 0.03793894 -0.004787806 0.026854698
0.003179997 0.03983283 -0.0024414628 0.0070751808 -0.0015423546 -0.008323288 -0.0076836064 0.004987905
-0.017351639 -0.00014433371 0.010902833 -0.013835813 -0.030179154 0.0017161807 -0.010694913 -0.004080359
0.0024179602 -0.0037789398 0.008642799 -0.012328661 -0.0007070601 -0.012414743 -0.002855967 0.001406616
-0.026633989 -0.016652362 -0.007142463 -0.0023611733 -0.0068538766 -0.0060921074 0.008551098 0.009917808

conv_block.2.bias f4 [128]
00000000: 0cbf 22bd 0c1d 14bc 6147 f3bd 5845 bfbb
00000010: be6c 45bb 73db 1abe e81b adbb 585a 9cb9
00000020: 8880 39bc ceae b5bc 60e6 9bbd 5034 52bc
00000030: f5a0 bf3b 0108 7fbc 7188 54bc e2e1 bfbd
00000040: ed46 2cbd 1383 e0bd 8ea5 cebd f36e cfab
00000050: b9ba a7b7 bb77 d2bd eee8 3bb7 3f51 83bd
00000060: 68e2 c3bd 57ca 18bd a749 babd a0d9 9d3c
00000070: 8fbf cdbd 630b c7bd e919 498d afc0 e4bd
00000080: 8907 28be 0e22 cfbc 3ad5 c5bd 955a d0bd
00000090: 8a72 eabc 4887 bda0 c263 ecbd 5366 6fbd
000000a0: a933 f7bc 5f95 2fbd d47d 253e 579d cebd
000000b0: 9763 a9bd 0c49 5fbc eeaa b9bb 82da 73bd
000000c0: 5614 23b5 f00e 89bd c0ec 30be 529e 7ebb
000000d0: 366d c6bd aa96 53bd 96be 0e3e 6e03 163d
000000e0: b959 a3bd 6278 adb8 6ef7 193d 658a f3bd
000000f0: 15e1 72bd a9c5 00be 360b aebd e478 37be
00000100: ad0f 92bc 56f4 90bc bc5f f4bd be38 54be
00000110: 6515 18be 7703 89bd bc02 89b9 b359 d4ae
00000120: f86d 89bd bfd0 acbd dfe6 9bbd eea5 a3bc
00000130: 3d6b e8bd 5f05 b7bd 1f91 89bc aabc 54ba
00000140: d026 b9bc 1747 adb0 aa63 b6b6 7637 aaba
00000150: 09ae 06be 015f cc91 8ed0 88a7 bfa0 c7bd
00000160: fce7 99bb 4c67 0d3b 95c0 b2bd c2fd 0bbb
00000170: f2e5 8cbd 7d33 efbc 917d 83bd 0ea6 24be
00000180: c28d c5bd 4818 7dbc 9786 b9bd 677b ceb6
00000190: abc8 f6bd 33d5 e3bd c48f 69bd c149 93ba
000001a0: 1d1e 41bd 4f80 19bd f903 eb9f 2a60 6f38
000001b0: ce9f a295 bf70 7a3d 9713 3eb7 f7f6 863d
000001c0: 528b 9fbd b503 f8bd 2f60 41b8 c0d3 00bc
000001d0: d0cf 5ebd c085 c8bd 8563 033c b539 00be
000001e0: 9e95 b3bd 96c6 18a5 cf4b 4dbe e0bf f2bb
000001f0: 2ef3 d6b8 9a3e 8dbc c81b e6bc 94d4 31bd
-0.039732978 -0.009040128 -0.11878849 -0.005837124 -0.003012463 -0.15122776 -0.0052828677 -0.0002982195
-0.011322148 -0.02217808 -0.076123 -0.012829855 0.005848045 -0.015565873 -0.012971983 -0.093692556
-0.042059828 -0.109625004 -0.10090171 -1.4739029e-12 -1.99949e-05 -0.10276743 -1.1200302e-05 -0.06411981
-0.09564668 -0.03730234 -0.09096079 0.01926881 -0.100463025 -0.09718969 -6.1969095e-31 -0.11169564
-0.16409124 -0.025284793 -0.0965981 -0.10173527 -0.02861907 -3.2107367e-19 -0.11542465 -0.058447193
-0.030176 -0.04286706 0.16161281 -0.10088604 -0.082709484 -0.013628256 -0.0056661284 -0.059534557
-6.0751825e-07 -0.06692302 -0.17277813 -0.003885169 -0.09688799 -0.051657356 0.1393989 0.036624365
-0.079760976 -8.271706e-05 0.037589483 -0.11891631 -0.059296686 -0.12575401 -0.08498232 -0.1791721
-0.01782974 -0.017694633 -0.119323224 -0.2072477 -0.14851911 -0.06690114 -0.00026132714 -9.6565776e-11
-0.06710428 -0.08438253 -0.076123945 -0.019976582 -0.11348579 -0.08936571 -0.016792832 -0.00081152713
-0.022601515 -1.2607612e-09 -5.435625e-06 -0.0012986499 -0.13152327 -3.2244076e-28 -3.79737e-15 -0.09747457
-0.004696844 0.0021576462 -0.08728138 -0.0021360968 -0.06879796 -0.029199356 -0.06420434 -0.1607897
-0.09646179 -0.015447684 -0.09058874 -6.1536443e-06 -0.12049993 -0.11124649 -0.05702187 -0.001123719
-0.04714786 -0.03747588 -9.9532944e-20 5.70716e-05 -6.5683406e-26 0.06114268 -1.1329444e-05 0.065900736
-0.07790245 -0.12110082 -4.6104364e-05 -0.007862985 -0.054397404 -0.09791136 0.008019333 -0.12522013
-0.087687716 -1.3251182e-16 -0.2004845 -0.007408127 -0.00010249611 -0.017241765 -0.028089419 -0.04341562

fc_block.0.weight f4 [128, 768]
00000000: 7924 d4bc fc96 463d c81b 363e 7dba 3a3d
00000010: 68d2 4d3d f21e e13c f4f5 353d 7205 64bd
00000020: 9a8b 883d a49c 11bc e754 33bd 32cb c03d
00000030: b4c8 b1bd d110 f53c 816f 3b3e f330 efbc
00000040: 300a 503d dbd6 b73e 3994 333d 926b 6bbc
00000050: e5bc 1f3e 92d1 873c e42f 6d3d 51fd 063e
00000060: f41a 193d 2231 973d ee55 0c3d 4415 e4bd
00000070: b1e9 833c 65d4 823c dc79 10bb d465 973c
00000080: 1d5d a63d b71a 4abe 5b31 043c 0824 af3e
00000090: 509a ff00 82c1 b801 a234 1f02 cca7 6b01
000000a0: aa46 8401 1d4f 0b02 80f6 e801 c081 1302
000000b0: 80f5 9601 0014 6101 003e 4780 0014 9a81
000000c0: 4b58 1a81 ab19 1882 f030 bf81 e831 ea80
000000d0: 6485 fb01 ccb2 1680 a1bf 893d 1426 b93d
000000e0: 0be2 233d 187f 9d3c afd7 873d 11b4 173e
000000f0: 0207 2a3d ab18 b8bc 29e9 1b3d c4e4 d3bb
00000100: b5aa 92bd 5a04 19bc 08d8 d83d 6840 253b
00000110: b7f0 e6bc 80c3 013d 725a 123e 67c1 423d
00000120: 62d7 6d3d 49a1 4e3d e972 3c3d 32b2 af3d
00000130: d6f5 d03d 6467 b03d 383f a381 c0b3 3801
00000140: f85f 0480 c8ff 5680 d6ed d281 64de 3301
00000150: 5cb2 debd 5f13 42bd 36a5 32bd 9744 97bd
00000160: 9662 463c 9182 ef3c 74df 073d 4071 4ebd
00000170: d318 7e3d b815 2f3e 5c54 cebc de91 803d
00000180: 27c4 943d 874b 6cbd b23a 23be 6b7f 313c
00000190: 1779 ac3c 9f87 bcbd 6708 8fbd c8aa 0f3d
000001a0: de1d 9a39 193a 0fbd d114 bb3d 7061 083e
000001b0: d87a 55bd 8670 193c 4fe6 1c3e 0c4a 68be
000001c0: 3f13 6dbd b0d6 833e b602 0080 5701 0000
000001d0: c409 0080 2108 0000 4505 0000 af07 0000
000001e0: 8098 1f01 00d8 ff80 00e4 fb80 001f f201
000001f0: 4091 dd81 40b0 e501 84de 3c3a 98ff aa3d
00000200: bb08 f8bd 6660 d43c 2608 193e 3780 75be
00000210: 4a0a 0080 4105 0000 eb00 0080 8020 b500
00000220: 440a 0080 4109 0080 b9b3 473c d090 283c
00000230: c80b 1c3c d0de e6bd cf4f e7bd 9b7e 863c
00000240: 845a c6bd eb69 9a3d ec25 c13d 5b20 38be
00000250: 20a8 4c3d 6f1e bf3e 6fbd 27bd f38f d03d
00000260: cbb3 2c3d 5e4c b5bd a695 a03b c2f5 3abd
00000270: c2a0 b6bd 0e0a 7d3c 057e 283e a18c 0cbe
00000280: 87b2 90bd d879 b23d 66b9 793d 5bc8 643d
00000290: 59c2 da3c ee9d aa3c 0650 0c3e 2c17 b4bc
000002a0: 1633 10bd a61c 7b3d 5d7b 8f3d 8de7 a33b
000002b0: fa9b c13d ee34 84bc 5103 18bd a24f 11bd
000002c0: af91 dcbd 236b 31bd 0416 2d3e 9e63 d93c
000002d0: de03 0080 5b0c 0080 de01 0000 9805 0000
000002e0: be09 0000 0b0a 0000 b74e b3bd cefe 9e3d
000002f0: 41a3 b8bb 00d4 b4bd abfb 093e acd6 86be
00000300: 21dd 63bd c6a4 2b3c de4e 7b3d 3bd7 10be
00000310: 7546 aebd 9aa7 323e 180c fbbc 424e f7bd
00000320: d0e3 d2bc c542 cc3d 1cb8 d9bd 720e 01bc
00000330: d9d0 bc3b 93a0 f5bc 02d8 9cbc 3791 f6bc
00000340: c8b8 073d 1090 15bd e6d2 07bd e284 a33d
00000350: 531f f8bd 533c 903c 1ead 503d d834 25be
00000360: c251 0702 dcb9 0e82 1a27 d401 ff33 2302
00000370: 2e3e c681 30d2 6080 3c0a 0080 ce0a 0080
00000380: e800 0000 340b 0000 0a0b 0080 aa04 0080
00000390: 7887 a1bd b139 a8bd 1bf9 b93c 0720 023d
000003a0: 8c30 60bd fa46 453d 21fb e53c def5 e13d
000003b0: f1d6 0cbc 7d2c 2fbd 1a18 353d 4ade 04be
000003c0: aecd 873d 4268 973d 530b afbd f33d 9ebc
000003d0: 4950 1a3e f02d 67be fc32 843d fac5 833d
000003e0: c22e af3d 91bf d13c 637e e03d aca4 013e
000003f0: 3fae e23d bada 65bd a2f2 693c cac6 133e
-0.025896298 0.048483834 0.17784035 0.045588005 0.050249487 0.027480576 0.044424012 -0.055669256
0.06667252 -0.008887444 -0.04378214 0.094137564 -0.08680859 0.029915245 0.18304254 -0.029198145
0.050790966 0.3590611 0.043842528 -0.0143689085 0.15599401 0.016579423 0.057907 0.1318257
0.03737922 0.07382418 0.034261636 -0.111368686 0.016102644 0.015970418 -0.002204529 0.018481173
0.08123229 -0.19736753 0.008068408 0.34207177 2.3473408e-38 6.7868595e-38 1.169658e-37 4.3283072e-38
4.859054e-38 1.0234812e-37 8.557705e-38 1.0837091e-37 5.5453573e-38 4.1340323e-38 -6.542562e-39 -5.6599364e-38
-2.834868e-38 -1.1174563e-37 -7.023254e-38 -2.1507409e-38 9.2394244e-38 -2.084521e-39 0.067260034 0.09040466
0.040010493 0.019225642 0.06632935 0.14814784 0.04151059 -0.0224727 0.038064156 -0.00646648
-0.07161466 -0.009339416 0.1058808 0.002521539 -0.028190954 0.031680584 0.14292315 0.047547724
0.058066733 0.050446782 0.046008024 0.0857891 0.102031395 0.0861347 -5.996746e-38 3.3924427e-38
-4.01769e-40 -7.98961e-39 -7.7483095e-38 3.3036665e-38 -0.10873863 -0.047381755 -0.04361459 -0.07386129
0.012108466 0.029237064 0.033172086 -0.050400972 0.062035393 0.17098129 -0.02518671 0.06277822
0.072639756 -0.057689216 -0.15940359 0.0108336015 0.021053834 -0.09205555 -0.069840245 0.03507498
0.00029395422 -0.034967516 0.0913483 0.1331842 -0.052119106 0.009365207 0.15322231 -0.22684497
-0.057879683 0.2574973 -9.73e-43 4.8e-43 -3.503e-42 2.916e-42 1.89e-42 2.756e-42
2.93131e-38 -2.3495538e-38 -2.31325e-38 8.8941243e-38 -8.1391e-38 8.437422e-38 0.0007204788 0.08349532
-0.1211104 0.025924873 0.14944515 -0.23974691 -3.691e-42 1.885e-42 -3.3e-43 1.6633884e-38
-3.683e-42 -3.32e-42 0.012188845 0.010288432 0.009524293 -0.11272967 -0.11294519 0.016417792
-0.09685233 0.075397335 0.09431061 -0.17981093 0.049965024 0.37327906 -0.040952142 0.10183706
0.04216365 -0.088524565 0.004900652 -0.04564453 -0.08917381 0.015444292 0.16454323 -0.1372552
-0.070653014 0.08714646 0.060967825 0.055855136 0.026704 0.02082726 0.13702402 -0.021983705
-0.03520497 0.06130662 0.070059516 0.0050019682 0.09453578 -0.01613852 -0.037112538 -0.035476334
-0.107699744 -0.043315064 0.1690293 0.026536759 -1.387e-42 -4.432e-42 6.7e-43 2.007e-42
3.495e-42 3.603e-42 -0.08755248 0.07763444 -0.0056346958 -0.08829498 0.1347491 -0.26335657
-0.055630807 0.010476297 0.06135451 -0.14144604 -0.08509532 0.17446747 -0.030645415 -0.12075473
-0.025743395 0.09973673 -0.10630819 -0.007876979 0.0057622013 -0.029983794 -0.01914597 -0.03009854
0.033135206 -0.03651434 -0.033160113 0.0798433 -0.121153496 0.01760689 0.050946347 -0.1613344
9.941697e-38 -1.0485851e-37 7.793261e-38 1.1990271e-37 -7.2822936e-38 -8.891609e-39 -3.671e-42 -3.876e-42
3.25e-43 4.019e-42 -3.96e-42 -1.673e-42 -0.07887167 -0.08214129 0.02270179 0.031768825
-0.054733798 0.04816339 0.02807385 0.110332236 -0.008596168 -0.042767037 0.04421244 -0.12975422
0.06631027 0.073929325 -0.08547082 -0.019316649 0.15069689 -0.22576118 0.06455037 0.064342454
0.0855384 0.025604041 0.10961606 0.12660474 0.11068391 -0.056116797 0.01427904 0.14431301

fc_block.0.bias f4 [128]
00000000: 959d 233e 75d1 923c 0562 fbb9 4f00 423e
00000010: 66da a93b 4dbb 483c c0d9 d73a 16ba 933d
00000020: 2801 993c 49ae a63d ebfd f03c fb4e 273b
00000030: b28c 3b3e a3d8 653e 101f 003e 75e8 393e
00000040: 55cf 14bc 1f79 3a3e ea9e b43d 9b7f 6dbb
00000050: 14da 083c bb81 273c 6c52 2bbb 3344 263c
00000060: deb8 763e e386 da3d 2d6d 293e 7b2c 323e
00000070: 235b 4b3e 10b0 e93b 378b 993c 82c8 e13c
00000080: 90b8 db3d 8c77 7fbc 983a 9cbb ba13 863d
00000090: a62e 6abb 662a 8b3e 3554 333d 07e4 253e
000000a0: 53dc 353e 1bc8 373b c783 2b3e 528c 933d
000000b0: e318 d53d 4462 35bb c751 d53c 6807 883e
000000c0: 4776 733b 2482 ce3b 143f 2e3e 26c9 163e
000000d0: 9ba6 633e bdb0 403c 322a 0b3e d486 0c3e
000000e0: 6e25 483e e01b 8d3c 1bea 1c3e 9eac 9d3d
000000f0: 40d8 d13c 8e4e 1a3d cbbf 103d fa62 473a
00000100: 6894 223e be59 a03c 92e4 1d3e 9549 313b
00000110: 61ab af3d 9deb 063e ddcf 463c 61fb 25bc
00000120: 6808 3d3e fdc2 403c 2698 d83d 99e1 6f3e
00000130: 9008 243e 198b 353e 10ce 223e 8cfe 313e
00000140: ed6a 693d 3acc e339 fccf 51bc 6b5f 633d
00000150: 931d 00ba bd5d 0f3e 3570 dcbb 7193 ad3b
00000160: 3460 123e c03b 0e3d 84b1 cf3d 8b34 3e3e
00000170: 1747 f3bb 4d96 9c3d 0870 643e 62f9 773d
00000180: 2c89 24bb 8e8b 863c bb90 bbbb efc7 bf3d
00000190: b421 1d3e b244 1e3e 1227 523e f878 483b
000001a0: ebf1 103e 0285 093e 72cb 0a3e 3a1b ec3d
000001b0: a780 12bc c245 783e c207 b43c 8d22 0e3e
000001c0: 36b7 3f3e 5c65 033e 8528 a53c f3cf 293d
000001d0: 4f7f bf3d abc8 e73d ec79 0e3e 3038 343c
000001e0: 69b1 843e 7dfe 35b8 a362 e63d a612 38bb
000001f0: cc4f 393c ef4e 3b3e b99e 0d3d a8c2 273e
0.15978082 0.017922143 -0.0004794748 0.1894543 0.005183506 0.012251687 0.0016468093 0.072132275
0.01867731 0.08138711 0.029417953 0.0025529254 0.1831539 0.22445922 0.1251185 0.18155082
-0.009082635 0.18210267 0.08819373 -0.003623939 0.008352775 0.010223801 -0.0026141657 0.010148096
0.24093959 0.10670259 0.16545554 0.1739978 0.19858985 0.007131584 0.01874314 0.02756143
0.10728562 -0.015592467 -0.004767727 0.06546731 -0.003573337 0.27180785 0.043781478 0.16200267
0.17759828 0.0028042856 0.16749488 0.07204498 0.104051374 -0.002767698 0.026039971 0.2656815
0.0037149356 0.006302135 0.1701625 0.1472517 0.22231524 0.011760888 0.13590315 0.13723308
0.19545528 0.017225206 0.15323679 0.0769894 0.025615811 0.03767257 0.035339158 0.0007605996
0.15876925 0.019574042 0.15419224 0.0027051915 0.0857761 0.13175817 0.012134519 -0.010130734
0.18460238 0.011765239 0.10575895 0.23425902 0.16018891 0.17728843 0.15898919 0.17382258
0.056986738 0.00043448975 -0.012805935 0.05551092 -0.00048872194 0.14000602 -0.0067272433 0.0052971174
0.14294511 0.03472495 0.1014128 0.18574731 -0.007424246 0.07645855 0.22308362 0.060540564
-0.0025106175 0.016423967 -0.0057240403 0.09364306 0.15344888 0.15455893 0.20522717 0.003058968
0.14154784 0.13429645 0.1355417 0.115286306 -0.008941806 0.2424536 0.021976355 0.13880368
0.18722233 0.12831634 0.020160923 0.04145808 0.09350454 0.11317571 0.13913697 0.010999724
0.25916603 -4.3390773e-05 0.11249282 -0.0028087287 0.011310529 0.1829183 0.034575198 0.16382849

first_head.0.weight f4 [128, 128]
00000000: c1e2 a7bd 02ef 3d3e a0c6 70bd d039 7d3e
00000010: 111f 083e 2f7e 183e 78a7 87bc 27d5 c5bd
00000020: 5fe1 1bbd 8b3f 1d3e 4d27 e7bc 73e3 2fbe
00000030: a441 893e f138 353d 460b 7a3e 0260 eb3e
00000040: 58d4 5d3e 8bbd de3c cd64 19be 94f6 763e
00000050: 0d7e 223d f3a9 0a3b 6774 413d f12c 573e
00000060: dcca 2a3e 2115 62be 6b8d 3e3e 0f2a 10be
00000070: ccc4 56be 9bd5 843e a4de 3b3c 7e76 43bc
00000080: 16f8 b2be 0f76 e83d 41e4 0d3e 0400 2fbd
00000090: 80cc ef3d 9043 673e e3b5 8ebd c826 f4bc
000000a0: 80fa 1f3d b85e cd3d bf31 8abe 1c61 25bd
000000b0: c333 0a3e 44b2 543d dbb8 49bd 547b d63d
000000c0: 119c b9bd 7460 6d3e 851e 8abd fdbd 493e
000000d0: a249 933d 87f8 0e3e c7ef 913e 35ab 84be
000000e0: 3bef 3b3d eb7a 823e 1b30 aa3e c44d fa3d
000000f0: 6f3b 3f3e 7f58 4e3e d053 093d 695e 9a3d
00000100: 24b9 cfbd dbc5 c63d c2bd 2a3d 36b7 653d
00000110: 1028 c33e f8d5 69be 1632 2d3e f513 5b3d
00000120: 4f9b 863e 1b9c 8f3d 5d9a b03d de8e 0a3e
00000130: 6787 e73d b5c2 c33e 94d4 a43d e865 d63e
00000140: fbcc bb3d b97c c03c 8998 6a3d 8dce 88bd
00000150: 6498 283e c57e 893e 406b cf3d a40d 6b3e
00000160: 26e5 40be e2a5 bfbc e1ad e53e 0ffa 78be
00000170: e713 ef3d 8167 093e 4136 b53e ce4c c5bc
00000180: 1440 fc3d 1d34 8c3e 1d37 59bc b099 a5bd
00000190: 7521 a83d 9a67 2e3e 6164 ea3e 4118 8abd
000001a0: cd6d 00be 72cc 80be 9a1d 9f3e 3de6 86be
000001b0: 38e6 d73d beb7 7d3d 4707 c43d 734a 063e
000001c0: 2e2b 16bd 9a2e 87bd 2c32 babd 2409 07be
000001d0: 5f91 08bf 563a ee3d 4214 f83d 39ad 58bd
000001e0: 1c16 5a3e ec46 2f3e c93a 3fbe 6dcb 4c3e
000001f0: e77a 093e 8c71 7fbd 583d 2f3d 5893 e93e
00000200: ba7e e03c 69df 9a3d 817b 8ebd 3ea3 b23e
00000210: 73b4 fe3d 4508 893e 2095 983d 904d 79be
00000220: daa2 6cbd 3844 c5bb 6d5c 09be f34b acbe
00000230: 1405 9e3d a68a 27be c69f 463e 95cf 983e
00000240: d276 3e3e 385d 6b3e 9fa0 37be 1a6f 5f3e
00000250: e88f 2b3d 94cf f2bd c6cd 0c3d c542 873e
00000260: d0f6 dfbc b28f 5cbe 0074 b13c 2bdd 7abe
00000270: dd41 90be 8583 823e a893 de3d 4dee ecbd
00000280: a141 bcbe c7d7 db3d cb7f 0d3e 2b6a d0bd
00000290: 3251 193e e670 703e 4c1e cebd 4dfd 49bd
000002a0: ed13 223e 13cb 5c3e 5680 4bbe ba66 4fbe
000002b0: a109 453e da20 5bbd 5fac 853d 4978 933e
000002c0: b5e4 b1bc 5561 663e 4a36 27bd beec 283e
000002d0: ac13 623d a62c 113e ecf7 c13e ae2a 95be
000002e0: b0c2 0abc 3184 7b3e 2a1f c23e 56af 99be
000002f0: d840 923e c738 4b3e 4c93 56bc 77a9 cc3d
00000300: 01dd ce3c 5714 d63d 547f 0cbd 06b3 193e
00000310: e923 5e3e f21e 88be 2441 9c3e 535a e03d
00000320: 1930 db3d aa04 443e 8fbe 57bb 8dde 523e
00000330: 1185 203e 31e7 3c3d 979f 3c3e e410 733e
00000340: 4387 0ebd 48d0 d43c 1201 5a3d 8333 32be
00000350: f387 763e 582f 133e 10d4 dd3d 294e 633e
00000360: 0c94 15be 84b7 d8bd 10b6 b83e 6356 7ebd
00000370: 8ffd 19bd e56b 5fbd ae13 113e 5c64 d5bd
00000380: 00ba 4b3e 8493 133e 4502 263c ff5b fcbd
00000390: d6ad 813e ad64 f33e 3897 9b3e ab83 d1bd
000003a0: 714a adbe d9a9 92be 4ddc 583e d9a0 53be
000003b0: 1dca 003d 53b8 76bd eec6 513e dcdc 853d
000003c0: 66b9 643e c639 8bbc bab9 e4bd cce1 2cbe
000003d0: 9504 c2be ed35 fb3d c46d 16bd 23e5 5ebd
000003e0: 848e 803e 62fb 3b3e 724e f3bd f792 7b3e
000003f0: 9909 7c3e 0d3e d13c e156 0a3e 6478 443e
-0.08197547 0.18548205 -0.058783174 0.24729085 0.13293101 0.14891885 -0.016559348 -0.09659796
-0.038056727 0.15356271 -0.028216982 -0.17176609 0.26807892 0.044243757 0.24418363 0.45971686
0.21663034 0.02718999 -0.14979859 0.241175 0.039670993 0.0021158427 0.04723015 0.21013238
0.16678947 -0.22078373 0.18608634 -0.14078544 -0.2097351 0.25944218 0.011466656 -0.011930106
-0.349549 0.11350643 0.13856603 -0.042724624 0.11708927 0.22584367 -0.06968286 -0.029803649
0.039057255 0.10027832 -0.26991078 -0.040375814 0.13496308 0.05192782 -0.049248558 0.10472742
-0.090629704 0.23181325 -0.067441024 0.19701381 0.07191779 0.13961993 0.28503248 -0.2591187
0.045882445 0.25484404 0.33239827 0.12221864 0.18675016 0.20150946 0.033527195 0.075375386
-0.10142735 0.09705707 0.041684873 0.056082927 0.38116503 -0.22835529 0.16913638 0.05348583
0.26290366 0.07012197 0.086231925 0.13531062 0.11305123 0.38234487 0.080483586 0.41874623
0.09169956 0.023496972 0.057274375 -0.066800214 0.16464382 0.2685453 0.10127878 0.22954422
-0.18837413 -0.023394529 0.44859222 -0.2431414 0.11673718 0.1341839 0.35392955 -0.024084475
0.123169094 0.2738351 -0.013257769 -0.08085954 0.082095064 0.17031708 0.45779708 -0.06742907
-0.12541886 -0.2515598 0.31077272 -0.26347533 0.105419576 0.06194281 0.095717005 0.13114338
-0.036662273 -0.066006854 -0.09091601 -0.1318708 -0.5334682 0.116322204 0.12113239 -0.052899573
0.21297497 0.17116898 -0.18674769 0.19999476 0.1342579 -0.062364146 0.04278311 0.45620227
0.027404178 0.07562143 -0.0695715 0.3489017 0.12436762 0.26764122 0.07450318 -0.24345994
-0.057772495 -0.006020095 -0.13414164 -0.33651695 0.07715812 -0.16361484 0.19396886 0.29845873
0.18600014 0.22984779 -0.17932366 0.21819726 0.041885287 -0.11855999 0.03437593 0.2641813
-0.027339369 -0.2153919 0.021661758 -0.24498431 -0.2817525 0.25490966 0.10868007 -0.1156889
-0.3676882 0.10734516 0.1381828 -0.101765 0.1497238 0.23480567 -0.100643724 -0.049313832
0.15827914 0.21561842 -0.19873175 -0.20254031 0.19241954 -0.053498127 0.06527018 0.28802708
-0.021715501 0.22498067 -0.04082326 0.1649656 0.05519454 0.14177188 0.37884462 -0.29134125
-0.008469269 0.24562146 0.379144 -0.30016583 0.28565097 0.19845878 -0.013096642 0.0999326
0.025251867 0.10453098 -0.034301117 0.15009698 0.21693386 -0.2658611 0.30518448 0.10954728
0.10702533 0.19142404 -0.0032919978 0.20592709 0.15675761 0.04611892 0.18420254 0.23736912
-0.034796964 0.025978222 0.053223677 -0.17402463 0.24075298 0.14373529 0.10831463 0.22197784
-0.14607257 -0.10581878 0.36076403 -0.062094104 -0.037595328 -0.054546256 0.14167663 -0.10419533
0.19895172 0.14411741 0.010132377 -0.12322234 0.2532794 0.47537747 0.30388808 -0.10230192
-0.33845857 -0.28645208 0.21177788 -0.20666827 0.03144275 -0.06023438 0.20486042 0.06536266
0.22336349 -0.016995322 -0.11168237 -0.1688301 -0.3789412 0.12266145 -0.036725774 -0.05441774
0.2510873 0.18357614 -0.11880197 0.24567781 0.24613036 0.025542283 0.13509704 0.1918655

first_head.0.bias f4 [128]
00000000: 108b 1d3e 24b9 033e 2b0d fa3c 0564 1c3e
00000010: cff9 d63d c89d 423e dfa3 841f f79b 353e
00000020: c2f3 1f3e b6b2 9d3d 3468 c298 b9b7 1582
00000030: 3497 693c 3b9b e53d f40b e03d 8cad c83d
00000040: 7318 153c 1f99 463e b221 913d 9bbe 253e
00000050: 0b25 133e bf29 383e 447f fc3d fa14 203e
00000060: bd31 1b3e 77fd 40bb 8109 263e d303 fa3d
00000070: d14b 2e3e 758e c13b eff6 023e 4e0b 393e
00000080: 5ddf 093c 670f 183e 143e 413e 51b4 013e
00000090: c04e e83d c4ba 3881 b1dc f43d 240f 073e
000000a0: 640a 063e fb58 06ba c617 033d 30c2 1a3e
000000b0: 55e3 1c3e a263 153e 4465 e33d f6d0 0d3e
000000c0: 0969 043e 8a02 213e de15 1e3e 6582 103e
000000d0: be07 0a3e 5d97 0d3d 559e b3b6 45c0 463e
000000e0: 6bad b43d 2a50 e23d 6701 603b c575 0db8
000000f0: 840a 1f3e 4808 2c3e 9000 ba3d f08e fa3d
00000100: a339 083c 9085 5481 3d84 c33c d920 1c3e
00000110: 095c ca3d b000 d33d fd44 2a3e dd17 b39c
00000120: b93b 0e3e ab00 1a3e 8feb e53d fc80 3d3e
00000130: c6d5 073d 3b3b 243e 062e 253e 5915 aa3c
00000140: 41c2 253e 4738 e53d 5af6 79b8 6be7 9a81
00000150: 7163 e13d 3299 0b3e 37f6 0b3e 1069 b901
00000160: adfa 373c 6931 333e 06b4 183e 162d d83d
00000170: e0a1 373c 2eee ed3d 577f 983c 5e3d 083e
00000180: 5b00 423e 774c 233e fb3e 073e 6e9b 133e
00000190: fe48 093e 6b95 f23d 42f5 b8ba 2f4f cb3b
000001a0: 356e 193e 32eb 3b3e ae87 a581 4582 cf3d
000001b0: f685 1d3e 1f38 213e 1165 01af 87b2 9ab6
000001c0: 5c50 0d3e eef4 c13d b2f1 1c3e f708 063e
000001d0: 142b 003e b1c3 173e ee2b 113e 76de eb3d
000001e0: e749 123e 0a62 7bb5 b59a 443e 44bb 0c3e
000001f0: 27c3 cc3c 71fa 2d3e 1ee8 0d3e 1f50 1fad
0.1538508 0.12863594 0.030523857 0.1527253 0.10496866 0.19005501 5.6175277e-20 0.17735277
0.1562033 0.07700102 -5.0253043e-24 -1.0999517e-37 0.014257241 0.112112485 0.1093978 0.097987264
0.009100067 0.19394349 0.07086505 0.16185991 0.143696 0.17984675 0.123289615 0.15633002
0.15155692 -0.0029447952 0.16214563 0.12207761 0.17021109 0.005906875 0.1278951 0.18070719
0.00841507 0.14849626 0.18871337 0.12666442 0.11343145 -3.392946e-38 0.11956156 0.1318937
0.13089901 -0.00051249535 0.032005094 0.15113139 0.15321095 0.14588788 0.11103299 0.13849244
0.12930693 0.15723625 0.15438029 0.14112242 0.13479516 0.03456818 -5.353048e-06 0.19409283
0.08822139 0.11050446 0.0034180523 -3.37267e-05 0.15531355 0.16800034 0.090821385 0.122342944
0.008314523 -3.9034077e-38 0.023866767 0.15246905 0.098808356 0.103028655 0.1662788 -1.1851395e-21
0.1388997 0.15039317 0.1122657 0.18506235 0.033162855 0.1603822 0.16130838 0.020762132
0.16187383 0.11192375 -5.959566e-05 -5.6902734e-38 0.11005295 0.13632658 0.13668142 6.8109024e-38
0.011229199 0.17499317 0.14912423 0.105554745 0.011208028 0.11617695 0.018615408 0.1330466
0.18945448 0.15947138 0.13207619 0.1441476 0.1340675 0.118449055 -0.0014111178 0.006204508
0.14983447 0.18351439 -6.080612e-38 0.10132269 0.15383133 0.15744065 -1.1768388e-10 -4.610341e-06
0.13800186 0.09470545 0.15326574 0.13089357 0.12516433 0.14820744 0.14176914 0.115170404
0.14286004 -9.364745e-07 0.19199641 0.13743311 0.0249954 0.16990067 0.13858077 -9.055894e-12

first_head.2.weight f4 [7, 128]
00000000: 2b60 82be 663d 23bf 3094 94be 2041 0a3f
00000010: e62f 24bf 6027 3ebe 4cdc 3634 5b05 c63e
00000020: 0524 66bf 050d 29bf 3b78 b537 a77c 7095
00000030: ff46 ef3c ccc8 05bf 5573 193f d602 06bf
00000040: db2d f6bc e94e 6e3e f273 073e 1f84 e2bd
00000050: ad9d cf3e a7e5 4fbf dc09 49bf b681 463f
00000060: e63d 393e 373b 2fb9 5ad6 97be 197c 00be
00000070: 8a7b 423e 55a6 5d3c e9d9 e03e 0d7b 153e
00000080: 1b47 ddbd e2a0 0b3f d1d7 903e 4130 723e
00000090: 1ad7 f2be 7596 9201 1cbf d8be f41c 3e3f
000000a0: 1f7c 113f 86b0 2abb da72 7dbe 140e ce3e
000000b0: 5da3 d13e 0b76 46bd 0548 0dbf 3821 88be
000000c0: e2d9 943d 606b 033f 863a 323f 46cc 423e
000000d0: 16e3 2c3f dc69 2a3e 24b1 eab5 3523 ec3d
000000e0: a356 e1be ac72 0abf 4ae4 99bd e16f b2ba
000000f0: bf2f c1be 6ae8 7dbf fa50 823e 6dbc 0d3f
00000100: 5c63 fbbc 3635 4b01 1abd b2be 41de f43e
00000110: e8f0 4dbf 9f86 fbbc af10 9a3e 2e77 3581
00000120: 1402 2a3e 8516 c53e 4033 c23e 5560 8dbf
00000130: b662 653e 81fd 333f f94a 34bf 13d8 39be
00000140: e5a9 6ebe 5a37 2fbf b8e0 61ba 3121 000e
00000150: 8338 e8be bdcf ebbe 90b8 7bbe 6d5c 56b4
00000160: 765f 073d 63fb 303e 648e 00bf b258 213e
00000170: c8bd dcbd dde3 10bf b566 bbbc cb0c 82be
00000180: 80e9 133f 0989 f7bd 5134 37bf d630 053f
00000190: 48ba 39bf 5def 983e 21ad 9f3a 6bb5 da3b
000001a0: 604a ea3d 97e4 c7bd 47ab 6201 589a 13bf
000001b0: 7528 40bf bfbe 21bf b9bc 1eb6 cce8 7d3a
000001c0: 079f dabe 6042 30bf 68ab 233e 5c31 44bf
000001d0: f4dd 42bf d5e6 1cbf f9da a63e 37b5 ecbe
000001e0: 12e6 28bf fe81 7333 f18e 283e 38db 0abf
000001f0: 4347 013e 91a9 4abc 4e35 203f 9e93 7400
00000200: fa05 7f3d 7745 abbd 99c0 1b3e e7db 12bf
00000210: 01a3 e93c d7aa a83e 91ed df36 9c79 a3be
00000220: d919 923e f72c 80be 8acb a936 0a4d 2082
00000230: edb5 933c 3e59 1b3f 01db 253e 38ef a03e
00000240: a994 8b3d 3e4a 933e 3ba4 60be 2433 03bf
00000250: d3af 293e 2a68 59bf 6094 f43d 3e7f bcbe
00000260: 98b4 c7be 382a b03a 5119 203e 6559 e93e
00000270: 02ea 813d c846 6fbd fd0f 443e e6ed 0ebf
00000280: 3249 8d3d 21c6 973e db65 653e cd1b 26bf
00000290: a926 f6be 9030 9501 16a2 dcbd f92d a33e
000002a0: b25e 01bf 479f f83a e980 5bbe db3b 883e
000002b0: 6622 a43e 2f1e b33e 209d b53e 8297 f2be
000002c0: 7f5d 153f dbf2 43bc fd43 09bf 1cab cdba
000002d0: 6b20 23bf 8d88 833c 6966 b4b7 3c1c a73e
000002e0: 40f7 6d3f 1c66 183f ef1e 803d 0f5a 0c39
000002f0: 37e0 ddbe f715 10bc c72c c43e 04da 333f
00000300: f205 dabd d2d6 1901 5f80 d0bd 2a5c 09bf
00000310: ffa2 1a3f 6a15 08be 8338 eb3e 5ca8 ec80
00000320: 7f34 b53e 76a4 683e 14bc a4be 4a29 873e
00000330: faf6 093e 1a54 8c3e 6f28 2dbf fd45 ef3b
00000340: 890f ffbe 7130 a73e 336f daba dd49 2135
00000350: 661f e93e a370 973e ddbf 743c 0895 b838
00000360: b520 9e3b 04ea 6cbf 83e8 f33e 7c5a 08bd
00000370: 722c 38bc 1404 17bf 48bd 6ebd 67bd 09bf
00000380: c65d 20bf e064 843e ca4e 06bf f58e 30bf
00000390: d0cb 263f 3850 85bd a370 4c3a 2914 0fbd
000003a0: f2c4 6b3e a35a 6dbf 509e 4b00 6e1a e3be
000003b0: 827d 0b3f 5437 c13e 141a b381 f977 2b3a
000003c0: 541a 3d3f c852 cdbc 33ac 073e 7a2f bf3e
000003d0: 100e ee3a 4661 d53e 9eb3 813d 8641 023f
000003e0: a58d 713e 42b3 8bb4 b363 8fbf 9327 15bf
000003f0: cba3 2fbe d66f 57bf 7d8a 003f fc60 e436
-0.25463995 -0.6376556 -0.29019308 0.5400562 -0.6413559 -0.18569708 1.7030214e-07 0.3867596
-0.8989871 -0.6603549 2.1632868e-05 -4.8565947e-26 0.029208658 -0.52259517 0.5994161 -0.5234808
-0.030051162 0.2327229 0.13227823 -0.11060356 0.40549985 -0.81209797 -0.7853067 0.77541673
0.18090019 -0.0001671136 -0.29655725 -0.1254734 0.18992439 0.013528426 0.43916252 0.14597721
-0.10804578 0.5454236 0.28289655 0.2365122 -0.47429734 5.3847825e-38 -0.42333305 0.7426293
0.5683002 -0.0026045158 -0.24750844 0.40245116 0.4094495 -0.04845242 -0.5518802 -0.26587844
0.0726812 0.51335716 0.6962055 0.19023237 0.67534006 0.16641945 -1.7485913e-06 0.11530153
-0.4401141 -0.54081225 -0.07514246 -0.0013613665 -0.3773174 -0.9918276 0.25452405 0.5536564
-0.030687027 3.7323388e-38 -0.34909898 0.47825816 -0.8044572 -0.03070384 0.30090854 -3.3329957e-38
0.16602355 0.38493744 0.37929726 -1.1045023 0.22400936 0.7030869 -0.704269 -0.18148832
-0.23306997 -0.68443835 -0.00086165546 1.57932e-30 -0.45355615 -0.4605693 -0.24582124 -1.9963927e-07
0.033050023 0.17283396 -0.5021727 0.15756491 -0.107783854 -0.5659769 -0.022876123 -0.25400385
0.5777817 -0.12086684 -0.71564204 0.5202764 -0.7254987 0.2987012 0.0012182334 0.0066744587
0.11439967 -0.09760397 4.163253e-38 -0.57657385 -0.7506173 -0.6318168 -2.3653686e-06 0.00096858735
-0.42699453 -0.6885128 0.15983355 -0.76637816 -0.76119924 -0.6128972 0.32588938 -0.46232006
-0.6597606 5.6696074e-08 0.16460778 -0.5424075 0.1262484 -0.012369529 0.62581336 1.0705873e-38
0.06226156 -0.08362859 0.15210189 -0.57366794 0.02852011 0.3294284 6.6735743e-06 -0.31928718
0.28535345 -0.25034305 5.0602875e-06 -1.1777053e-37 0.018031085 0.6068305 0.16196825 0.3143251
0.06815464 0.2876758 -0.21937649 -0.5124991 0.16570978 -0.84924567 0.11942363 -0.36815828
-0.3900497 0.0013440317 0.15634657 0.45576015 0.063434616 -0.05841711 0.19146724 -0.55831754
0.068987265 0.29643348 0.22402136 -0.6488617 -0.4807637 5.480364e-38 -0.10773103 0.31871012
-0.5053512 0.0018968367 -0.21435894 0.26608166 0.32057494 0.34983966 0.3547144 -0.47381216
0.5834579 -0.011959757 -0.53619367 -0.0015691253 -0.6372134 0.016056323 -2.150536e-05 0.3263873
0.929554 0.59530807 0.062559 0.0001338499 -0.43335125 -0.008794299 0.38315412 0.7025454
-0.10645665 2.8255788e-38 -0.10180735 -0.53656256 0.6040496 -0.13289419 0.45941553 -2.1733573e-38
0.35391614 0.22718987 -0.32174742 0.2639869 0.1347312 0.27407914 -0.6763982 0.0073020444
-0.4981654 0.32654145 -0.001666522 6.008466e-07 0.45531768 0.29578122 0.014938322 8.801563e-05
0.0048256763 -0.9254458 0.4763833 -0.033289418 -0.011241065 -0.589906 -0.05828598 -0.5380463
-0.62643087 0.25858212 -0.5246397 -0.68968135 0.65154743 -0.06509441 0.00077987666 -0.034931336
0.23024347 -0.92716426 6.944454e-39 -0.44356102 0.54488385 0.37737525 -6.5791636e-38 0.00065410096
0.738683 -0.025063887 0.13249283 0.3734091 0.001816215 0.41675776 0.063330874 0.5088123
0.2358919 -2.6021195e-07 -1.1202301 -0.5826351 -0.17152326 -0.84155023 0.50211316 6.80622e-06

first_head.2.bias f4 [7]
00000000: e919 2bbc 3bf5 c7ba ede6 283d 01f0 0ebc
00000010: c115 07bc bf16 313a f89c 613c
-0.010443189 -0.001525558 0.041235853 -0.008724214 -0.008244933 0.00067554036 0.013770334
