src/models/saved_models/demo_net.pt (torch, 129419 bytes, 13 tensors)

conv_block.0.weight f4 [32, 2, 4, 4]
-0.07597136 0.05470294 0.025834268 -0.13576554 0.043615077 -0.070009515 -0.08094102 -0.15870924
-0.07870957 -0.07720215 0.13229649 0.09952065 0.084811725 -0.0992419 -0.07820426 0.17522427
0.06497467 -0.17384787 -0.1661564 0.15654393 0.054354787 0.076048404 -0.1537728 -0.15370575
0.006881843 0.11252309 0.004043337 -0.10235206 0.12943481 0.13940056 0.043210868 0.15649068
0.13988636 0.17599061 -0.12327618 -0.16756931 -0.0015435229 -0.1013796 -0.12066512 0.07139343
0.14039508 -0.065535545 -0.099308155 -0.1518573 -0.13783239 -0.15652326 -0.073652 0.069065996
-0.12209839 0.016224766 -0.13844626 -0.15654665 0.07075383 0.015074895 0.098145574 -0.06155073
-0.17663555 0.01383858 0.054219875 0.1610451 -0.022477273 -0.08444671 0.075277515 -0.13941398
-0.070121035 0.12065517 0.10870576 0.09844444 0.07216288 -0.072638996 0.10564278 -0.12651278
-0.005091402 0.05136295 -0.09605832 0.10613137 -0.0139969895 0.06334804 0.02687241 0.14694361
-0.10431088 0.064949326 -0.15610737 -0.094363734 0.17526034 0.10465791 0.15598091 -0.11068506
-0.04926132 -0.17266378 0.17041819 -0.00031549024 -0.08715894 0.12647794 -0.11347554 -0.054899387
0.01819216 -0.11360792 -0.13976315 0.13620314 -0.097671755 0.16353694 -0.053557687 -0.108492754
-0.17353228 0.16157272 -0.012222059 -0.080656126 -0.002141671 0.015735125 0.093794435 -0.14757077
0.06029412 -0.07215808 0.0062592495 0.120082565 0.0652932 -0.071039505 -0.1338029 0.13859856
-0.14953218 0.15200229 -0.08378804 0.013557987 0.14424807 -0.029569743 0.10585143 0.111618154
-0.011168409 -0.027389614 0.06048001 -0.025334029 0.14988412 0.044565614 0.12918654 -0.174479
-0.1623128 0.1211737 -0.0031311105 -0.17394346 0.017122284 0.103358254 0.06380683 0.008326742
-0.12313973 -0.029029842 -0.098134845 -0.09141202 0.15386756 -0.05165134 0.11080781 0.12383884
-0.15145126 -0.15071656 -0.1051323 -0.14820494 -0.06293009 -0.020556092 0.13495323 0.09875603
-0.00440266 -0.0912556 -0.10469857 -0.16490555 -0.122477815 -0.079625 -0.07951361 -0.05947702
-0.03212239 -0.03074345 0.16324139 -0.0045678965 -0.013990414 -0.011416 -0.16718782 -0.05122353
0.08612438 0.14034395 0.15732573 -0.020131504 -0.1404284 0.009018245 -0.023073291 -0.04753686
-0.013590146 0.14978948 -0.17638896 0.10160846 0.1412297 0.035941232 -0.15888466 0.09359365
0.16034374 0.10657739 -0.13962583 0.13824467 0.1453025 0.095184356 0.05605674 -0.009985642
-0.05571417 0.0770457 -0.05538275 0.11341801 -0.14040154 -0.13171384 -0.008780938 0.15953968
-0.09268604 0.12049362 0.10395623 0.00070990046 -0.03586471 0.0391022 -0.099370405 -0.13320893
0.019823328 0.034241848 0.10368057 -0.14921638 -0.025553424 0.017941682 0.07328191 -0.089260384
0.09863848 -0.047226954 -0.1744999 0.15278716 -0.06337093 0.16151136 -0.0071441648 -0.13578044
-0.11819276 0.14279911 0.032532036 0.16078421 0.07930146 0.16720456 0.027702807 0.017624188
-0.10095186 -0.14567237 -0.035711594 0.06244184 0.108778566 0.06421593 0.016273594 -0.10597304
-0.17093544 0.03282544 0.1763485 0.071685 0.039083045 0.032772504 0.019448748 0.13363722
00000000: df96 9bbd 3110 603d 63a2 d33c 1f06 0bbe
00000010: b9a5 323d 2661 8fbd 68c4 a5bd ad84 22be
00000020: 7c32 a1bd 291c 9ebd bb78 073e 7cd1 cb3d
00000030: c5b1 ad3d 563f cbbd 8e29 a0bd fe6d 333e
00000040: 7111 853d 2d05 32be e724 2abe 0d4d 203e
00000050: 20a3 5e3d 44bf 9b3d 9e76 1dbe 0a65 1dbe
00000060: 1581 e13b 8172 e63d f87d 843b f59d d1bd
00000070: 8f8a 043e 05bf 0e3e e1fd 303d 183f 203e
00000080: 5f3e 0f3e e236 343e 3978 fcbd 4a97 2bbe
00000090: 0950 caba 1ca0 cfbd 461f f7bd b836 923d
000000a0: bac3 0f3e 8037 86bd 1362 cbbd 7b80 1bbe
000000b0: ef23 0dbe a247 20be dcd6 96bd 7972 8d3d
000000c0: b80e fabd cde9 843c dbc4 0dbe c44d 20be
000000d0: 62e7 903d b1fc 763c 8c00 c93d 9e1c 7cbd
000000e0: f3df 34be 36bb 623c a915 5e3d 02e9 243e
000000f0: 4222 b8bc 66f2 acbd 192b 9a3d 8ac2 0ebe
00000100: 9e9b 8fbd 0f1a f73d 20a1 de3d 3d9d c93d
00000110: 22ca 933d c1c3 94bd 3e5b d83d 918c 01be
00000120: c7d5 a6bb f561 523d 39ba c4bd 675b d93d
00000130: a153 65bc 9ebc 813d 8723 dc3c 6378 163e
00000140: f1a0 d5bd 2704 853d 9cda 1fbe c641 c1bd
00000150: 7277 333e e356 d63d 76b9 1f3e d9ae e2bd
00000160: 3dc6 49bd c6ce 30be 1b82 2e3e 6268 a5b9
00000170: 6380 b2bd 6f83 013e dd65 e8bd 2ede 60bd
00000180: ba07 953c 45ab e8bd 121e 0fbe d678 0b3e
00000190: 2108 c8bd 3a76 273e 4e5f 5bbd 7331 debd
000001a0: 72b2 31be 5273 253e 083f 48bc 0a2f a5bd
000001b0: 475b 0cbb f3e6 803c 4c17 c03d cb1c 17be
000001c0: f8f6 763d 9ec7 93bd 641a cd3b d9ed f53d
000001d0: 71b8 853d 297d 91bd a103 09be c8ec 0d3e
000001e0: f71e 19be 7da6 1b3e 1099 abbd 5222 5e3c
000001f0: c4b5 133e 3f3c f2bc a2c8 d83d 0f98 e43d
00000200: b4fb 36bc 2f60 e0bc e3b9 773d 4f89 cfbc
00000210: 397b 193e 6f8a 363d 7a49 043e 9faa 32be
00000220: 5435 26be eb29 f83d 5133 4dbb 3c1e 32be
00000230: 0844 8c3c 7ead d33d 28ad 823d e36c 083c
00000240: af30 fcbd fecf edbc ecfa c8bd 3a36 bbbd
00000250: 758f 1d3e 5b90 53bd 35ef e23d 389f fd3d
00000260: 0a16 1bbe 7155 1abe 9a4f d7bd 09c3 17be
00000270: 7ee1 80bd 4065 a8bc 2e31 0a3e 9a40 ca3d
00000280: 3044 90bb 37e4 babd 346c d6bd 00dd 28be
00000290: a6d5 fabd 6f12 a3bd 08d8 a2bd 2d9e 73bd
000002a0: c492 03bd b0d9 fbbc c028 273e 4bae 95bb
000002b0: 0d38 65bc 2d0a 3bbc 4933 2bbe c4cf 51bd
000002c0: fb61 b03d 53b6 0f3e ff19 213e d3ea a4bc
000002d0: 76cc 0fbe 43c1 133c 3304 bdbc 03b6 42bd
000002e0: 34a9 5ebc 6a62 193e 4f9f 34be 1918 d03d
000002f0: 859e 103e 1d37 133d a9b2 22be 07ae bf3d
00000300: 2631 243e 3f45 da3d 13fa 0ebe 0390 0d3e
00000310: 2eca 143e 04f0 c23d c19b 653d d19a 23bc
00000320: 8b34 64bd 23ca 9d3d 06d9 62bd b447 e83d
00000330: 6cc5 0fbe fedf 06be ecdd 0fbc 5f5e 233e
00000340: 2ed2 bdbd 5cc5 f63d 01e7 d43d 9d18 3a3a
00000350: e0e6 12bd a129 203d b682 cbbd ec67 08be
00000360: 8864 a23c 2e41 0c3d 7b56 d43d 2ecc 18be
00000370: 6a55 d1bc 6ffa 923c d314 963d 26ce b6bd
00000380: f902 ca3d 0d71 41bd 1ab0 32be 3d74 1c3e
00000390: 9ec8 81bd 3c63 253e 9919 eabb 070a 0bbe
000003a0: 0c0f f2bd ee39 123e 5040 053d 9ea4 243e
000003b0: ce68 a23d ac37 2b3e fff0 e23c 9a60 903c
000003c0: d9bf cebd 232b 15be 5246 12bd 04c3 7f3d
000003d0: 4cc7 de3d a483 833d 3350 853c 6508 d9bd
000003e0: b309 2fbe f873 063d b494 343e 96cf 923d
000003f0: 8b15 203d 763c 063d fb52 9f3c 32d8 083e

conv_block.0.bias f4 [32]
-0.12610924 -0.0022576381 0.14774548 -0.14279613 -0.12933387 0.040600523 0.026794774 0.1049683
-0.11820355 -0.15869719 -0.07032394 -0.16979775 0.0075896145 -0.17043722 -0.14118218 0.12460844
0.12839852 0.13431467 0.018466305 0.11932042 -0.13660322 -0.0034295102 0.0038624846 -0.003507271
-0.17532982 0.023339408 -0.02929362 -0.1754699 -0.09088386 -0.09782884 0.071144804 0.11119468
00000000: c822 01be e2f4 13bb 974a 173e 2639 12be
00000010: 1970 04be bc4c 263d b780 db3c 9ff9 d63d
00000020: b414 f2bd 8481 22be ff05 90bd 76df 2dbe
00000030: 4db2 f83b 1887 2ebe 1092 10be b632 ff3d
00000040: e77a 033e c989 093e a646 973c 445e f43d
00000050: b7e1 0bbe a2c1 60bb bd21 7d3b 3eda 65bb
00000060: a989 33be 4932 bf3c 2cf9 efbc 62ae 33be
00000070: 5121 babd 7d5a c8bd 5eb4 913d 09ba e33d

conv_block.2.weight f4 [64, 32, 3, 3]
-0.03890139 0.011734406 0.0031105147 -0.013975621 -0.05275911 0.05034071 0.0070235403 -0.023203814
0.014601095 -0.0011039244 0.009028824 0.053009488 0.00834679 0.025487162 0.034826424 -0.03730319
-0.005386023 0.000852982 0.017832002 0.0419022 -0.009102764 0.036639683 0.019901665 -0.055753347
-0.049108453 -0.037117667 0.0016068064 -0.05490075 -0.029571606 -0.054800276 -0.033423427 -0.052673593
-0.01591583 0.042923257 -0.0027207898 0.058416672 0.00048663453 0.0518996 0.009859209 -0.0077559054
-0.05097851 0.047486722 0.01739663 0.05340343 -0.05652054 0.019159451 0.056074534 0.016763993
-0.026310459 0.041805543 -0.009504951 -0.03578995 -0.058699924 0.039498895 0.0048242756 -0.039379135
-0.021615757 -0.023572044 -0.038604356 0.045959264 0.051215164 -0.0056200223 -0.03339691 0.052385654
0.050332196 -0.03479253 -0.040351365 0.05742632 0.043461747 -0.03923384 -0.057644702 -0.039906815
0.057506785 0.01115665 0.03006931 0.020638539 0.05313791 -0.022598192 -0.019764842 -0.025446504
0.051716123 -0.044015218 0.03289346 -0.053310025 0.05174958 0.058896113 0.051630825 -0.017038532
-0.058200654 0.03567759 0.003597641 -0.024466252 -0.0003303259 -0.006312516 0.014972303 -0.0017516441
-0.025222268 -0.02763769 0.041105814 0.041798223 -0.010173329 -0.0339276 -0.03941751 -0.024117058
0.015616236 0.04959025 0.049210757 -0.005844258 0.041932378 -0.03031733 0.041155584 0.023982836
-0.04134697 -0.026389617 0.03792694 -0.04659342 -0.03463533 -0.038358115 0.020129075 0.010850018
0.013491747 0.029718691 -0.0060185 0.032021716 0.03468284 0.02829568 -0.024711281 0.0026799003
-0.00031095944 0.01867253 -0.05313364 -0.018184891 -0.039610416 -0.04708322 0.04266649 -0.05207892
-0.00693067 0.043356463 -0.027395114 -0.009512656 -0.033399075 0.02169488 -0.027069762 0.037134267
-0.053260192 0.024021119 0.026699515 0.054740403 -0.014835494 -0.047539357 0.055311635 0.0567289
-0.011010639 -0.058151018 0.053039722 0.049819056 0.003014483 -0.018859984 0.03394413 -0.014404297
-0.013671012 -0.034650356 0.010330909 0.05746011 0.040099297 -0.026844943 -0.0059265285 0.056233954
0.032930978 0.048948523 0.031178167 -0.050321005 0.03795183 -0.0013293748 -0.01013166 0.010671449
-0.050813064 -0.018697888 -0.04617742 0.029745236 0.0015080564 0.01693204 -0.020088537 -0.031969186
-0.041645385 0.024826383 -0.032572757 0.04916261 -0.0071334667 0.012346365 0.042507697 -0.037786692
-0.008375133 0.017604535 0.04000423 -0.021077603 0.048742592 0.048223652 -0.0035799674 -0.005721519
-0.018648744 0.04725799 0.035500396 0.040477477 -0.014304781 -0.00149733 -0.008616593 0.014270487
-0.052207373 -0.054282922 -0.03688567 -0.015506949 -0.01911545 0.020691743 -0.0008183724 0.04482902
0.009761505 -0.041450065 -0.02341792 0.049702466 -0.016513262 0.0459163 -0.05409372 -0.039773926
-0.04181856 -0.035314396 0.01036514 0.054114852 0.007913675 -0.016521353 0.043056533 -0.016511632
-0.046438355 0.009212662 -0.041479405 -0.03704582 -0.053938624 0.0045024427 0.0005942776 0.054626867
-0.026870077 0.04517442 0.0036130457 -0.029473003 0.035899654 -0.034429383 0.019519871 0.016191168
0.04125793 0.026496438 -0.050612766 0.034500618 0.058465153 -0.019356383 -0.007323619 -0.04558887
00000000: 1057 1fbd ab41 403c c7d9 4b3b 01fa 64bc
00000010: f019 58bd 0f32 4e3d ba25 e63b ed15 bebc
00000020: 6e39 6f3c 8eb1 90ba a2ed 133c 7a20 593d
00000030: fac0 083c 74ca d03c 27a6 0e3d 3bcb 18bd
00000040: 3c7d b0bb a79a 5f3a 6b14 923c a4a1 2b3d
00000050: c223 15bc 7e13 163d d108 a33c 9f5d 64bd
00000060: f225 49bd b208 18bd 7a9b d23a 9cdf 60bd
00000070: 2740 f2bc 4176 60bd 01e7 08bd 44c0 57bd
00000080: ea61 82bc 4cd0 2f3d 474f 32bb 5246 6f3d
00000090: fb22 ff39 ad94 543d 8588 213c 4025 febb
000000a0: d8ce 50bd 7081 423d 6183 8e3c 8ebd 5a3d
000000b0: 1582 67bd 48f4 9c3c 69ae 653d a454 893c
000000c0: 0889 d7bc 4a3c 2b3d a7ba 1bbc 7c98 12bd
000000d0: 556f 70bd 98c9 213d f514 9e3b 044c 21bd
000000e0: 8713 b1bc 291a c1bc 9a1f 1ebd c83f 3c3d
000000f0: fec6 513d 2a28 b8bb 33cb 08bd 5792 563d
00000100: 2229 4e3d 9d82 0ebd 7947 25bd dc37 6b3d
00000110: f204 323d aab3 20bd da1c 6cbd 5475 23bd
00000120: 3c8c 6b3d 62ca 363c ea53 f63c 2712 a93c
00000130: 23a7 593d d81f b9bc e1e9 a1bc 3075 d0bc
00000140: 49d4 533d 4d49 34bd 4bbb 063d 9d5b 5abd
00000150: 5ef7 533d 0d3d 713d d87a 533d 6494 8bbc
00000160: cf63 6ebd aa22 123d 66c6 6b3b 736d c8bc
00000170: 982f adb9 39d9 cebb 644e 753c 6c97 e5ba
00000180: ee9e cebc 7068 e2bc 925e 283d 9d34 2b3d
00000190: 09ae 26bc abf7 0abd 4174 21bd 2391 c5bc
000001a0: 3edb 7f3c 251f 4b3d 3891 493d 3081 bfbb
000001b0: 49c1 2b3d 0d5c f8bc c292 283d a777 c43c
000001c0: 715b 29bd 0a2f d8bc 4759 1b3d bed8 3ebd
000001d0: c7dd 0dbd 661d 1dbd bbe5 a43c 46c4 313c
000001e0: 7d0c 5d3c 9d74 f33c d636 c5bb 3429 033d
000001f0: 980f 0e3d 58cc e73c 506f cabc 44a1 2f3b
00000200: 4508 a3b9 22f7 983c a9a2 59bd 7bf8 94bc
00000210: 883e 22bd 56da 40bd 0fc3 2e3d b550 55bd
00000220: ac1a e3bb 8c96 313d b86b e0bc f9da 1bbc
00000230: 78cd 08bd 76b9 b13c 68c1 ddbc 1a1a 183d
00000240: 5c27 5abd f0c7 c43c f1b8 da3c 7937 603d
00000250: 9210 73bc a1b8 42bd 748e 623d 905c 683d
00000260: f865 34bc c32f 6ebd 2e40 593d 110f 4c3d
00000270: a28e 453b 4180 9abc 0009 0b3d 0000 6cbc
00000280: 61fc 5fbc 88ed 0dbd f942 293c 4b5b 6b3d
00000290: 293f 243d ede9 dbbc 5333 c2bb 9355 663d
000002a0: a2e2 063d 3f7e 483d 5b69 ff3c 661d 4ebd
000002b0: 6173 1b3d 6b3e aeba 43ff 25bc 4dd7 2e3c
000002c0: 5c21 50bd 502c 99bc 8924 3dbd 48ac f33c
000002d0: faa9 c53a 10b5 8a3c b790 a4bc 1ff2 02bd
000002e0: 5a94 2abd b360 cb3c 036b 05bd bc5e 493d
000002f0: dbbf e9bb 6848 4a3c 8d1c 2e3d 38c6 1abd
00000300: db37 09bc 6337 903c 7adb 233d f0aa acbc
00000310: 50a6 473d 2a86 453d e39d 6abb 947b bbbb
00000320: 40c5 98bc 9891 413d dd68 113d b6cb 253d
00000330: 9a5e 6abc 0f42 c4ba 9c2c 0dbc c3ce 693c
00000340: 66d7 55bd c557 5ebd 6e15 17bd dc10 7ebc
00000350: 0198 9cbc bb81 a93c 0b88 56ba a29e 373d
00000360: b8ee 1f3c 8bc7 29bd f0d6 bfbc d094 4b3d
00000370: d246 87bc bb12 3c3d 6091 5dbd fce9 22bd
00000380: f049 2bbd d4a5 10bd 8cd2 293c 89a7 5d3d
00000390: 5ca8 013c ca57 87bc 0c5c 303d 6743 87bc
000003a0: 2536 3ebd b4f0 163c 4fe6 29bd 5cbd 17bd
000003b0: bfee 5cbd 3a89 933b 4bc9 1b3a 6cc0 5f3d
000003c0: a31e dcbc d008 393d d9c8 6c3b 5e71 f1bc
000003d0: 840b 133d d305 0dbd 23e8 9f3c 57a3 843c
000003e0: 13fe 283d 0f0f d93c 554f 4fbd 8550 0d3d
000003f0: 2879 6f3d 4791 9ebc f8fa efbb 65bb 3abd

conv_block.2.bias f4 [64]
0.013553317 -0.010257089 0.012107638 0.049595904 -0.0028056735 0.051213965 0.04238635 0.03919871
-0.01744739 -0.028249487 0.038828373 0.050251525 -0.04113864 0.043575555 -0.010548212 0.037678327
0.057022367 -0.0436864 -0.030582638 0.009058889 -0.05751548 -0.046169687 -0.017045857 0.035229146
0.009239334 -0.045749787 0.043214835 0.0026607236 -0.055204336 -0.03269762 -0.057247993 -0.010862627
-0.05081359 0.012161066 -0.010327889 -0.050044496 0.04272985 -0.030662008 0.011355653 0.041070413
0.04342539 -0.056819383 -0.0587823 0.009646459 -0.0026096767 0.021614885 -0.0391448 0.024438625
-0.036143262 -0.01616187 -0.018542863 -0.007560323 -0.017278515 0.04661 -0.013678626 -0.014741858
0.0306188 0.046559524 -0.028506793 -0.04594909 -0.005498555 0.024286285 -0.057429157 -0.011636148
00000000: bb0e 5e3c 590d 28bc 1d5f 463c 1325 4b3d
00000010: 64df 37bb bcc5 513d 4f9d 2d3d d48e 203d
00000020: d4ed 8ebc 786b e7bc 800a 1f3d 8bd4 4d3d
00000030: fe80 28bd 487c 323d 68d2 2cbc 9754 1a3d
00000040: 4990 693d 83f0 32bd 7188 fabc bc6b 143c
00000050: 5a95 6bbd 6d1c 3dbd c1a3 8bbc 704c 103d
00000060: 9360 173c 2164 3bbd 0a02 313d 895f 2e3b
00000070: f11d 62bd f1ed 05bd df7c 6abd 29f9 31bc
00000080: e921 50bd 353f 473c 4e36 29bc 75fb 4cbd
00000090: 7f05 2f3d e42e fbbc 100d 3a3c 7339 283d
000000a0: d2de 313d 71bb 68bd b6c5 70bd 2e0c 1e3c
000000b0: 1c07 2bbb b311 b13c 4c56 20bd 8333 c83c
000000c0: f50a 14bd e665 84bc 34e7 97bc 96bc f7bb
000000d0: ac8b 8dbc 21ea 3e3d 511c 60bc d587 71bc
000000e0: 47d4 fa3c 33b5 3e3d 1487 e9bc 1d35 3cbd
000000f0: 392d b4bb 08f4 c63c d63a 6bbd 8ba5 3ebc

fc_block.0.weight f4 [64, 128]
0.04347241 0.045649555 -0.084490374 -0.065662555 -0.08649266 -0.045941465 0.07967681 0.07416489
-0.04054633 0.069533534 -0.026120571 0.031280696 0.0464738 0.034383073 0.06907614 0.015811106
-0.010636284 -0.063063994 0.07156323 0.015148473 0.0335624 0.006040802 -0.018729953 0.04318938
-0.04976214 0.05525611 0.085820705 -0.0418212 -0.032794274 -0.032945104 -0.007394222 -0.03633311
-0.031128746 -0.015242808 -0.06279752 -0.046560455 -0.032020308 -0.07837305 0.06638553 0.021984376
0.06355023 -0.07623647 -0.06875019 0.046300355 0.014245919 -0.086748876 -0.08162368 0.053479776
-0.042387053 -0.032692697 0.0010013881 -0.06467521 0.040876817 -0.0844218 0.01819766 0.0231284
0.042490806 -0.0008026867 0.04688624 0.030901574 0.054346558 0.010442008 -0.0027902795 -0.05201236
0.041557994 0.070852414 -0.08485734 -0.011228752 0.068880185 0.034800664 -0.042710174 0.027809449
-0.034977183 -0.012984706 0.03619288 -0.0025922735 0.03687334 0.043547325 2.0683565e-05 -0.022793826
-0.028002946 -0.044002783 -0.026629811 -0.05141476 -0.08447361 -0.03786829 0.032021835 -0.053298347
0.024783568 0.082731165 0.06146966 0.044006713 0.0066264435 -0.07766532 -0.07066156 -0.07667764
0.074388795 -0.04750126 0.03565365 0.06635917 0.080508575 -0.008134616 -0.037608918 -0.0130194565
0.07297928 0.055599563 -0.06541286 0.008941569 0.04953656 0.02564763 0.05592304 0.033852085
0.07132465 -0.082342684 -0.027400877 0.042921096 0.02059042 -0.014780878 -0.028244268 0.06437837
-0.07169617 0.07060616 0.018377533 0.03568448 0.030810453 -0.055045478 0.028338045 -0.06863822
-0.023152739 0.029353162 -0.08735425 -0.079879686 0.0269372 -0.049401827 0.038799915 0.08222847
0.015465427 0.013756921 -0.008742247 -0.059261575 -0.0739758 0.029463597 0.039157256 -0.08118958
0.069632694 -0.020523366 -0.07350963 -0.025999188 0.0035031512 0.026557457 -0.04499454 0.046702933
0.065872036 -0.053072363 -0.046536725 -0.042832386 0.042747863 -0.013091517 -0.010966547 -0.08738625
-0.03938232 -0.019255484 -0.042170376 0.04748389 -0.08151056 -0.084812894 -0.059809115 0.029653216
0.08254353 0.039835 -0.08093773 -0.07128028 0.03240823 -0.020893352 -0.043880515 -0.07253701
0.019329028 -0.0655065 -0.0065605678 -0.074279785 -0.028096922 -0.05688349 0.02477261 -0.057675496
0.01873951 -0.049508996 -0.07369136 0.021905445 0.010359011 -0.04965155 0.014156778 -0.04974586
0.048935536 -0.08688146 -0.08054094 0.08407556 0.0698767 -0.043044016 0.058258902 0.028542668
-0.03741128 0.08324465 0.012584027 0.08413333 0.06868281 -0.080468535 0.032387123 -0.057992417
-0.078821614 0.04818002 -0.022952404 0.04277035 0.01046816 0.02829222 -0.07924169 0.036357515
-0.009536778 -0.050528623 -0.010108785 -0.01128445 -0.055777792 -0.07083853 0.0127674285 0.029499453
0.0041687028 -0.022169579 -0.08565368 0.009774149 -0.058972932 0.046654757 -0.0452297 -0.036091547
-0.024429083 -0.06358257 -0.0858995 0.08327808 -0.0640983 0.04990465 -0.039850466 0.08707746
-0.033581775 -0.07696621 -0.02171788 0.015799103 0.021295665 0.070236795 0.068310685 -0.047325917
0.08311414 0.016699286 -0.049385633 0.047739852 -0.082724296 -0.062144853 0.060044613 -0.032384984
00000000: 2010 323d 07fb 3a3d 4a09 adbd 177a 86bd
00000010: 1023 b1bd 1e2d 3cbd 982d a33d c3e3 973d
00000020: e913 26bd 9967 8e3d cffa d5bc 3020 003d
00000030: 505b 3e3d 44d5 0c3d cb77 8d3d 4b86 813c
00000040: cf43 2ebc b227 81bd be8f 923d 4d31 783c
00000050: ba78 093d ecf1 c53b 8f6f 99bc 59e7 303d
00000060: 63d3 4bbd 3b54 623d c4c2 af3d b54c 2bbd
00000070: 4a53 06bd 72f1 06bd 3b4b f2bb 07d2 14bd
00000080: b601 ffbc f8bc 79bc fc9b 80bd 2db6 3ebd
00000090: ba27 03bd 0d82 a0bd 23f5 873d 9418 b43c
000000a0: 9f26 823d de21 9cbd e6cc 8cbd 71a5 3d3d
000000b0: b767 693c 65a9 b1bd 512a a7bd 9c0d 5b3d
000000c0: 0c9e 2dbd c7e8 05bd 0241 833a 7074 84bd
000000d0: 736e 273d 56e5 acbd 4213 953c c577 bd3c
000000e0: d70a 2e3d 656b 52ba c90b 403d 4c25 fd3c
000000f0: 7f9a 5e3d f514 2b3c 1fdd 36bb ea0a 55bd
00000100: b738 2a3d 121b 913d afc9 adbd cdf8 37bc
00000110: 0e11 8d3d 248b 0e3d ddf0 2ebd a4d0 e33c
00000120: 3c44 0fbd cebd 54bc fc3e 143d 22e3 29bb
00000130: 8008 173d ae5e 323d 9e81 ad37 1eba babc
00000140: 6f66 e5bc 433c 34bd c326 dabc 4998 52bd
00000150: 8000 adbd c81b 1bbd 5429 033d 5e4f 5abd
00000160: e906 cb3c f56e a93d 9cc7 7b3d 6240 343d
00000170: a322 d93b ff0e 9fbd 02b7 90bd 2b09 9dbd
00000180: 2759 983d ae90 42bd 9009 123d 51e7 873d
00000190: aee1 a43d 0d47 05bc cf0b 1abd 8f4f 55bc
000001a0: 2976 953d 5ebc 633d 2df7 85bd a97f 123c
000001b0: d9e6 4a3d fb1a d23c 8f0f 653d 7ca8 0a3d
000001c0: a812 923d 48a3 a8bd ce77 e0bc 08ce 2f3d
000001d0: 3ead a83c 7f2b 72bc 8660 e7bc cfd8 833d
000001e0: 71d5 92bd f699 903d 7b8c 963c e429 123d
000001f0: 3466 fc3c 5e77 61bd 3025 e83c 3292 8cbd
00000200: d0aa bdbc 0b76 f03c c9e6 b2bd f697 a3bd
00000210: 67ab dc3c 9259 4abd a9ec 1e3d 6667 a83d
00000220: b462 7d3c b564 613c a43b 0fbc 44bc 72bd
00000230: a080 97bd a45d f13c 5c63 203d b946 a6bd
00000240: 969b 8e3d 9e20 a8bc 388c 96bd 40fc d4bc
00000250: 2095 653b 068f d93c 324c 38bd 934b 3f3d
00000260: ebe7 863d 6862 59bd 4b9d 3ebd 0371 2fbd
00000270: 6218 2f3d cd7d 56bc 08ad 33bc 90f7 b2bd
00000280: 5b4f 21bd adbd 9dbc d8ba 2cbd 787e 423d
00000290: 02ef a6bd 62b2 adbd 67fa 74bd 4deb f23c
000002a0: 950c a93d 062a 233d aec2 a5bd 65fb 91bd
000002b0: 7ebe 043d 8928 abbc 0ebc 33bd 498e 94bd
000002c0: e957 9e3c 4628 86bd 08fa d6bb 0020 98bd
000002d0: 842b e6bc aafe 68bd eeef ca3c 243d 6cbd
000002e0: 9a83 993c f2c9 4abd 7feb 96bd 0c73 b33c
000002f0: d7b8 293c 6c5f 4bbd d5f1 673c 51c2 4bbd
00000300: a170 483d e8ee b1bd a6f2 a4bd cf2f ac3d
00000310: 841b 8f3d ec4e 30bd e3a0 6e3d 50d2 e93c
00000320: 923c 19bd 2c7c aa3d 3c2d 4e3c 184e ac3d
00000330: 93a9 8c3d b0cc a4bd 5ca8 043d 7589 6dbd
00000340: 3a6d a1bd 6a58 453d ae06 bcbc f62f 2f3d
00000350: a582 2b3c 16c5 e73c 7849 a2bd 9eeb 143d
00000360: 2540 1cbc 1af7 4ebd 519f 25bc 6ae2 38bc
00000370: 4177 64bd cb13 91bd 7a2e 513c d6a8 f13c
00000380: 9d99 883b fa9c b5bc 326b afbd c123 203c
00000390: 9a8d 71bd 0f19 3f3d c742 39bd bbd4 13bd
000003a0: 801f c8bc 9437 82bd 14ec afbd b38d aa3d
000003b0: f845 83bd d168 4c3d 3e3a 23bd ab55 b23d
000003c0: 0b8d 09bd 76a0 9dbd b2e9 b1bc 1f6d 813c
000003d0: 3f74 ae3c 4fd8 8f3d 79e6 8b3d d2d8 41bd
000003e0: bf37 aa3d f1cc 883c 9748 4abd dd8a 433d
000003f0: 5b6b a9bd 9a8b 7ebd 57f1 753d 1ea6 04bd

fc_block.0.bias f4 [64]
-0.058886215 -0.02863756 0.02869291 -0.015586526 0.06504954 -0.06242117 -0.04564257 0.06975671
0.010421093 -0.06486363 0.038678426 -0.02871725 -0.08399037 0.011885148 -0.028769871 -0.011686351
0.015130002 0.051533163 0.04551042 0.08696347 -0.07045641 -0.0042044325 0.08052489 -0.05170589
-0.04945684 0.022397425 -0.084179625 0.05300887 -0.02656402 0.066157684 0.008468987 -0.048057776
0.0058340617 0.033656385 -0.085947484 0.021228608 0.023668563 -0.081466 -0.00024196506 -0.021987494
-0.08506382 -0.06523304 -0.08513174 -0.021303188 0.0683365 0.0368374 -0.018312648 0.06276769
-0.023639556 0.014843182 -0.051139638 0.0657842 0.07457352 0.06117182 -0.07275451 0.013103856
0.022452153 0.07806072 -0.055141248 -0.036916424 -0.041056592 -0.079562224 -0.085923485 -0.010797822
00000000: ac32 71bd 5199 eabc 650d eb3c a15e 7fbc
00000010: b138 853d 57ad 7fbd b4f3 3abd 9bdc 8e3d
00000020: 3bbd 2a3c 39d7 84bd 456d 1e3d 7040 ebbc
00000030: 2503 acbd ecb9 423c cbae ebbc 1c78 3fbc
00000040: d4e3 773c 7014 533d 2269 3a3d e719 b23d
00000050: 734b 90bd 56c5 89bb 3cea a43d 8ec9 53bd
00000060: 4193 4abd ce7a b73c 5e66 acbd d41f 593d
00000070: ca9c d9bc ae7d 873d 82c1 0a3c 3bd8 44bd
00000080: a82b bf3b 47db 093d 3c05 b0bd 9ee7 ad3c
00000090: 93e4 c13c a5d7 a6bd 00b8 7db9 1e1f b4bc
000000a0: f135 aebd e698 85bd 8d59 aebd 0684 aebc
000000b0: 02f4 8b3d d0e2 163d 6804 96bc 598c 803d
000000c0: bea7 c1bc d130 733c cc77 51bd deb9 863d
000000d0: 00ba 983d 4d8f 7a3d 5100 95bd 8eb1 563c
000000e0: 94ed b73c 4cde 9f3d cadb 61bd ad35 17bd
000000f0: f52a 28bd 85f1 a2bd a7f8 afbd 59e9 30bc

first_head.0.weight f4 [32, 64]
-0.09050715 0.07748653 -0.022746027 -0.010716647 -0.0443829 0.04034704 -0.006055355 -0.020166665
-0.011651725 0.061283797 -0.04258156 0.05268626 0.06410284 0.04264289 0.088293046 -0.06318161
0.066263884 0.09904508 -0.003091514 -0.08019148 -0.050913855 0.014355585 -0.045608193 0.0034187734
-0.106089786 0.034269348 -0.07850668 -0.085785285 0.07728015 0.115710944 -0.05688849 0.001467973
-0.0039267093 -0.012357965 0.008496866 0.06772672 0.0037842393 0.039294258 0.085921705 -0.0470583
0.120702624 -0.087904066 -0.014528811 -0.03351699 -0.11535646 -0.07652265 -0.1066097 0.10099168
-0.09102976 -0.050291836 -0.027901977 0.11838406 0.0100619495 0.019418985 -0.030541092 -0.032851517
0.048054367 0.11198987 0.021947712 -0.10996626 -0.06780636 -0.11967583 -0.025712684 0.083020076
0.109910876 -0.10094683 0.022196323 0.015224412 -0.0074257255 -0.095140606 -0.042181477 -0.014301315
0.11988337 -0.06671877 -0.08114354 0.0111928135 0.028045788 -0.036821514 0.016512007 0.08221044
0.034631148 -0.074168265 -0.09638484 -0.10632101 -0.11063318 -0.11223328 -7.234514e-05 0.03830892
-0.0139461905 -0.10779564 0.09892154 0.03403397 0.019021243 0.10091694 0.01730439 0.0820107
0.010581806 -0.005832836 -0.07847203 -0.094551936 0.11427872 0.04682477 -0.0011636466 -0.07904315
0.050676048 0.016335562 -0.0036557913 0.011991143 -0.016584918 0.09633556 -0.07440695 -0.0883549
0.06267074 0.08550173 -0.11559582 0.077857584 -0.09555364 0.107151255 -0.056638375 0.08008875
0.0671355 -0.01513055 -0.058743805 3.9234757e-05 -0.08680239 -0.058134213 -0.012176067 0.11272767
0.006652996 -0.03696306 0.013035461 0.026290625 0.120903865 -0.11286491 0.09198028 0.056196064
-0.03743343 -0.010142639 0.12498945 -0.022689 0.01302065 0.081259236 -0.08857934 -0.11123796
0.09793195 -0.0136460215 0.102863535 -0.056237295 -0.032032162 -0.09127496 -0.07688551 -0.10735761
-0.08622752 -0.09281409 0.09633407 -0.026463613 -0.11361596 0.06256382 -0.042518035 -0.035381615
-0.07592818 -0.008942217 -0.04025452 -0.0011266768 -0.0076734126 0.09289819 0.10860035 0.018018126
-0.09675297 -0.028894514 -0.029621795 0.046799257 0.03564778 0.0980673 0.09668015 0.104327515
-0.11626254 -0.01807411 0.02083096 0.047859177 0.02484645 -0.06850773 -0.0839757 -0.08432099
0.043771178 0.06729254 0.053280115 -0.030017719 -0.08435333 -0.09274541 -0.046095103 -0.08818485
0.0026004761 0.052801013 0.062371165 -0.08729103 -0.07016517 -0.0051291287 -0.030056223 0.11358334
0.086642444 0.07026781 -0.12220752 -0.064278364 -0.069701955 -0.09606278 0.062063083 0.06781536
0.00071525574 0.024738893 0.11280534 -0.00851877 -0.0068149567 -0.10280901 -0.09218092 0.0148049295
-0.032171696 -0.089710906 0.07723914 -0.024229392 -0.09966704 -0.045713156 0.09760411 0.11144692
0.08678964 -0.10365833 -0.08406985 -0.057552665 0.056455836 -0.048493847 0.009445533 0.056907713
0.11448853 -0.013755366 -0.10220939 0.064656705 -0.06331468 0.1004964 0.10775451 -0.06601289
-0.015789032 -0.09044038 -0.07946187 -0.09727363 0.11395267 -0.033118427 0.12270434 -0.09518732
-0.029886931 -0.037810773 0.010809496 0.015456572 0.11461182 0.030773535 -0.083312035 0.11159484
00000000: d05b b9bd 42b1 9e3d e055 babc e094 2fbc
00000010: d8ca 35bd f042 253d 006c c6bb 9034 a5bc
00000020: e0e6 3ebc b804 7b3d 006a 2ebd 8ccd 573d
00000030: 5a48 833d 50aa 2e3d fcd2 b43d 5c65 81bd
00000040: 5cb5 873d 26d8 ca3d 009b 4abb 6e3b a4bd
00000050: 0c8b 50bd b033 6b3c a8cf 3abd 800d 603b
00000060: 9a45 d9bd 045e 0c3d 1cc8 a0bd 32b0 afbd
00000070: 0e45 9e3d dcf9 ec3d e803 69bd 0069 c03a
00000080: a0ab 80bb 1079 4abc 7036 0b3c 4eb4 8a3d
00000090: 0001 783b 04f3 203d b8f7 af3d 34c0 40bd
000000a0: f032 f73d 0c07 b4bd 400a 6ebc 1c49 09bd
000000b0: 0240 ecbd e8b7 9cbd 3056 dabd bad4 ce3d
000000c0: d06d babd d0fe 4dbd b092 e4bc 5873 f23d
000000d0: e0da 243c 9014 9f3c 5031 fabc 508f 06bd
000000e0: a8d4 443d f25a e53d b0cb b33c fe35 e1bd
000000f0: 10de 8abd 9a18 f5bd 68a3 d2bc 6e06 aa3d
00000100: f418 e13d 36bd cebd 10d5 b53c d06f 793c
00000110: 8053 f3bb 14d9 c2bd 7cc6 2cbd 1050 6abc
00000120: 6a85 f53d daa3 88bd 962e a6bd 1062 373c
00000130: 48c0 e53c 28d2 16bd 3044 873c f25d a83d
00000140: 64d9 0d3d 88e5 97bd 6a65 c5bd d4be d9bd
00000150: a693 e2bd 90da e5bd 00b8 97b8 d0e9 1c3d
00000160: 907e 64bc f6c3 dcbd 6097 ca3d 3467 0b3d
00000170: 70d2 9b3c 8aad ce3d f0c1 8d3c 3af5 a73d
00000180: 505f 2d3c 6021 bfbb f2b5 a0bd 72a4 c1bd
00000190: f60a ea3d 54cb 3f3d 8085 98ba 60e1 a1bd
000001a0: b091 4f3d 28d2 853c 0096 6fbb 8076 443c
000001b0: 18dd 87bc 944b c53d ac62 98bd 6af3 b4bd
000001c0: 8459 803d 881b af3d 80bd ecbd cc73 9f3d
000001d0: a0b1 c3bd 1e72 db3d a4fd 67bd 9205 a43d
000001e0: 567e 893d 20e6 77bc 589d 70bd 0090 2438
000001f0: 74c5 b1bd 241e 6ebd 207e 47bc c4dd e63d
00000200: 6001 da3b 9466 17bd b092 553c 705f d73c
00000210: 729c f73d b825 e7bd 2860 bc3d d82d 663d
00000220: cc53 19bd 502d 26bc 78fa ff3d 48de b9bc
00000230: 9054 553c 3e6b a63d 1669 b5bd bad0 e3bd
00000240: 8c90 c83d 9093 5fbc 1eaa d23d 1459 66bd
00000250: 2834 03bd 5eee babd 2676 9dbd 4ede dbbd
00000260: 0e98 b0bd 5015 bebd cc4a c53d 38ca d8bc
00000270: 7caf e8bd 7621 803d 6427 2ebd 50ec 10bd
00000280: 3c80 9bbd 6082 12bc ece1 24bd 00ad 93ba
00000290: 4071 fbbb 6841 be3d dc69 de3d c09a 933c
000002a0: 6c26 c6bd 30b4 ecbc 68a9 f2bc 94b0 3f3d
000002b0: 6803 123d 82d7 c83d 3e00 c63d aaa9 d53d
000002c0: 0e1b eebd 2810 94bc b0a5 aa3c fc07 443d
000002d0: c88a cb3c c84d 8cbd 74fb abbd 7cb0 acbd
000002e0: 6849 333d acd0 893d 403c 5a3d b8e7 f5bc
000002f0: 70c1 acbd 4ef1 bdbd 38ce 3cbd 429a b4bd
00000300: c06c 2a3b e045 583d e878 7f3d a4c5 b2bd
00000310: c2b2 8fbd 4012 a8bb 7838 f6bc 629e e83d
00000320: 9871 b13d 92e8 8f3d f047 fabd 60a4 83bd
00000330: e6bf 8ebd 90bc c4bd dc35 7e3d c8e2 8a3d
00000340: 0080 3b3a 38a9 ca3c 7c06 e73d 5092 0bbc
00000350: 0050 dfbb 888d d2bd 5ac9 bcbd 6090 723c
00000360: 78c6 03bd 5aba b7bd 8e2f 9e3d b87c c6bc
00000370: 3c1e ccbd b83d 3bbd aae4 c73d 483e e43d
00000380: c4be b13d d24a d4bd d02c acbd 58bc 6bbd
00000390: 3c3e 673d 7ca1 46bd 70c1 1a3c 1018 693d
000003a0: f678 ea3d 305e 61bc 2853 d1bd bc6a 843d
000003b0: 20ab 81bd 0ed1 cd3d 66ae dc3d c431 87bd
000003c0: 0058 81bc ce38 b9bd e8bc a2bd 6637 c7bd
000003d0: 0460 e93d 30a7 07bd 6a4c fb3d 92f1 c2bd
000003e0: 70d5 f4bc 78df 1abd 501a 313c 903d 7d3c
000003f0: 9ab9 ea3d c818 fc3c 809f aabd d68b e43d

first_head.0.bias f4 [32]
-0.040118188 -0.0064658225 0.013215303 0.04293543 0.051298454 0.09276983 -0.0027821213 7.267296e-05
0.07654807 0.09533553 -0.07817091 0.024787962 -0.08971651 0.08760342 0.058903456 -0.09511687
-0.057341903 0.06334925 0.07625106 0.087716445 -0.0060711205 0.025241524 -0.026043117 -0.045593664
0.07579701 0.06588668 0.02987805 -0.000996843 -0.08296746 -0.041070342 -0.052360207 -0.008950099
00000000: f852 24bd 40df d3bb 0085 583c 10dd 2f3d
00000010: 541e 523d 1cfe bd3d 4054 36bb 0068 9838
00000020: 3cc5 9c3d 463f c33d 1218 a0bd 2010 cb3c
00000030: 4abd b7bd 6c69 b33d c044 713d a2cc c2bd
00000040: 58df 6abd 40bd 813d 8429 9c3d aea4 b33d
00000050: 40f0 c6bb 50c7 ce3c 6058 d5bc 6cc0 3abd
00000060: 763b 9b3d 98ef 863d d0c2 f43c 80a8 82ba
00000070: d8ea a9bd 6039 28bd a877 56bd 70a3 12bc

first_head.2.weight f4 [7, 32]
0.14892958 -0.10296441 -0.008937682 0.15432395 0.17281264 0.10185266 0.0022180832 0.107285015
-0.12830596 0.05459022 0.059751816 0.08548323 -0.15468162 -0.09923261 0.06723963 -0.17457111
0.08176261 -0.123552345 0.022055803 0.05267292 0.0770516 -0.077913485 0.023086905 -0.13106456
-0.030787028 -0.12136094 -0.16623148 0.014263799 0.075599514 0.09404525 0.12446932 0.05811258
-0.021786908 -0.030716792 0.16210477 -0.050461706 0.034878496 -0.12885758 0.10017277 -0.037444122
-0.13416153 -0.07708829 -0.14261861 -0.0648138 0.10276731 0.17336027 0.15061769 0.15149812
-0.15772663 -0.107889205 0.045365013 -0.07493952 0.14099985 0.15451723 -0.0815948 -0.07639123
-0.13547102 0.06252283 0.13642047 0.03193081 -0.0819831 0.14716117 0.060956016 -0.09883016
-0.014250355 -0.050644286 -0.060474258 -0.0015647439 0.1327294 0.09919623 -0.09368153 0.12107101
-0.15997498 -0.17096251 0.09256013 0.034086093 0.013830551 0.0528728 -0.095137745 0.06614101
-0.098619744 -0.082260676 -0.039931484 -0.067850165 -0.1546524 -0.011729215 -0.17290038 -0.15459237
0.03627122 0.034517214 0.01749208 0.026379965 -0.15874697 -0.06144292 0.15572146 0.15121292
0.034883723 -0.112888284 0.08567255 0.15731241 -0.056919277 0.1363327 -0.042971514 -0.17309514
0.1297157 0.1500182 0.04923464 0.1479998 -0.08069514 -0.010085867 -0.15014559 0.12962346
-0.14384158 0.1709529 -0.11734131 -0.079889305 0.019338133 -0.06918178 0.08995707 -0.103849225
0.11654143 -0.1469962 -0.07928543 0.02862576 -0.09785733 -0.13441552 -0.1265204 -0.0030670892
-0.09810699 0.020009764 0.08051129 -0.08448477 -0.06320708 -0.04674667 0.11021466 0.026863137
-0.16243224 0.08123975 -0.106781654 0.06267702 -0.08111319 -0.077138804 0.122076154 0.02305184
-0.16729082 -0.1333395 -0.04576452 0.111395024 0.022274124 0.07595119 0.01609371 0.027399287
0.13104963 0.1360208 -0.12940642 0.08380728 0.033844173 -0.003742661 -0.009156487 0.010358073
0.03239588 -0.028597143 0.06809177 -0.060701765 -0.13751471 0.015265651 -0.05201039 0.0072790976
0.11588651 -0.15529251 0.07400869 0.050608248 -0.04805375 -0.068382226 0.17497835 -0.14182344
-0.07039347 0.013299881 -0.17445691 -0.028674798 0.1660855 -0.15566568 0.024697104 -0.08286553
0.109348945 -0.008700078 0.054878652 0.1000877 -0.14927338 -0.17103614 0.10243359 0.13982461
0.15196428 -0.0846621 0.032411683 0.07084186 -0.014000719 0.107874036 0.049242627 0.009575574
-0.010893885 -0.024087682 -0.033344056 -0.15498853 0.093244 0.10530763 0.0765969 0.11194089
0.10896461 0.076292515 0.09104686 0.053173874 0.15878071 -0.030629715 0.13029435 -0.043726154
-0.103827536 0.08499032 0.10378244 0.054120176 0.040066984 0.16556613 0.17321227 0.05045142
00000000: ff80 183e 01df d2bd 5b6f 12bc 1907 1e3e
00000010: ccf5 303e 2198 d03d 435d 113b 3fb8 db3d
00000020: a362 03be ff99 5f3d 52be 743d d511 af3d
00000030: dc64 1ebe 773a cbbd eeb4 893d c5c2 32be
00000040: 2873 a73d 0309 fdbd 5fae b43c 8fbf 573d
00000050: 3bcd 9d3d 1b91 9fbd c020 bd3c ca35 06be
00000060: 1435 fcbc 168c f8bd 9638 2abe b6b2 693c
00000070: ebd3 9a3d cc9a c03d c5e9 fe3d 7507 6e3d
00000080: 757a b2bc c8a1 fbbc cbfe 253e efb0 4ebd
00000090: c1dc 0e3d 3ef3 03be 6227 cd3d 025f 19bd
000000a0: a461 09be 77e0 9dbd 9d0a 12be 19bd 84bd
000000b0: ab77 d23d 5b85 313e 863b 1a3e 5322 1b3e
000000c0: 1783 21be 04f5 dcbd aad0 393d e479 99bd
000000d0: 4462 103e c439 1e3e 2d1b a7bd 0173 9cbd
000000e0: eab8 0abe f80b 803d cfb1 0b3e e2c9 023d
000000f0: c1e6 a7bd 6bb1 163e 04ad 793d 7867 cabd
00000100: 527a 69bc 6270 4fbd dbb3 77bd 1818 cdba
00000110: 37ea 073e 6527 cb3d 1adc bfbd 14f4 f73d
00000120: 7bd0 23be cc10 2fbe 2a90 bd3d dc9d 0b3d
00000130: 8999 623c 2691 583d 94d7 c2bd f074 873d
00000140: 26f9 c9bd 4978 a8bd 328f 23bd 07f5 8abd
00000150: 335d 1ebe e52b 40bc cc0c 31be 764d 1ebe
00000160: 2191 143d ec61 0d3d 8d4b 8f3c cc1a d83c
00000170: 918e 22be 92ab 7bbd 7275 1f3e 8fd7 1a3e
00000180: 3ce2 0e3d f931 e7bd 1775 af3d 8116 213e
00000190: 3024 69bd cd9a 0b3e e602 30bd da3f 31be
000001a0: 31d4 043e 5f9e 193e 43aa 493d 428d 173e
000001b0: 7e43 a5bd 313f 25bc c4bf 19be 03bc 043e
000001c0: 354b 13be 470e 2f3e a450 f0bd 019d a3bd
000001d0: 016b 9e3c 2daf 8dbd 6a3b b83d e7ae d4bd
000001e0: 46ad ee3d 2c86 16be 6660 a2bd 9280 ea3c
000001f0: 6d69 c8bd 39a4 09be 908e 01be 3801 49bb
00000200: 51ec c8bd 84eb a33c 1ae3 a43d 5a06 adbd
00000210: b772 81bd 7079 3fbd 39b8 e13d 1510 dc3c
00000220: a354 26be 0761 a63d 57b0 dabd cf5c 803d
00000230: ac1e a6bd f3fa 9dbd 1003 fa3d 36d7 bc3c
00000240: 494e 2bbe 268a 08be 9473 3bbd 1323 e43d
00000250: 3978 b63c 4c8c 9b3d f5d6 833c 7874 e03c
00000260: e031 063e 0949 0b3e 1e83 04be 27a3 ab3d
00000270: 30a0 0a3d 6f47 75bb 1705 16bc e8b4 293c
00000280: 8bb1 043d 8e44 eabc b373 8b3d 6aa2 78bd
00000290: a8d0 0cbe c81c 7a3c d908 55bd 7f85 ee3b
000002a0: e855 ed3d 0005 1fbe de91 973d 984a 4f3d
000002b0: 02d4 44bd fb0b 8cbd 862d 333e 2a3a 11be
000002c0: 742a 90bd bee7 593c d5a4 32be 69e7 eabc
000002d0: 5112 2a3e d366 1fbe 9551 ca3c 67b5 a9bd
000002e0: 57f2 df3d c68a 0ebc 70c8 603d c8fa cc3d
000002f0: 1fdb 18be 1924 2fbe b4c8 d13d 2f2e 0f3e
00000300: 869c 1b3e 5363 adbd 1dc2 043d 8915 913d
00000310: 4663 65bc 10ed dc3d a3b2 493d dee2 1c3c
00000320: 447c 32bc 8853 c5bc c793 08bd 50b5 1ebe
00000330: b6f6 be3d 87ab d73d d6de 9c3d 4441 e53d
00000340: d628 df3d 403f 9c3d c776 ba3d d9cc 593d
00000350: 6997 223e 2beb fabc e26b 053e 321a 33bd
00000360: 88a3 d4bd 680f ae3d e38b d43d 1ead 5d3d
00000370: 471d 243d 2b8a 293e 8f5e 313e 26a6 4e3d

first_head.2.bias f4 [7]
-0.012412331 0.1734244 0.06575014 0.15881373 -0.038005225 -0.05466781 -0.11420289
00000000: 175d 4bbc 2a96 313e 02a8 863d 11a0 223e
00000010: 5eab 1bbd 5beb 5fbd 34e3 e9bd

second_head.0.weight f4 [16, 64]
-0.07148017 0.10950485 -0.10835485 0.09358609 -0.03026867 -0.04985799 -0.010012642 -0.08886613
0.11779414 0.063134044 0.08295743 -0.09663753 0.056476027 -0.010893717 -0.108851746 0.043181717
0.010561898 -0.080582365 0.0018495172 -0.022971988 -0.03754121 0.03420961 0.0999001 0.07178733
0.061836824 -0.055496648 -0.07741901 0.079995364 -0.104386404 0.07992947 0.0017522126 0.11705379
-0.10589655 -0.008418947 0.05041802 0.026742622 0.106015116 -0.065708086 -0.09461136 -0.00825645
0.05857411 0.09638201 0.0425677 -0.08550559 0.11110413 0.073763475 -0.029211804 0.046275005
0.080075234 -0.08131717 0.024719223 -0.09629722 0.006958768 0.08731304 0.02245669 0.035583586
-0.019300938 -0.0030483305 0.09694019 0.056068704 0.09094551 0.07374148 -0.028445333 -0.092122704
-0.08295886 -0.070044965 0.06764451 -0.11595258 -0.078126684 0.005008772 -0.08877501 0.08241281
-0.038445935 0.022970617 -0.009196833 -0.01934971 0.051139057 0.07561746 0.041213468 -0.05348365
-0.113430664 0.08185707 0.0058906674 -0.017180905 0.09140551 0.11354938 0.010463595 -0.08634612
0.119164884 0.053524002 -0.09624046 0.090290785 0.12219483 -0.12370737 0.09066439 0.08274269
-0.11755353 0.03508985 0.04077725 -0.10340364 -0.07793826 0.024398074 0.09869507 -0.004371822
-0.013516903 -0.01065442 -0.0077507645 0.084314704 0.08533831 0.029427484 0.021170825 -0.11580506
0.04815656 -0.04111685 0.01839526 -0.09250602 -0.057290003 0.06510213 -0.0031232238 -0.07126509
-0.09716363 0.046130985 0.11408073 0.066663235 -0.11885424 -0.07001801 -0.0019211173 -0.02338764
0.04158725 0.03596148 -0.048920944 0.029547036 -0.0792612 0.1055557 0.04913655 -0.104926914
0.06542684 -0.0270589 0.052761182 0.024770916 0.003883317 0.003374651 -0.0014899671 -0.06799747
-0.0870025 -0.113845736 -0.09901203 0.090691596 -0.03575687 0.07253648 -0.0628811 -0.073782355
-0.120201305 0.049749434 -0.003523022 0.10826285 0.110244736 0.087851375 0.10221 0.07644348
0.05268942 3.376603e-05 -0.013815999 0.098827556 -0.09699471 0.0020787716 0.07415636 0.040515497
-0.027273491 -0.041124657 0.10774906 -0.076667786 0.03300512 -0.10310118 -0.037935495 -0.12244879
0.0016581714 0.059228837 0.06936142 -0.013577998 -0.07007113 -0.045619965 0.011771783 0.001591891
0.033429086 -0.092687726 -0.035554484 0.10701382 -0.023153275 -0.07939842 0.10176849 -0.0947579
0.08641724 0.11018397 -0.083812624 -0.09594616 -0.037966326 0.035575584 0.0013155639 -0.0066405684
-0.11944239 0.0127248615 -0.06980839 -0.019980147 0.07317498 -0.098675355 -0.041378647 -0.069999754
-0.06104341 -0.098829076 -0.09582873 0.103392035 -0.031397507 -0.10971998 0.07767373 0.074801624
0.107792586 0.074042216 0.046775833 -0.08702752 -0.10850839 -0.04309988 -0.11503765 -0.039040685
0.011291161 0.123714834 0.094182774 0.09108646 -0.08522762 0.083111614 -0.050447285 -0.030729905
-0.09725304 0.057871014 0.03366381 -0.07727268 0.12197311 -0.038878843 -0.121969655 -0.07822271
-0.07597788 0.062723875 -0.004139155 -0.05202955 -0.035829514 0.11628428 0.0749457 -0.03172247
-0.1210807 -0.089970365 0.047323927 0.08427368 0.10453233 -0.0126618 0.028256506 0.012208924
00000000: 3264 92bd 1444 e03d 26e9 ddbd 10aa bf3d
00000010: 00f6 f7bc e437 4cbd 100c 24bc 72ff b5bd
00000020: 0e3e f13d 6c4c 813d 96e5 a93d e6e9 c5bd
00000030: 6853 673d 907b 32bc aaed debd 50df 303d
00000040: d00b 2d3c 5e08 a5bd 806b f23a c02f bcbc
00000050: d0c4 19bd 601f 0c3d 6c98 cc3d 3c05 933d
00000060: 9c48 7d3d 7450 63bd dc8d 9ebd 9cd4 a33d
00000070: 8ac8 d5bd 10b2 a33d 80aa e53a e6b9 ef3d
00000080: 4ae0 d8bd a0ef 09bc 2083 4e3d 5813 db3c
00000090: 741e d93d f691 86bd 9ac3 c1bd 1046 07bc
000000a0: 68eb 6f3d ee63 c53d 785b 2e3d 8e1d afbd
000000b0: 908a e33d 4e11 973d 984d efbc dc8a 3d3d
000000c0: 7cfe a33d 9e89 a6bd f87f ca3c 7a37 c5bd
000000d0: 6006 e43b 2ed1 b23d 18f7 b73c 18c0 113d
000000e0: 001d 9ebc 80c6 47bb 9488 c63d 4ca8 653d
000000f0: a441 ba3d c605 973d 3006 e9bc d4aa bcbd
00000100: 56e6 a9bd bc73 8fbd 3489 8a3d 8c78 edbd
00000110: e200 a0bd a020 a43b accf b5bd 0cc8 a83d
00000120: 7c79 1dbd e02c bc3c 50ae 16bc 4883 9ebc
00000130: 3077 513d 54dd 9a3d 74cf 283d ac11 5bbd
00000140: 564e e8bd aea4 a73d 8006 c13b f8be 8cbc
00000150: d032 bb3d 948c e83d 806f 2b3c 3cd6 b0bd
00000160: b80c f43d fc3b 5b3d b819 c5bd 60ea b83d
00000170: 4841 fa3d 4a5a fdbd 40ae b93d 0075 a93d
00000180: e8bf f0bd 60ba 0f3d 0c06 273d 4ac5 d3bd
00000190: 189e 9fbd 78de c73c a420 ca3d 8041 8fbb
000001a0: 0076 5dbc e08f 2ebc 20fa fdbb 30ad ac3d
000001b0: dac5 ae3d e811 f13c 706e ad3c 342b edbd
000001c0: d03f 453d 246a 28bd a8b1 963c cc73 bdbd
000001d0: eca8 6abd 4454 853d 00af 4cbb 6ef3 91bd
000001e0: bafd c6bd d8f3 3c3d 28a3 e93d bc86 883d
000001f0: da69 f3bd 9a65 8fbd 00ce fbba 7097 bfbc
00000200: 6457 2a3d 584c 133d 5461 48bd a00c f23c
00000210: b253 a2bd 962d d83d 6843 493d ece3 d6bd
00000220: 82fe 853d a0aa ddbc 1c1c 583d 60ec ca3c
00000230: 407f 7e3b 4029 5d3b 004b c3ba 4242 8bbd
00000240: 5e2e b2bd f427 e9bd d2c6 cabd 84bc b93d
00000250: cc75 12bd 028e 943d cec7 80bd 341b 97bd
00000260: 1a2c f6bd 10c6 4b3d 80e2 66bb eab8 dd3d
00000270: fec7 e13d 6ceb b33d 7a53 d13d 668e 9c3d
00000280: dcd0 573d 00a0 0d38 805c 62bc 1a66 ca3d
00000290: 2aa5 c6bd 003c 083b 4adf 973d 94f3 253d
000002a0: a86c dfbc 5472 28bd 8aab dc3d 0004 9dbd
000002b0: 6030 073d b626 d3bd 4062 1bbd 6ec6 fabd
000002c0: 0057 d93a f099 723d 5c0d 8e3d 4076 5ebc
000002d0: 7481 8fbd 00dc 3abd 70de 403c 00a7 d03a
000002e0: f0ec 083d 10d3 bdbd 94a1 11bd 102a db3d
000002f0: f0ab bdbc a49b a2bd 006c d03d 6e10 c2bd
00000300: 86fb b03d 22a8 e13d f4a5 abbd 6c7f c4bd
00000310: 9482 1bbd b4b7 113d 006f ac3a 2099 d9bb
00000320: 369e f4bd f07b 503c b4f7 8ebd 68ad a3bc
00000330: c4dc 953d 4e16 cabd a87c 29bd 085c 8fbd
00000340: a808 7abd e666 cabd da41 c4bd 34bf d33d
00000350: ac9a 00bd deb4 e0bd 6813 9f3d 9831 993d
00000360: 5cc2 dc3d 72a3 973d 0498 3f3d 7c3b b2bd
00000370: a639 debd 8089 30bd dc98 ebbd 20e9 1fbd
00000380: 90fe 383c 345e fd3d e6e2 c03d 8a8b ba3d
00000390: d28b aebd 6c36 aa3d d0a1 4ebd 48bd fbbc
000003a0: 9a2c c7bd 280a 6d3d 10e3 093d 2441 9ebd
000003b0: 0acd f93d 6c3f 1fbd 3acb f9bd 3a33 a0bd
000003c0: 4a9a 9bbd 6075 803d c0a1 87bb f01c 55bd
000003d0: f8c1 12bd 7426 ee3d 227d 993d 6cef 01bd
000003e0: 28f9 f7bd 6242 b8bd bcd6 413d ae97 ac3d
000003f0: 0c15 d63d 7073 4fbc 307a e73c f007 483c

second_head.0.bias f4 [16]
0.044684693 0.08605267 0.09284149 0.0037128478 0.07913892 0.011225924 0.03958133 0.024735957
0.014318377 -0.101767 -0.07110079 -0.059587047 -0.08452152 -0.06344034 0.077095374 -0.07637432
00000000: 4c07 373d 623c b03d ae23 be3d 4053 733b
00000010: 9613 a23d f0ec 373c 0820 223d 10a3 ca3c
00000020: a097 6a3c 386b d0bd 4a9d 91bd 8c11 74bd
00000030: 9e19 adbd 02ed 81bd 2ee4 9d3d 246a 9cbd

second_head.2.weight f4 [1, 16]
-0.043119967 -0.087982714 0.19890451 0.19630355 -0.1665186 -0.05220136 0.23277667 -0.2191022
-0.09023148 -0.12088475 0.13471383 0.040890068 -0.15304142 -0.21210596 0.13740236 0.21771869
00000000: 909e 30bd 4830 b4bd a0ad 4b3e cc03 493e
00000010: da83 2abe 18d1 55bd 025d 6e3e 545c 60be
00000020: 48cb b8bd 6c92 f7bd 6cf2 093e 587c 273d
00000030: e4b6 1cbe 4e32 59be 34b3 0c3e a6f1 5e3e
