src/models/saved_models/supervised_cnet128.pt (torch, 814331 bytes, 13 tensors)

conv_block.0.weight f4 [128, 2, 4, 4]
00000000: cfd7 2e3d d640 d2bb e82d fe3c b221 2b3c
00000010: 5015 2a3d a2d4 9b3d c4b3 443d c975 e03d
00000020: dac7 2bbd 296f 55bd 5111 013d 4160 723e
00000030: c458 b5bd ead5 63bd e9f5 d4bd d456 1b3e
00000040: 5397 14bd c240 6b3c dfc0 80bd f37c 53be
00000050: 0c0e 04be 235b c9bd 23fd 47bd a404 bfbe
00000060: da40 6c3c 299a 803c 38b1 31bd a118 79be
00000070: 829d f93c bc54 cc3c 2105 943d 9dbe 62be
00000080: 2bf9 e53c e84e 5fbd 3147 8abd 2831 fe3b
00000090: 5e9a 0dbd 1bbf b1bc c6c4 09bd 18dc f7bd
000000a0: 66f6 e13c 9329 eebc 07d0 183c f981 bcbd
000000b0: 7bf2 adbd 0be0 193d dc91 c8bc 6a31 183e
000000c0: 5460 2ebd fd44 dabd 3dc5 17bc ff23 ecbd
000000d0: 012e 11bd b719 32bd 89f7 39bd b565 503e
000000e0: c18c 25bc 955d 02bd db37 56bd b98e ebbd
000000f0: 611d 233d af8c b6bd 3564 923a c362 53be
00000100: 89fc 403d 560e d03d 77f1 7cbd dbb7 f1bc
00000110: 1be1 733d 50ec f9bb 68db 09bd b46f c6bc
00000120: 9593 bd3d 2d6d 49bd ade1 89bd b0e7 91bb
00000130: a6a8 b03d 734a c53d d21e 90bc 88bb 9bbd
00000140: ae5d 0bbd bbd3 abbd d56a 41bd b49b 2cbc
00000150: 4e5e 70bd cba2 ce3b 1a88 7dbd 2926 c43b
00000160: 1591 553d 8f2b 173b b301 0e3d e8ba 8abd
00000170: 1ed4 543d 48ce 4a3d 7d9e f1bc addf a3bd
00000180: fdc2 a1bc 4e68 213d 0b49 05bd f3ee f43d
00000190: 3b96 02be 5936 66be 63ed 70be 17b6 2f3c
000001a0: ae6b 05bd f214 663d 79d8 9a3d 54c0 84bd
000001b0: 2079 953d a5e9 763d 5b3b e73d ca74 aabd
000001c0: 827f d13c 9606 1cbd 6dbe aa3c 8f77 c9bd
000001d0: 2017 d03d a344 003e 61dc d73d a479 663e
000001e0: 66a6 fe3b 9640 e9bc b6db fb3d 0c8e 04be
000001f0: d7ab 5abb 686d 3a3d f754 873d 4964 08be
00000200: 31f3 73bd 1c03 6ebd 7573 983d a049 8c3e
00000210: 6ea8 d2bc 75b0 cdbc 4000 eebd d8ff b7bd
00000220: fb26 d7bc fdef 373e 8b9f 763d 1569 1cbd
00000230: 4c60 893e 6fb6 8cbd 4cbf 8e3c 7ce9 98bd
00000240: 0e06 cf3b b6f6 063d 79d6 093d 62dd 62be
00000250: b0c6 8ebc 2c65 d5bb d635 59be de86 93bc
00000260: 3fe4 e73b 09dc 8abe 5002 c93d 0e50 34bc
00000270: 6f15 66be 1f1b e0ba 6e19 333d 7a9e 3ebd
00000280: a0bf 2cbe 00d6 54be 2476 24be 1bb6 49be
00000290: c21e ba3d a41b 333d 94a6 353e 7ffc 98bd
000002a0: bbfd bb3d 2e10 f43d 99d3 1f3d 4c6f bbbd
000002b0: 8486 c33d 2259 253c ce86 beba 3176 92bc
000002c0: a95f d63c a9d4 253e 21fc 293e 8a2a 10bc
000002d0: e193 96bd 5981 95bc cce1 abbd 30ca fb3c
000002e0: b3d4 57bd 3a71 eabd 8138 20bd c93b 2a3d
000002f0: ef89 09be 7bef d3bc e885 acbc d42c ac3d
00000300: 905f 8bbe c66a 10bd c1e2 1fbc 07be 03be
00000310: 95d0 7fbe 5d48 09bd d721 09be bfc0 743c
00000320: 629e 97be 84c9 d5bd 9a97 263c 4700 76bc
00000330: 5470 e7be 01d2 c9bd 630d a9bd f73b abbd
00000340: 4d98 963c a196 7c3b 68fb bcbb cbf7 3e3e
00000350: dc5d 8a3e 74d4 783b 6f99 023e 34f8 503c
00000360: c9fa 503e 4f66 cd3d 0573 2e3d a05f 8fba
00000370: 62dc 933e 6eba 223e 2ba8 103e 974f 003e
00000380: 9a92 4dbe 6f25 6e3a 2b9c 973c 5bb3 5c3c
00000390: 6d37 033d a4c1 a1bc 756f 7fbc 12ed 273d
000003a0: f119 813d b061 df3c 5bf6 de3d 18ee 0ebb
000003b0: 5c75 b63d 17be 5cbd ce8c 263d 5a78 7ebe
000003c0: f788 523e c70a 8bbc 5c7a 70bd f929 fabc
000003d0: 4d98 963d 509a cfbd cf51 cabb 118b 2cbd
000003e0: 8bd6 d23d 50b1 953d 99dc 65be 2a56 a0bc
000003f0: df78 873d 0d02 52bd 39e8 573d 1d79 673e
0.04268628 -0.0064164205 0.03102775 0.010445045 0.04152423 0.07608916 0.048023 0.10959966
-0.04193864 -0.052107964 0.031510655 0.2366953 -0.08854821 -0.055623926 -0.10398466 0.15169841
-0.036277127 0.014358701 -0.06286787 -0.20653133 -0.12895983 -0.09831836 -0.048825394 -0.37308228
0.014419759 0.01569851 -0.0433819 -0.24325801 0.030470613 0.024942748 0.07227541 -0.22143026
0.028072914 -0.05451861 -0.0675186 0.0077573247 -0.034571044 -0.021697572 -0.033634923 -0.121025264
0.027583312 -0.029072559 0.009326941 -0.09204478 -0.08493515 0.03756718 -0.024483614 0.148626
-0.042572334 -0.1065769 -0.009263334 -0.11530303 -0.035444263 -0.043481555 -0.045402084 0.20351298
-0.010104359 -0.031827528 -0.05229936 -0.115018316 0.03982294 -0.08913552 0.001116878 -0.20643143
0.047115836 0.10158984 -0.061753716 -0.029506614 0.05954085 -0.0076270476 -0.033656508 -0.024223186
0.09256665 -0.049176384 -0.06732497 -0.004452668 0.08625917 0.09633341 -0.017592821 -0.07604128
-0.034024887 -0.08389994 -0.047221024 -0.010535169 -0.058683686 0.0063060275 -0.061897375 0.0059859944
0.052140314 0.0023066734 0.03466959 -0.06773931 0.051960103 0.04951313 -0.029494518 -0.08001647
-0.019746298 0.039406113 -0.032540362 0.119596384 -0.12752621 -0.2248167 -0.23528056 0.010724566
-0.032573394 0.05617232 0.0756082 -0.06481996 0.072984934 0.060281415 0.11290618 -0.08323057
0.025573496 -0.03809222 0.020842755 -0.09837257 0.10160661 0.12526183 0.10540081 0.2250734
0.007771301 -0.02847318 0.12297766 -0.12944812 -0.0033366585 0.045514494 0.06608003 -0.13319506
-0.059558097 -0.058108434 0.07443897 0.2739992 -0.02571508 -0.025108555 -0.116211414 -0.08984345
-0.026263705 0.17962642 0.060210746 -0.03818615 0.2683128 -0.06870734 0.017425202 -0.074664086
0.0063178604 0.032950126 0.033651803 -0.22154763 -0.017428726 -0.006512305 -0.21211943 -0.018008646
0.0070767696 -0.27120999 0.09814894 -0.011005415 -0.22469114 -0.0017097926 0.043725424 -0.046537854
-0.16869974 -0.2078476 -0.16060692 -0.19698374 0.09087898 0.043727532 0.17739326 -0.07470035
0.091792546 0.119171485 0.039020155 -0.091520876 0.09547141 0.010092052 -0.0014536025 -0.017878624
0.026168661 0.16194405 0.16600086 -0.008799205 -0.073524244 -0.018250154 -0.08392677 0.030736059
-0.05269308 -0.114473775 -0.039116386 0.04156092 -0.13431524 -0.02587103 -0.021059945 0.08406988
-0.27221346 -0.035258077 -0.009758652 -0.12865458 -0.24981911 -0.033516277 -0.13391815 0.014938532
-0.29613024 -0.10438827 0.010167981 -0.015014715 -0.45202887 -0.09854508 -0.082545064 -0.08361047
0.01838317 0.003854193 -0.0057672746 0.18649213 0.27024734 0.0037968429 0.12753843 0.012754489
0.20408167 0.100292794 0.04259016 -0.0010938533 0.28879076 0.1589143 0.14126651 0.12530361
-0.20075455 0.00090845575 0.018507084 0.013470496 0.03203528 -0.019745655 -0.015590538 0.040997572
0.06303776 0.02726826 0.10886832 -0.0021809395 0.08909103 -0.05389222 0.040661626 -0.24850598
0.2056006 -0.016972912 -0.05871044 -0.030537592 0.07353268 -0.10136855 -0.006174303 -0.04212481
0.10294827 0.0730921 -0.22447433 -0.019572336 0.06614851 -0.051271487 0.0527117 0.22604795

conv_block.0.bias f4 [128]
00000000: 749c c2bd 8395 fdbd 2674 27be 2097 6abe
00000010: 421b e0be 9066 3bbe 04d9 a5be 3e6b 3cbe
00000020: 4b70 68be bc02 9fbe 5792 8fbe a568 9abe
00000030: a3a9 7f3c ad3c fcbd c04a 78be 53a0 55be
00000040: e1af 14bf 73c5 78be 3a2d 5cbe 28f5 17be
00000050: e2ea b2bd d191 e8be c375 03be b462 d3bd
00000060: a345 eabd 1594 bdbe 8607 24be ae7d f5bb
00000070: c7ce 17be fb75 c7be 898e 3cbc f9f8 29be
00000080: 71d6 3fbe 2ee5 edbd 96db 3ebe ff68 51be
00000090: ab07 9cbe c8cf 3dbe 9525 1ebd 03b8 ebbd
000000a0: f1f6 38bd 0d10 63be 07a5 3dbe 3af0 c6be
000000b0: 2252 3abe d9a0 afbc df93 33be 763c a5be
000000c0: 0c43 b7be cc3f adbe e44e 04be 47ed 24be
000000d0: 20d9 e3be dd51 13be 6359 05be 8880 f1bd
000000e0: 7932 c6bd 1358 35be a5ed 9dbe 7eae c5bd
000000f0: c074 37be 456f d8be 81dc ed3c 896d 1dbe
00000100: 6065 d0bd ef5b cfbd b349 6fbe 0002 7fbe
00000110: ff86 80be 996f 7abe dfad 29be 057a 71be
00000120: 4f53 74be 44bb 4abe cca6 9a3c e514 58be
00000130: a4fe 93be e84f e5be 2626 73be a9cb eebd
00000140: 9313 5fbe 30ed c4bd a34e 7bbe c8ce 38be
00000150: d866 54bd 19a8 13bd 7dc2 f4bc 9fea 0abe
00000160: 11f9 acbd 0ad4 81be 50e4 37be 08d6 c0be
00000170: 4235 0dbe ad84 92be 9ef7 5bbe 451a 2cbe
00000180: 0112 3dbe 6125 d2bc 17a5 cdbe 3df1 ffbd
00000190: de01 acbe d7d4 09be b949 62be ccce ebbd
000001a0: 1d02 3cbf 77bc 78be b2e3 93be 3d1e c2be
000001b0: 8ed7 0bbe 9699 5bbe 2199 24bf a365 47be
000001c0: 7262 f0bd 80cd 1ebe 8143 6bbe b384 92be
000001d0: ee5c 60be 8427 4cbe 9cb0 d9bd 6539 a0bc
000001e0: 5c3d 85bc bf6f 05be 4cc0 0bbe 1b88 28be
000001f0: 7748 75be 1c54 01be 69c0 05be b8ec 8fbe
-0.09502497 -0.12382033 -0.16352901 -0.22909212 -0.43770796 -0.18300843 -0.32392132 -0.18400285
-0.22699086 -0.31056774 -0.28041336 -0.30157962 0.015604409 -0.123162605 -0.24247265 -0.2086194
-0.5808087 -0.24294071 -0.21501628 -0.14839613 -0.087362066 -0.4542375 -0.12837891 -0.103215605
-0.114390634 -0.3702704 -0.16018495 -0.007491789 -0.14824973 -0.389572 -0.011508592 -0.16598882
-0.18734147 -0.11615978 -0.18638453 -0.20450209 -0.304746 -0.18536294 -0.03861006 -0.11509707
-0.045157377 -0.22174092 -0.18519984 -0.38855153 -0.18195394 -0.021439003 -0.17536877 -0.3227269
-0.3579334 -0.33837736 -0.1292072 -0.16106139 -0.4450159 -0.14386697 -0.1302238 -0.117920935
-0.09677596 -0.17709379 -0.3084537 -0.09652422 -0.1791563 -0.42272392 0.029035809 -0.15373816
-0.10175586 -0.10124957 -0.23367958 -0.24903107 -0.25102994 -0.24456634 -0.16570233 -0.23581703
-0.23859905 -0.19797999 0.018878363 -0.2110172 -0.28905213 -0.44787526 -0.23745021 -0.11659939
-0.2178481 -0.096155524 -0.24541716 -0.18047631 -0.051855892 -0.036048982 -0.029877895 -0.13566063
-0.08445943 -0.25357085 -0.17958188 -0.37663293 -0.13789847 -0.2861685 -0.21481177 -0.16806896
-0.18463899 -0.02565259 -0.40165016 -0.124971844 -0.33595175 -0.13460098 -0.22098435 -0.11514053
-0.73440725 -0.24290644 -0.28884655 -0.37913695 -0.13656446 -0.21445307 -0.64296156 -0.19472365
-0.11737527 -0.1550808 -0.2297497 -0.28616866 -0.2191045 -0.19936949 -0.10629389 -0.019558618
-0.01626461 -0.13030909 -0.13647574 -0.1645817 -0.23953424 -0.12629741 -0.1306168 -0.2811029

conv_block.2.weight f4 [128, 128, 2, 2]
00000000: a869 533d 2d57 28b9 7ef3 0b3d 8f9b a9bb
00000010: a988 9bbc 3df0 aebb c9e1 15bc 8d09 cc38
00000020: 62d2 90bb b046 2b3c cee2 27bb 1693 d2bb
00000030: 97a0 c2bb 0fd5 9c3c 1972 1b3c 0c85 3a3c
00000040: c898 033c 351b 51bb 9757 b9bb 6c14 aabc
00000050: 0d9d 8e3c b482 123c 8f38 17bd b731 cebb
00000060: 073a 053c 7f8a 5f3b fcd2 3bbb e772 a03b
00000070: aeac 9bbb 9ce4 3ebc 29f1 8a3b ae0e 2e3c
00000080: 92f9 623b 0b2b 87bc c0ac 143c baf4 99bc
00000090: d6af 173d d0fb a33c 6a0f f5ba 5f2e df3c
000000a0: 0013 0d3c 2ca7 66bc 7f77 033b 24c6 243b
000000b0: 6f7d ef3c 0d8f 253a b018 91bc 2f02 dc3a
000000c0: 37c9 cdbc fd72 c4bb f659 aaba d0d3 31bc
000000d0: 2f0b c7bb 1154 8f3c 4dd2 db3a 1f76 91bc
000000e0: 0086 9fba f02e e8bb c0e2 493b aded f23b
000000f0: 7f95 b53c 1ecd 51bb 9b5e 293c 336f bb3b
00000100: e25f 073b bc45 66bc 5ba7 453b b100 1a39
00000110: 7bd9 46bc 647b 863c 7c20 463c e971 acbb
00000120: 271e ab3b 6604 9e3c c265 78bc e6fa 943b
00000130: aa7e d73b 533f c3bc c269 0bbd 1884 d23a
00000140: 119a 70bb aecd 493c 3f29 87bc f3c9 e43a
00000150: 4cb8 37bb bb35 ceba e3e5 cbbb fa0f 58bc
00000160: df5d 61bb 7276 d6bb 8056 373c 7ca1 80b9
00000170: 6881 58bb d9f7 d53a 0e9c f73b 6444 c8bb
00000180: b6f4 52bc 2f70 f7bb 08ac 53bc 200b 79bb
00000190: bf4b 04bb 869d 8f3b 2d35 deba dcdb e73b
000001a0: 9d58 04bc 4ee7 c8b8 cd0e cebb 43ea 933c
000001b0: d147 173c eb75 8cbc c3b0 63bb a4f2 a3bc
000001c0: 3de9 8e3c b189 133d 211d 9fbc 6076 32bc
000001d0: 17cd a0ba ebee afbc c998 993c c433 0e3c
000001e0: 5a40 b7bb 69fc 8abc fa2d a3bb b1b6 fabb
000001f0: 07cd 5c3c 2f51 eabb 94a7 413c 8466 7a3a
00000200: 4e10 a33b 1a41 f23c 09cd 06bb 6855 813c
00000210: 6f86 80bb 1c20 b73b 6b33 733b d9ff 90bb
00000220: f67a 45bb 2276 273b 5cbd 96ba 9d34 b8ba
00000230: e6ce 983c a682 4fbc 51bd cebb 12ec 423c
00000240: 746a 27bc f88e 6f3a 14f0 1e3b d93c 65bc
00000250: b709 26bc c72a 38bc 464c 0e3c c61c ddb9
00000260: 1564 ecbb fb66 babc 80f1 493b 7d45 33bc
00000270: 9094 133a b1d9 a0bc 7807 82bc 1180 953b
00000280: 7254 a4bb f5c9 1bba 9ba8 adbc ba24 91bb
00000290: ad2a eabc 8234 e63c 8453 0cbc 873f 72bb
000002a0: 7b6f 1fbb ec0e 553c 583e f4ba 0dc3 69bc
000002b0: 6698 d7bc d73a 0bbc 1de0 d5bb aa91 de3b
000002c0: 9958 073d 3489 0bbb df57 28bc e33c 13bc
000002d0: 2fb0 ad3b de5e 033b b1b7 55bb 9732 0fbc
000002e0: c4a4 453d a1c1 4bbc d1ec 473c d781 11bc
000002f0: a07e 59bc 620d b83c b881 b83a 7c3f 22bb
00000300: 1a69 8b3a c552 813b d4b1 0a3c 2da4 3c3c
00000310: 042e c9bb 36e2 813c 5703 ffbb b32e fc3b
00000320: bbcb d2b8 d969 953b 6af4 b5bb 8e51 59ba
00000330: 32c5 bdbb eb83 8abc 9532 433a 0ed1 84ba
00000340: 6c0f 9fbb 6611 7abc 4e0f febb 672b 38bc
00000350: 1748 81bb c136 19ba 57f3 48bb 6a25 21bc
00000360: fe46 053b fd11 d7b9 b0d6 1f3c a4a9 1d3c
00000370: 0b6a 89ba dd65 1b3d 07e3 9cbb 62fe db3c
00000380: 7f67 503b c027 233d f300 20bb ebd6 e73b
00000390: d528 caba 665e 08bc c3c6 fbbb 9471 a33b
000003a0: 0625 8ebc 4958 17b9 cca1 323c 9baf 62bc
000003b0: 463a f7bc 78f1 e03a b739 2fbc 88b4 85bb
000003c0: a476 1e3b 17a8 77bb 879a 0d3c 27fe 49bc
000003d0: 005a 39ba 3567 4bbc 2d2b 3bbb 335e b83a
000003e0: 862f dabc 896a 88bc 520b eabb eabd 1abb
000003f0: 7c96 e0bb 4da0 c7bb e819 0c3c 4d7e 223c
0.051614434 -0.00016054204 0.03416776 -0.0051760147 -0.018986063 -0.005338697 -0.00914807 9.729257e-05
-0.004419611 0.010453865 -0.0025617364 -0.0064262254 -0.005939554 0.019144563 0.009487652 0.01138426
0.008032031 -0.0031907086 -0.0056561935 -0.020761691 0.017408872 0.008942295 -0.036919173 -0.0062925476
0.008131511 0.003410965 -0.0028659692 0.00489651 -0.0047508096 -0.011651184 0.0042401743 0.010623617
0.0034633619 -0.016500017 0.00907439 -0.018793453 0.037032925 0.020017534 -0.001869661 0.027243791
0.008610487 -0.014077943 0.002006024 0.0025142515 0.029234616 0.0006315567 -0.017711967 0.0016785319
-0.02512036 -0.005995153 -0.0012996781 -0.010853723 -0.0060743312 0.01749614 0.0016771049 -0.01775652
-0.0012170672 -0.0070856735 0.003080532 0.007413587 0.022166012 -0.0032013129 0.010337497 0.005720043
0.0020656516 -0.014054712 0.0030159566 0.00014686842 -0.012136812 0.01641626 0.012092706 -0.0052626026
0.0052221003 0.019289207 -0.01516098 0.004546511 0.006576379 -0.023833906 -0.034036405 0.0016061096
-0.0036712924 0.012317104 -0.01649916 0.0017455205 -0.0028033433 -0.0015732566 -0.006222473 -0.013187403
-0.0034388227 -0.0065448815 0.011190057 -0.00024534378 -0.0033036117 0.0016324475 0.007556445 -0.0061116684
-0.012875726 -0.007551215 -0.012919433 -0.0038001016 -0.002018675 0.004382792 -0.0016953103 0.00707577
-0.008077768 -9.579827e-05 -0.0062883855 0.01805604 0.009233431 -0.017146071 -0.003474281 -0.020013161
0.017445201 0.036019985 -0.01942307 -0.010892481 -0.0012268153 -0.02147623 0.018749611 0.008679334
-0.005592388 -0.016966062 -0.004979846 -0.007651173 0.013476617 -0.007150791 0.011819739 0.0009552019
0.004976309 0.029572058 -0.0020568988 0.015787795 -0.0039222757 0.0055885445 0.0037109505 -0.0044250307
-0.0030133105 0.002555259 -0.0011500525 -0.0014053766 0.018653344 -0.012665426 -0.0063091894 0.011897104
-0.0102182515 0.00091384305 0.0024251984 -0.013991558 -0.010134152 -0.011240668 0.008685177 -0.00042173843
-0.007214079 -0.022754183 0.0030814111 -0.01094186 0.00056297425 -0.019635053 -0.015872702 0.004562386
-0.0050149495 -0.00059428747 -0.021198561 -0.004429427 -0.028584803 0.02810121 -0.008564834 -0.0036964135
-0.0024327922 0.013004046 -0.0018634303 -0.014267695 -0.026317786 -0.008497915 -0.0065269605 0.006792267
0.033043478 -0.0021291496 -0.010274856 -0.0089866845 0.0053005437 0.002004556 -0.003261071 -0.008740089
0.048252836 -0.012436301 0.0122024575 -0.008881054 -0.013274819 0.022467319 0.0014076745 -0.0024757078
0.0010636181 0.0039466345 0.008465249 0.011513752 -0.0061395187 0.015854936 -0.0077823806 0.0076959967
-0.00010051528 0.004559737 -0.005552818 -0.00082900457 -0.00579133 -0.016908607 0.0007446197 -0.0010133104
-0.0048541334 -0.015262937 -0.0077532893 -0.011240817 -0.0039453614 -0.0005844646 -0.003066262 -0.00983558
0.0020336504 -0.00041021398 0.009755775 0.009622965 -0.0010483874 0.03793894 -0.004787806 0.026854698
0.003179997 0.03983283 -0.0024414628 0.0070751808 -0.0015423546 -0.008323288 -0.0076836064 0.004987905
-0.017351639 -0.00014433371 0.010902833 -0.013835813 -0.030179154 0.0017161807 -0.010694913 -0.004080359
0.0024179602 -0.0037789398 0.008642799 -0.012328661 -0.0007070601 -0.012414743 -0.002855967 0.001406616
-0.026633989 -0.016652362 -0.007142463 -0.0023611733 -0.0068538766 -0.0060921074 0.008551098 0.009917808

conv_block.2.bias f4 [128]
00000000: 0cbf 22bd 0c1d 14bc 6147 f3bd 5845 bfbb
00000010: be6c 45bb 73db 1abe e81b adbb 585a 9cb9
00000020: 8880 39bc ceae b5bc 60e6 9bbd 5034 52bc
00000030: f5a0 bf3b 0108 7fbc 7188 54bc e2e1 bfbd
00000040: ed46 2cbd 1383 e0bd 8ea5 cebd f36e cfab
00000050: b9ba a7b7 bb77 d2bd eee8 3bb7 3f51 83bd
00000060: 68e2 c3bd 57ca 18bd a749 babd a0d9 9d3c
00000070: 8fbf cdbd 630b c7bd e919 498d afc0 e4bd
00000080: 8907 28be 0e22 cfbc 3ad5 c5bd 955a d0bd
00000090: 8a72 eabc 4887 bda0 c263 ecbd 5366 6fbd
000000a0: a933 f7bc 5f95 2fbd d47d 253e 579d cebd
000000b0: 9763 a9bd 0c49 5fbc eeaa b9bb 82da 73bd
000000c0: 5614 23b5 f00e 89bd c0ec 30be 529e 7ebb
000000d0: 366d c6bd aa96 53bd 96be 0e3e 6e03 163d
000000e0: b959 a3bd 6278 adb8 6ef7 193d 658a f3bd
000000f0: 15e1 72bd a9c5 00be 360b aebd e478 37be
00000100: ad0f 92bc 56f4 90bc bc5f f4bd be38 54be
00000110: 6515 18be 7703 89bd bc02 89b9 b359 d4ae
00000120: f86d 89bd bfd0 acbd dfe6 9bbd eea5 a3bc
00000130: 3d6b e8bd 5f05 b7bd 1f91 89bc aabc 54ba
00000140: d026 b9bc 1747 adb0 aa63 b6b6 7637 aaba
00000150: 09ae 06be 015f cc91 8ed0 88a7 bfa0 c7bd
00000160: fce7 99bb 4c67 0d3b 95c0 b2bd c2fd 0bbb
00000170: f2e5 8cbd 7d33 efbc 917d 83bd 0ea6 24be
00000180: c28d c5bd 4818 7dbc 9786 b9bd 677b ceb6
00000190: abc8 f6bd 33d5 e3bd c48f 69bd c149 93ba
000001a0: 1d1e 41bd 4f80 19bd f903 eb9f 2a60 6f38
000001b0: ce9f a295 bf70 7a3d 9713 3eb7 f7f6 863d
000001c0: 528b 9fbd b503 f8bd 2f60 41b8 c0d3 00bc
000001d0: d0cf 5ebd c085 c8bd 8563 033c b539 00be
000001e0: 9e95 b3bd 96c6 18a5 cf4b 4dbe e0bf f2bb
000001f0: 2ef3 d6b8 9a3e 8dbc c81b e6bc 94d4 31bd
-0.039732978 -0.009040128 -0.11878849 -0.005837124 -0.003012463 -0.15122776 -0.0052828677 -0.0002982195
-0.011322148 -0.02217808 -0.076123 -0.012829855 0.005848045 -0.015565873 -0.012971983 -0.093692556
-0.042059828 -0.109625004 -0.10090171 -1.4739029e-12 -1.99949e-05 -0.10276743 -1.1200302e-05 -0.06411981
-0.09564668 -0.03730234 -0.09096079 0.01926881 -0.100463025 -0.09718969 -6.1969095e-31 -0.11169564
-0.16409124 -0.025284793 -0.0965981 -0.10173527 -0.02861907 -3.2107367e-19 -0.11542465 -0.058447193
-0.030176 -0.04286706 0.16161281 -0.10088604 -0.082709484 -0.013628256 -0.0056661284 -0.059534557
-6.0751825e-07 -0.06692302 -0.17277813 -0.003885169 -0.09688799 -0.051657356 0.1393989 0.036624365
-0.079760976 -8.271706e-05 0.037589483 -0.11891631 -0.059296686 -0.12575401 -0.08498232 -0.1791721
-0.01782974 -0.017694633 -0.119323224 -0.2072477 -0.14851911 -0.06690114 -0.00026132714 -9.6565776e-11
-0.06710428 -0.08438253 -0.076123945 -0.019976582 -0.11348579 -0.08936571 -0.016792832 -0.00081152713
-0.022601515 -1.2607612e-09 -5.435625e-06 -0.0012986499 -0.13152327 -3.2244076e-28 -3.79737e-15 -0.09747457
-0.004696844 0.0021576462 -0.08728138 -0.0021360968 -0.06879796 -0.029199356 -0.06420434 -0.1607897
-0.09646179 -0.015447684 -0.09058874 -6.1536443e-06 -0.12049993 -0.11124649 -0.05702187 -0.001123719
-0.04714786 -0.03747588 -9.9532944e-20 5.70716e-05 -6.5683406e-26 0.06114268 -1.1329444e-05 0.065900736
-0.07790245 -0.12110082 -4.6104364e-05 -0.007862985 -0.054397404 -0.09791136 0.008019333 -0.12522013
-0.087687716 -1.3251182e-16 -0.2004845 -0.007408127 -0.00010249611 -0.017241765 -0.028089419 -0.04341562

fc_block.0.weight f4 [128, 768]
00000000: e3a0 6abc d313 1eba 5468 a03c 8041 c8bb
00000010: a6bc f63b 372a 7a3b c4a2 b03c 5bab 9ebd
00000020: 093b 833d 68fe 693c 6d7b 93bd acc4 833d
00000030: aa55 0bbd c15f 12bc a8ef 7c3d c1a6 0ebd
00000040: 4575 893b 69b9 d43d 4a32 39b8 92d3 843b
00000050: d91a 023b 2ccc 9ebc eef9 293d 7c97 4ebd
00000060: c5e6 f53c 3b67 1e3c b88c 213b fe91 c33c
00000070: 9139 c93b b3b3 00bd 1664 8a3c 96f5 0dbc
00000080: b5ad 103d 1004 bbbc 002c 70bc f04b 193e
00000090: 1e2b bd36 585c eb35 0488 f035 a1e2 2337
000000a0: 8cd3 0d37 7acc 0d37 0fe4 3ba0 c5fd eb9d
000000b0: 6e0c 801f 1d65 de9e bb4c 9e9e 988e 699f
000000c0: 850c cd3b 387b c33b 1277 d13b 361c 0a3c
000000d0: 5c4a 403c ef37 203c 1183 3b3b 457c a43c
000000e0: cd16 113d 6866 b1bd a2f3 af3c 7b3f c23d
000000f0: f2c7 be3c 4489 49bc f4a0 5f3b d699 003d
00000100: dbf3 38bd d2ee a0bc c787 3a3c ccc3 8b3b
00000110: 2015 213c 97c1 e83c 5fe6 fd39 7602 8dbb
00000120: 9559 8a3b 8cef 6e3b 35bf 593b 24ba a73b
00000130: 1d35 8b3b 5bd8 9b3b 7c21 09ba 6833 14b9
00000140: 1bd4 cc38 eedd efba 66c0 77ba 305a 9038
00000150: f0b6 4fb9 714f c5ba 1fcf 4d3a 8ed0 4f3a
00000160: f781 71bc 3e8f 3ebb ee92 a1bb 9ba1 53bd
00000170: 46bd 283d 52bf 3d3c 427f 0cbd 480d c13c
00000180: ce86 faba 8dad 6fbb 0346 ca39 0563 43bb
00000190: 3c43 583b a354 f2bb 9905 32bd af35 f23b
000001a0: 30aa a53b 6db5 b3bc 95da 48bc 3cf0 c83b
000001b0: 2705 32bd 727c 55bc ca54 233d 47de e1bd
000001c0: 10c7 8ebc 7976 e83d b602 0080 5701 0000
000001d0: c409 0080 2108 0000 4505 0000 af07 0000
000001e0: fcfb 331c 9fe6 b01b e88c 8218 68ca 701e
000001f0: 116c 2d1e 6d18 af1f 7421 b1bb 5f89 9b3c
00000200: 9365 afbd 3144 b5ba 2eea 853d 04de 2ebe
00000210: 4a0a 0080 4105 0000 eb00 0080 24c2 6883
00000220: 440a 0080 4109 0080 0b1f 273a 8147 fdbc
00000230: 82fe a1bc cc5b e63c da51 7abd 4910 f1bb
00000240: 65ea 6dbc a8f1 e3b9 ce9d 653d d355 1fbd
00000250: 8489 053c e3ef a33d f7ed b53c 4878 85bb
00000260: 6037 78bc 58a9 c7bc a7cd 333c 9de6 bcbc
00000270: a59d 8ebd 69d9 1dbc dcdb 003d e1da 2ebd
00000280: dc58 913b 3f3d c83c 8b5e 323c ffa7 0d3d
00000290: 8352 bc3c f6c4 4b3c c65c 853d 972d 103d
000002a0: a427 08bd 966d 023d 5870 81bc 6113 b5bc
000002b0: b7b7 1a3d 34f8 01bd a0ec 1cba e0d2 b1bb
000002c0: 55de a8bd a355 b7bc d350 453c 550f 6bbd
000002d0: de03 0080 5b0c 0080 de01 0000 9805 0000
000002e0: be09 0000 0b0a 0000 33c9 013b ae67 2a3b
000002f0: f4e3 043c 3361 00bd 2e4e 0b3d 6bd0 59bd
00000300: 2327 b9bc cfee ebbc d900 62bc c14d 4cbd
00000310: aaba 38bd 6993 e43c af5f a9bc 9287 d4bc
00000320: a273 b6bb c860 3a3c 1501 80bc a73a 3a3c
00000330: fea4 db3b 0ebe dabb 7e4e 6b3c 59f0 ef3c
00000340: 9385 51bc c7d9 8abc d7d2 12bd 77ef 783c
00000350: dbb8 e9bd 030d 86bc 737b c63a f9a9 a0bd
00000360: 614a 78b5 9188 fc31 4788 c932 48c9 c134
00000370: 459e 4a35 c2ea 7d36 3c0a 0080 ce0a 0080
00000380: e800 0000 340b 0000 0a0b 0080 aa04 0080
00000390: dd16 4cbd 74f5 ecbc 589c 93ba 2f56 52bc
000003a0: 83f3 f8bc 3878 cab8 714d 99bc bd28 b53c
000003b0: 6ac3 0bbd c5bb c6bb 3065 70bc 30e6 59bd
000003c0: dd79 d4bb 7820 903c 1571 d2bc c6e3 acbb
000003d0: 7ab3 473d b685 c5bd 4e7d d73c ddd7 543c
000003e0: 72ea 773c 3363 c3bb 5ad1 a33c bd0e e23b
000003f0: d4a8 6a3d ac64 9dbc 242f 0c3b ac8d 1d3d
-0.014320585 -0.0006030176 0.019580998 -0.006111324 0.007529813 0.0038172135 0.021561988 -0.07747527
0.064077444 0.014281847 -0.07201276 0.064339966 -0.034017242 -0.008933962 0.06175199 -0.034826998
0.004194888 0.10386927 -4.4154272e-05 0.0040535415 0.0019852428 -0.019384466 0.041498117 -0.050437436
0.030017266 0.009668167 0.0024650525 0.023873325 0.0061408957 -0.031421375 0.016893428 -0.008664509
0.03532191 -0.022829086 -0.014658928 0.14970374 5.6376584e-06 1.753574e-06 1.7920979e-06 9.768323e-06
8.4535095e-06 8.451863e-06 -1.5914974e-19 -6.2466374e-21 5.423067e-20 -2.3546984e-20 -1.6760636e-20 -4.945762e-20
0.006257596 0.0059656166 0.006392368 0.008429578 0.011736479 0.009778961 0.0028612057 0.020078788
0.035422135 -0.086621106 0.021478478 0.09484764 0.0232887 -0.012300793 0.0034123035 0.03139671
-0.045154434 -0.019645128 0.011384911 0.004265284 0.009831697 0.028412623 0.0004842756 -0.004303272
0.004222105 0.00364587 0.003322554 0.0051186252 0.004248275 0.004756016 -0.0005231125 -0.0001413353
9.766986e-05 -0.0018300393 -0.0009450972 6.883254e-05 -0.00019809208 -0.0015053583 0.0007850993 0.00079275004
-0.014740459 -0.0029077078 -0.0049308455 -0.05166779 0.04119613 0.011581259 -0.03430105 0.023565903
-0.0019113661 -0.003657195 0.00038580605 -0.002981366 0.003299906 -0.0073953434 -0.04346237 0.0073916535
0.0050556883 -0.021937096 -0.012259145 0.006132154 -0.043461945 -0.013030158 0.039875783 -0.11028724
-0.017428905 0.11350722 -9.73e-43 4.8e-43 -3.503e-42 2.916e-42 1.89e-42 2.756e-42
5.9551814e-22 2.9265793e-22 3.374649e-24 1.2747351e-20 9.180891e-21 7.415579e-20 -0.0054055993 0.018986402
-0.085642956 -0.0013829527 0.06538807 -0.1707688 -3.691e-42 1.885e-42 -3.3e-43 -6.8401535e-37
-3.683e-42 -3.32e-42 0.000637517 -0.030917885 -0.01977468 0.028119944 -0.061113216 -0.0073566777
-0.014521216 -0.00043476862 0.056058697 -0.038900208 0.008150462 0.08004739 0.022208197 -0.0040731765
-0.015149921 -0.024372742 0.010974324 -0.023059184 -0.06963662 -0.009634354 0.031459674 -0.042689208
0.0044356417 0.024443267 0.010886799 0.03458404 0.022988563 0.012437096 0.06511836 0.035199728
-0.03324093 0.03184279 -0.01580064 -0.022103967 0.03777286 -0.031730846 -0.00059861876 -0.0054267496
-0.082455315 -0.022379702 0.012043196 -0.05738767 -1.387e-42 -4.432e-42 6.7e-43 2.007e-42
3.495e-42 3.603e-42 0.0019803762 0.002600174 0.008110989 -0.031342696 0.034010105 -0.05317728
-0.02260167 -0.028800396 -0.013794147 -0.04987884 -0.04509989 0.027902322 -0.020675508 -0.025943551
-0.0055679837 0.0113756135 -0.015625516 0.011366523 0.006703018 -0.0066754883 0.014361976 0.029289411
-0.012788194 -0.016949547 -0.035845604 0.015193812 -0.114122115 -0.016363626 0.0015142992 -0.0784492
-9.2495435e-07 7.349691e-09 2.3461451e-08 3.6095503e-07 7.5481177e-07 3.7836585e-06 -3.671e-42 -3.876e-42
3.25e-43 4.019e-42 -3.96e-42 -1.673e-42 -0.04982649 -0.028925635 -0.0011261804 -0.012837931
-0.030389553 -9.654503e-05 -0.018713685 0.022114152 -0.03412191 -0.0060648643 -0.0146725625 -0.05319804
-0.006484254 0.017593607 -0.025688687 -0.005276176 0.048755147 -0.09644644 0.026304867 0.012990919
0.01513158 -0.005962753 0.019997288 0.0068987296 0.057289913 -0.019213043 0.0021390403 0.038465187

fc_block.0.bias f4 [128]
00000000: 562c b13d a74b 32bb a4c3 e7b4 5e09 fc3d
00000010: 5c55 abba 77e1 bfbb 26b5 2abc b0d2 903c
00000020: 3eca 97ba bb91 e73c 06a4 48a5 de60 71bb
00000030: 99e4 ee3d 1d0d 093e 585d 823d 5135 093e
00000040: c3c6 73b4 58df d93d 660f 6c3d 0861 d7b9
00000050: 0be4 36ba 65a8 f1bb c0d0 f7b6 f980 2bbb
00000060: 036a 2a3e 20de 833d c1e5 f53d 5f39 133e
00000070: 2266 e03d fad8 c135 85dd 8dbc 13ce 87a6
00000080: 8d84 433d 4c01 07bc 6f82 3fbc 4a19 68b0
00000090: 8dd8 1bba 4c75 4b3e 742d 8db7 792c e43d
000000a0: 4bed d93d f74f b6b7 f3bc b13d 6fa4 773c
000000b0: 80fc 663d 51a6 4cbc 2be5 5b3b ee6d 533e
000000c0: 30a2 14b6 4e5e 9bb8 8b74 063e 71eb a23d
000000d0: 2721 173e 673a 1cbb 2228 e03d b436 c43d
000000e0: 6fd2 df3d 905c 3f3c 94dd b73d a457 5f3d
000000f0: d6a1 9dbc 8c88 3cbc 3564 84b7 155f 4dba
00000100: 103b d83d a232 2d35 deee 083e 920f cbb5
00000110: 8966 b93d d125 6b3d 7648 b3ba 2d67 debb
00000120: e589 cb3d c95c ecb4 55f3 cc3c ca24 263e
00000130: 4a9a 9f3d ebd9 203e 65af 0c3e 631e fa3d
00000140: fed8 66ba 1da9 e2ae 66c5 e73a 8440 a9b9
00000150: e904 e6b5 4fc4 7d3d ee6f 6abb 32c1 3aae
00000160: eb41 a43d e819 763a 2fb9 b03d 4fc6 ec3d
00000170: 8f65 8fbb e4c7 713d 457e 183e f638 0f96
00000180: 0f9d 31b7 a895 7bbb c09c c23a f0fa 9a3d
00000190: c3c5 9d3d 59b9 f23d 2898 093e 4c2e 1fb6
000001a0: 41bf af3d ad45 643d 8446 863d 5125 473d
000001b0: 47bb ffbb 100d 263e f1a8 92ba d56f 7f3d
000001c0: 56a6 013e e00d bf3d cd94 07bc 67c8 3bb0
000001d0: 6ef9 263d 409c 723d 4023 a03d 9fce 0d9f
000001e0: c7f7 413e 47e8 42b4 5936 2f3d cbcc bf36
000001f0: 47d0 73bb dcb3 e43d d6ee b9bb 290b c13d
0.086510345 -0.0027205737 -4.316945e-07 0.12306474 -0.0013071704 -0.005855735 -0.010419166 0.017678589
-0.0011580659 0.028267732 -1.7402808e-16 -0.003683142 0.11664695 0.13383909 0.0636546 0.13399245
-2.2703448e-07 0.106383026 0.057631873 -0.0004108029 -0.000697673 -0.0073748105 -7.3854753e-06 -0.0026169403
0.16642003 0.06438851 0.12006713 0.14377354 0.1095698 1.4442769e-06 -0.017317543 -9.423363e-16
0.047733832 -0.008240055 -0.011688813 -8.4437046e-10 -0.00059450493 0.19868964 -1.6829676e-05 0.11141295
0.10640963 -2.1733327e-05 0.08678617 0.015114888 0.056393147 -0.012490825 0.0033553343 0.20647404
-2.2148124e-06 -7.4085416e-05 0.13130395 0.07955063 0.1475874 -0.0023838521 0.10945155 0.09580746
0.10928809 0.011679783 0.089778095 0.05452694 -0.019242208 -0.011507165 -1.5782289e-05 -0.0007834298
0.1055814 6.45212e-07 0.1337237 -1.512921e-06 0.0905276 0.05740911 -0.0013678211 -0.006787202
0.09938411 -4.4025936e-07 0.025018374 0.16224971 0.077931 0.15708129 0.13738783 0.12212827
-0.0008806138 -1.0307331e-10 0.0017682731 -0.0003228226 -1.7137764e-06 0.061954793 -0.0035772282 -4.2463096e-11
0.08020385 0.00093880156 0.08629071 0.11561262 -0.0043761204 0.05902852 0.14891918 -1.1569422e-25
-1.058659e-05 -0.0038388763 0.001484774 0.07567394 0.07703736 0.118517585 0.13436949 -2.3719795e-06
0.08581401 0.05573051 0.065564185 0.048619572 -0.0078043076 0.1621592 -0.0011189264 0.06236251
0.12661108 0.09328818 -0.008275223 -6.831499e-10 0.04076522 0.059231043 0.078192234 -3.0028824e-20
0.18942176 -1.815216e-07 0.04277644 5.7160846e-06 -0.0037203 0.11167118 -0.0056742234 0.09425957

first_head.0.weight f4 [128, 128]
00000000: f355 c1bc 3767 2427 433f b4a6 a35e c23d
00000010: b4f4 bdad 42a7 b93a 6011 ae3a de95 25bd
00000020: a1bb 2bae 545c 853c 9a06 0000 c7b3 7835
00000030: 305b ed3d 7041 133c a319 163d 4901 413e
00000040: eb1e bc85 7814 d23c 75cd bcbc 717b 211a
00000050: 314a 18ab 704a c633 c402 0080 860a c8b4
00000060: f857 8a3d de39 1fbd 47e8 673d f2a3 a6bd
00000070: 6fb3 eabd 6f37 b433 c4c4 90ba 6400 0080
00000080: c331 cabd 5fce 223a 5531 f636 49e0 dfb1
00000090: c4be 0e27 b3b0 bc3d 9cee 6883 6f89 30bc
000000a0: 40dd 583c a7f3 33b7 2018 ddbd 3bcd 16bc
000000b0: 40aa 2b3d acc0 10bb da09 2a39 f846 343d
000000c0: 30cf 41a2 8fcb 142c 36b3 35bd 2784 ea3c
000000d0: 5b94 133c 2894 d7b1 7d3c a23d 11f8 b9bd
000000e0: 6a14 debb 98ca 6f3a 5e3c ff3d be42 3d3d
000000f0: 9760 debb 619c 20b8 060a 0080 104c dfaa
00000100: 90b8 4dbd 5775 8733 1661 7dbc cfd8 0833
00000110: 89d4 e93d 4a1f 53bd 1845 a42e 5147 0037
00000120: 0b38 f23d 16f1 62a4 2ab4 9e3b 7b35 673d
00000130: 1681 523d 6eae 213e 60b7 c93b 3074 283e
00000140: 5799 8f36 3c0a 0000 1dd0 1b38 7666 6e1c
00000150: f474 64a5 79d6 7e3d 9dd5 b82f fe0a 662c
00000160: 481e 9dbd 12e0 693a d5cf fc3d 7ec1 dcbd
00000170: 0320 d9a8 056e d83c b7be 303e 580b 0080
00000180: 1b1a 0080 df65 953b eba5 4a37 0e3b ddbc
00000190: 5b7e f83b e64f 803d 8724 573e 9a18 fb34
000001a0: 6119 3fbd f494 68bd 3223 8e3d edc4 82bd
000001b0: 2304 e3b4 b086 6c3c 6f7e 862a 436b 283d
000001c0: 7104 05bd 642e bebc 5fe0 183a de03 0000
000001d0: 9466 46be b26e a03c ba80 d43c 6f09 0080
000001e0: 4f5c cb3d 0312 a323 2687 00bd 31f4 4934
000001f0: 7096 0e2c d0e3 f8bc 7a35 b9b7 e7e9 1b3e
00000200: 1fe4 5ebb 0e2b aea7 d4d0 2826 ed75 4e3e
00000210: 12e0 4228 0ee8 24bb f483 27ba df3d bdbd
00000220: fd12 2c28 9065 2a3c 9f05 0080 adbc 0f37
00000230: 5c61 213d 5744 c0bd ef5a 293d 70c7 103e
00000240: c5f4 3885 2cb4 de3d 90dc 08bd 47d6 521d
00000250: 04e5 1fab 491d aa32 d94e 0a88 8f3f 3a2b
00000260: 3021 37bd 4445 2cbd 82f9 27bc 005c 0bbe
00000270: 245e 37be 830a 8cb3 e134 6dba bd09 0080
00000280: f908 f0bd ad60 82ba ed04 94b8 1b3b 1bb2
00000290: e1e9 5b27 fbe0 d33d b3e1 dc02 4334 14bd
000002a0: 838a 6f3d 6367 a6b6 0fd8 c1bd 7180 0dbd
000002b0: 25af 883d 33f7 42ba d1e6 d338 d950 163e
000002c0: e9b5 f823 3d63 8b2c 88fb 46bd 3f1f 743c
000002d0: cede e73a e0d4 7ea8 9d8d 023e b8a4 d9bd
000002e0: 923b 44bd 5b6c 653a 3e1b 243e 50f1 0ebe
000002f0: 0e7d 26bc 67a8 4237 ca09 0000 3b41 b3b2
00000300: d0b5 593c 9465 89b2 2403 72bd d4b4 17b3
00000310: dda8 813d f212 8ebd 3f4a 3036 bb49 2036
00000320: cc7d 4a3d ad78 a024 e20c 99bc 9d8f ca3d
00000330: 8f81 793d 977d cf3b 82bd 3b3d db71 df3d
00000340: 18ee fc38 d103 0080 4551 7e38 93f8 0d29
00000350: d4d7 12a5 c74f 1e3d a339 bfb3 6908 61ad
00000360: e08b 76bd 5caa ed39 fa1e f63d 45ff bebc
00000370: dde0 8d34 0c83 edbc abcc 613d ba00 0000
00000380: 7fb6 188c 213a ffba 1903 1738 f96f 0cbd
00000390: 893c a33d 162e 723e d4a5 183e 99a7 2736
000003a0: 68d4 1fbe da33 9cbd 278e 593d 310f 5abd
000003b0: 8f0e 2637 7a2a 64bd 8a05 9e26 1943 843c
000003c0: 8cbc e73d 58e6 51bc dd8d 8d3a 6109 0080
000003d0: 1c9e f8bd 1096 183d 72d1 bdbc 1007 0000
000003e0: 6144 0e3e 8ba0 f3a2 baef eebc aad1 f234
000003f0: edce 08b2 c2e3 c13b 05c5 cdb8 69f5 a13d
-0.023600554 2.2815525e-15 -1.2507156e-15 0.09490707 -2.1595482e-11 0.0014164227 0.0013280325 -0.040426128
-3.9047546e-11 0.016279377 2.368e-42 9.264881e-07 0.11589658 0.0089877695 0.036645543 0.18848146
-1.7690793e-35 0.025644526 -0.023047188 3.3393735e-23 -5.410421e-13 9.2336336e-08 -9.92e-43 -3.726056e-07
0.0675506 -0.038873546 0.056618 -0.08136739 -0.114600055 8.3919865e-08 -0.0011044969 -1.4e-43
-0.098727725 0.0006210561 7.3371143e-06 -6.5156525e-09 1.9809873e-15 0.0921339 -6.8452582e-37 -0.010774954
0.013236344 -1.0725961e-05 -0.10795617 -0.009204204 0.04191041 -0.0022087498 0.00016216133 0.044012994
-2.6266062e-18 2.1145063e-12 -0.044360362 0.028627468 0.009007539 -6.274167e-09 0.079216935 -0.09080518
-0.006777336 0.0009147315 0.12462686 0.04620623 -0.0067864168 -3.8292612e-05 -3.596e-42 -3.9665536e-13
-0.05022484 6.3077714e-08 -0.015465042 3.1862154e-08 0.11417491 -0.05154351 7.47013e-11 7.645999e-06
0.118270956 -4.9210146e-17 0.0048432546 0.056447487 0.051392637 0.15789196 0.006155893 0.16450572
4.279583e-06 3.671e-42 3.71487e-05 7.888002e-22 -1.9815473e-16 0.062216256 3.3621186e-10 3.2691068e-12
-0.07671791 0.00089216337 0.12344328 -0.10779093 -2.4105723e-14 0.026419649 0.17260252 -4.07e-42
-9.365e-42 0.004559263 1.2078769e-05 -0.027005699 0.007583422 0.062652394 0.21010028 4.6770293e-07
-0.046655063 -0.056782678 0.06940307 -0.06385217 -4.2285055e-07 0.014436409 2.3890913e-13 0.041117918
-0.03247494 -0.02321548 0.0005831774 1.387e-42 -0.19375068 0.019584034 0.025940288 -3.384e-42
0.09929716 1.7680124e-17 -0.031378888 1.880842e-07 2.0262923e-12 -0.030382067 -2.207862e-05 0.15225945
-0.0034010482 -4.834138e-15 5.8569724e-16 0.20162173 1.0817751e-14 -0.002516273 -0.0006390207 -0.092403166
9.5520354e-15 0.010400191 -2.016e-42 8.567394e-06 0.03939949 -0.09388035 0.041346487 0.1413858
-8.6965955e-36 0.10874209 -0.03341347 2.7904047e-21 -5.680597e-13 1.9803922e-08 -4.162055e-34 6.616868e-13
-0.044709384 -0.042058244 -0.010252358 -0.13609314 -0.17907006 -6.52117e-08 -0.0009048712 -3.493e-42
-0.117204614 -0.0009947025 -7.0581074e-05 -9.0356265e-09 3.0519141e-15 0.10345646 3.245564e-37 -0.036182653
0.058481704 -4.9592213e-06 -0.09465038 -0.03454632 0.06674031 -0.0007437348 0.00010104257 0.14679278
2.6965256e-17 3.9616353e-12 -0.048579723 0.014900028 0.0017690302 -1.4145992e-14 0.12749334 -0.10627121
-0.047908373 0.0008751803 0.16026017 -0.13959241 -0.010161651 1.160251e-05 3.512e-42 -2.0868006e-08
0.013287976 -1.5995091e-08 -0.059085026 -3.532189e-08 0.06331036 -0.06937207 2.626926e-06 2.3884775e-06
0.049436375 6.959337e-17 -0.0186829 0.09890673 0.060914572 0.00633211 0.045835026 0.10910388
0.00012060645 -1.369e-42 6.0634007e-05 3.1523893e-14 -1.2736607e-16 0.0386503 -8.904615e-08 -1.2791637e-11
-0.06019199 0.0004533109 0.12017627 -0.023315081 2.6426906e-07 -0.028993152 0.055126827 2.6e-43
-1.1764572e-31 -0.001947228 3.600409e-05 -0.034286473 0.079705305 0.23650393 0.14907008 2.4982494e-06
-0.1560837 -0.076270774 0.053114083 -0.053237144 9.897761e-06 -0.05570457 1.0964954e-15 0.016145276
0.11315259 -0.012811266 0.0010799725 -3.365e-42 -0.12139532 0.037252486 -0.02317116 2.534e-42
0.13893272 -6.6035263e-18 -0.029167045 4.5228563e-07 -7.963291e-09 0.0059170434 -9.8118595e-05 0.079081364

first_head.0.bias f4 [128]
00000000: 52de ea3d eaaf b33d 24e0 41b9 d7e0 cc3d
00000010: a1fd a63d c4ed 163e 5403 2538 97a9 043e
00000020: e6e2 e83d a623 8a3d 2761 d2b3 23c5 d7b4
00000030: 52dc 0fbc e08c a13d 630d 983d df98 a83d
00000040: 4b7a 95b9 022f f03d fa56 c8b4 9753 f23d
00000050: 590a e63d 0b79 033e 3033 b53d 0722 af3d
00000060: 670e a63d 4bc0 15b7 5e6b ed3d a236 f73d
00000070: e16f c63d 1015 6fb4 99a9 cb3d 84eb ca3d
00000080: 110d 9ab6 ed57 b03d 4e3f ee3d e7f4 be3d
00000090: 43be a73d 552a f9b5 1218 c43d d999 c43d
000000a0: efc4 df3d 3169 85b9 95c6 55bb fae6 a53d
000000b0: 482e c33d 709a bc3d 43ef a03d d5da 9b3d
000000c0: 5515 873d 1a2d eb3d 9fd8 9e3d 9498 e43d
000000d0: be8a 913d 6f04 b6b7 f129 26b6 21df 003e
000000e0: c8dd 8f3d 93ff 8b3d 9963 94b7 0d18 16b9
000000f0: bb30 a93d 9be5 e93d 03d3 933d b17c ad3d
00000100: 5dd2 4cb9 94ab fdb4 52c1 c4b8 e961 a73d
00000110: 17de ac3d 9ac0 a83d da43 c63d 3d3e 0ab4
00000120: 5932 063e eb5b db3d 869e b63d 3827 073e
00000130: 8e3a 7bb6 d27f be3d 5b01 e23d 4db9 76b8
00000140: 1440 d63d 7c83 9f3d 8e8b 12b7 d354 62b5
00000150: df7d c53d 5b3b ae3d 05bf d13d 1c28 92b4
00000160: 4dc9 a7b7 4dda f73d 1b40 de3d 8395 be3d
00000170: f0f5 b9b4 828e cc3d 4d59 28b8 f0d2 c23d
00000180: acc7 c93d 2f3a d13d a736 ac3d b58c c23d
00000190: e85e ae3d 5c77 d23d 51ef d2b7 cb6c deb5
000001a0: 6600 aa3d f3be 033e 680c 4bb7 3306 9a3d
000001b0: cf98 ed3d d264 d03d 61b7 84bb 53a1 4eb4
000001c0: 87f2 a53d ed7b 9a3d e9dc b63d 7990 af3d
000001d0: b917 cb3d 31a0 ed3d e174 d43d 8ca7 993d
000001e0: 4db5 ad3d da31 5038 7fa9 0e3e 2e0d c93d
000001f0: 458d bcb6 0e05 f93d 509e c73d 65eb fbb5
0.114681855 0.08773787 -0.00018489413 0.10003822 0.081538446 0.14739138 3.9342165e-05 0.12955318
0.113714024 0.06745081 -9.796559e-08 -4.0190307e-07 -0.008780556 0.07888198 0.07424428 0.08232283
-0.0002851061 0.11727716 -3.7316187e-07 0.1183235 0.112324424 0.12839143 0.08847654 0.08551412
0.08108216 -8.925864e-06 0.11592744 0.12070967 0.09689308 -2.2266272e-07 0.099444576 0.09908202
-4.591079e-06 0.086105205 0.11633168 0.09324055 0.081905864 -1.8564266e-06 0.095749035 0.095996566
0.10926234 -0.0002544611 -0.0032619585 0.08100696 0.09530312 0.09209144 0.078581356 0.07610098
0.06595866 0.11483212 0.07756161 0.111619145 0.07106541 -2.1698155e-05 -2.476034e-06 0.12585117
0.07024723 0.06835856 -1.7689354e-05 -0.00014314074 0.08261248 0.11420747 0.07217982 0.084710486
-0.00019533322 -4.7249762e-07 -9.382017e-05 0.08172972 0.08440798 0.08239861 0.096809104 -1.2874894e-07
0.13105144 0.10710891 0.08916955 0.13198555 -3.7435998e-06 0.093017235 0.11035415 -5.8823545e-05
0.10461441 0.077887505 -8.734771e-06 -8.4314996e-07 0.09643149 0.08507415 0.10241512 -2.7223803e-07
-2.000169e-05 0.121021844 0.10852071 0.09305861 -3.4637878e-07 0.09988119 -4.013749e-05 0.095128894
0.098525375 0.10216176 0.084088616 0.09499494 0.08514196 0.10276672 -2.5145391e-05 -1.6571952e-06
0.08300857 0.1286581 -1.2102631e-05 0.07520714 0.116014116 0.1017548 -0.004050181 -1.9243934e-07
0.08102899 0.07543168 0.08928854 0.08572478 0.09916634 0.1160282 0.103738554 0.0750266
0.08481846 4.9637492e-05 0.13931845 0.09816967 -5.6192825e-06 0.12159167 0.097469926 -1.8769466e-06

first_head.2.weight f4 [7, 128]
00000000: 6776 bbbd 5585 8cbe 2b7c 99b8 ff41 ae3e
00000010: 18ba 82be ae68 aabd 5dec 9038 7912 8f3e
00000020: c424 efbe 8db7 81be 6307 5633 322a b6b3
00000030: 013c 15bc cf6a 6fbe 0e79 b23e 8801 43be
00000040: 9a60 b4b7 91e2 0d3e 4a8e b233 0aeb 10bd
00000050: de9d 993e 2a4c eabe 91c5 bcbe c2a5 f13e
00000060: a2e9 b93d 7c22 1737 2f88 01be 8324 3ebb
00000070: 5b66 bb3d 6d7d 6634 319d 923e 2604 9e3d
00000080: e103 6bb5 9085 9e3e f8c9 393e b3f3 3a3e
00000090: b7b8 4dbe 32d6 bbb3 b90d 38be 8185 ee3e
000000a0: 92f0 c63e d0c8 89b8 77a6 e8bb 97ed 4f3e
000000b0: 4760 723e e11e c3b9 4c35 5dbe 3c70 01be
000000c0: 85bc da3c 7631 ad3e 3bd3 d03e 30a4 0e3e
000000d0: 4a33 d33e f50e fc37 641b 97b5 59cb 903d
000000e0: 0152 10be 7905 65be 0551 f138 177c 48b9
000000f0: daaf 4bbe 0c68 04bf d23a 223e 21ab b03e
00000100: 0e63 19b8 b07c c634 484d 92ba f6ca 8e3e
00000110: ea24 b5be faaf 313d 8c2a 273e dc69 86b2
00000120: cac1 243e 9d12 8a3e 0c44 813e 9d20 1ebf
00000130: 2f4e dcb6 7159 e73e 913a babe 6d48 98b8
00000140: b133 f7bd 2d7b 92be bd11 bab7 d21f 66b2
00000150: b3dc 2cbe 552e 66be fc23 9bbd 6d3e 3eb4
00000160: ca39 1536 fea6 113e 456e 5abe 526d 083e
00000170: 9422 88b4 aefd 7dbe 4153 3938 1be4 b7bd
00000180: 6a84 ba3e 213c 7cbd ce72 afbe 3058 a93e
00000190: 0c09 a5be 278d 543e 215d 8ab8 ae28 8ab5
000001a0: ecb0 6a3d 5a09 1bbd 6d3e b635 efa6 79be
000001b0: 7058 bcbe 52a0 b0be c3bd 193c 4f50 1833
000001c0: 1531 5abe 57e0 87be 0b95 a93d 531b c0be
000001d0: abe7 afbe 735c 86be 2299 7b3e 825c 57be
000001e0: 5075 9fbe 5cbf 393a 7555 113e 7b11 81be
000001f0: 9df4 8c34 2a27 bf3c 4ebc de3e 9072 8237
00000200: 343d 0b3d 32a3 45bd 9716 2137 d06a a9be
00000210: b161 f43c 320e 703e 97cd 7837 3cf3 5dbe
00000220: 90b4 4c3e 1abf 07be 7524 d3b1 90ee 9cb4
00000230: 1ea4 a6bc 6959 c53e 3ddb 983d 556f 443e
00000240: 3255 5239 5320 473e 9f02 ebb4 b72b 9abe
00000250: 92aa cb3d 791f 0fbf 119f 583d bd6b 51be
00000260: 7701 3ebe af11 5736 7071 b53d a8fd 9d3e
00000270: 7005 4a3d baf6 b1b2 8ba8 033e 55cd 9abe
00000280: 1dd8 acb3 dc71 373e e6d0 163e b687 c2be
00000290: 98f1 8fbe f7dd ac34 f301 4bbd 7fa2 413e
000002a0: f6b5 8dbe 73ac 9d37 2583 073a 1356 093e
000002b0: b91b 493e 6be4 4e3e 48a4 513e 67a5 85be
000002c0: 60c0 aa3e 9da9 5a3c f0b2 8fbe 14f8 143c
000002d0: 582c afbe 95c0 c338 3215 2e35 4cd3 673e
000002e0: e47c 193f 6ed8 b63e 5cf8 aa39 3e31 9d38
000002f0: 5c6c 5fbe d065 103c cad7 4c3e f7fd e33e
00000300: 7283 29b9 be4a 70b5 30d0 8f3a 9b80 89be
00000310: 497e c53e b1da aabd d6ce 8d3e 8881 bb32
00000320: c347 7e3e fc11 163e b45a 2dbe dd5b 423e
00000330: dec2 1ab6 f0b0 1a3e 5dd3 d4be 5903 5b38
00000340: 38ed 88be c1ca 4b3e 1dac 9737 cdb7 37b4
00000350: 73da 943e 02e3 243e b642 513c a202 50b3
00000360: 3156 62b6 26da 1cbf 289e 9b3e 92e2 b2bc
00000370: 4590 16b4 dd47 b7be 0bb3 2e39 5ba8 a0be
00000380: 7ddb a4be 7055 273e 06a9 9dbe a919 d8be
00000390: 47a0 cb3e 75f0 f8bc fd4b ee37 378e 5f33
000003a0: 8926 fd3d 7ff5 17bf f082 cbb5 8c76 79be
000003b0: 27c4 bd3e a6e5 7a3e 3d71 18bc 1c40 82b4
000003c0: a0f8 ea3e 4730 113b b0e0 b03d 8dff 673e
000003d0: 2cb2 04bc fc21 913e 1606 cf3c dc79 963e
000003e0: 71b7 0d3e 3930 e139 b82e 46bf bce7 aebe
000003f0: 577f 9236 315c 0abf f859 aa3e a0b8 1a3a
-0.09153443 -0.27445474 -7.3187366e-05 0.34034726 -0.25532603 -0.08320747 6.910481e-05 0.2794378
-0.46707737 -0.2533535 4.9832476e-08 -8.482711e-08 -0.009108544 -0.23380588 0.34857982 -0.19043553
-2.1502656e-05 0.1385596 8.314653e-08 -0.0353804 0.30003256 -0.45761234 -0.3686948 0.47196776
0.09077765 9.00833e-06 -0.12649606 -0.0029013462 0.09150382 2.1466049e-07 0.28635553 0.07715635
-8.7549967e-07 0.30961275 0.18143451 0.18257026 -0.20089994 -8.746828e-08 -0.17973985 0.4658623
0.38855416 -6.570073e-05 -0.0070999223 0.20305477 0.2366954 -0.00037216305 -0.21602362 -0.1264047
0.026701221 0.33826798 0.40786156 0.1392982 0.41250068 3.0047706e-05 -1.1258348e-06 0.070700355
-0.14093782 -0.22365369 0.000115068666 -0.00019119713 -0.19891301 -0.5172126 0.1584275 0.3450556
-3.6570294e-05 3.6971096e-07 -0.0011161948 0.27889222 -0.35379726 0.043380715 0.16324824 -1.5647792e-08
0.1608955 0.26967326 0.25247228 -0.61768514 -6.5656127e-06 0.45185426 -0.36372808 -7.261415e-05
-0.12070406 -0.286096 -2.2181188e-05 -1.3394997e-08 -0.16881065 -0.22478612 -0.07575223 -1.7717839e-07
2.2236368e-06 0.14223859 -0.21331127 0.13322952 -2.5357133e-07 -0.24803802 4.4184973e-05 -0.089790545
0.3642915 -0.06158078 -0.34267277 0.33075094 -0.32233465 0.2075697 -6.5976994e-05 -1.0293641e-06
0.057297632 -0.037850715 1.3578225e-06 -0.24380086 -0.36786222 -0.34497315 0.009383622 3.5463298e-08
-0.21307786 -0.26538345 0.08280381 -0.37520847 -0.34356436 -0.26242408 0.24570134 -0.21031383
-0.3114419 0.0007085705 0.14192756 -0.2520865 2.6255012e-07 0.023334105 0.4350304 1.5550555e-05
0.033993915 -0.04825134 9.601607e-06 -0.33089304 0.02983174 0.23442915 1.48298195e-05 -0.21674818
0.19990754 -0.13256493 -6.145053e-09 -2.923084e-07 -0.020341929 0.38544777 0.074636914 0.19183095
0.00020058898 0.19445924 -4.3774068e-07 -0.30111477 0.09944643 -0.559074 0.052886073 -0.20451255
-0.18555246 3.204779e-06 0.08859527 0.30857587 0.04932159 -2.071771e-08 0.12857263 -0.3023478
-8.048685e-08 0.17914528 0.14728126 -0.37994164 -0.2811401 3.2198997e-07 -0.049562406 0.18909644
-0.27677888 1.8796161e-05 0.00051693834 0.13411741 0.19639482 0.20204322 0.20472825 -0.26102754
0.33349895 0.013346103 -0.28066206 0.00909235 -0.3421352 9.334196e-05 6.4850894e-07 0.22639197
0.5995619 0.35711998 0.0003260997 7.4955155e-05 -0.2181868 0.0088133365 0.20004192 0.44529697
-0.00016166063 -8.951573e-07 0.0010972079 -0.2685593 0.3857291 -0.08342493 0.27696866 2.182857e-08
0.24832062 0.14655298 -0.16929132 0.18980356 -2.3061216e-06 0.15106559 -0.41567507 5.2216787e-05
-0.26743484 0.19901563 1.808075e-05 -1.711007e-07 0.29072914 0.16102222 0.012772253 -4.843117e-08
-3.3726794e-06 -0.6127037 0.303941 -0.021836553 -1.4022324e-07 -0.35797015 0.00016660632 -0.31378445
-0.32198706 0.16341186 -0.30793017 -0.42207077 0.3977072 -0.030388096 2.8407196e-05 5.2050577e-08
0.123608656 -0.5935897 -1.5162786e-06 -0.24361628 0.37063715 0.24501666 -0.009304342 -2.4261033e-07
0.4589281 0.002215402 0.08636606 0.22656079 -0.00809912 0.2834624 0.025271457 0.29389846
0.13839509 0.00042951273 -0.7741504 -0.34161174 4.3659634e-06 -0.5404692 0.33271766 0.0005902145

first_head.2.bias f4 [7]
00000000: f382 2cbc 09b5 9a3b 8637 34bb bfb4 4c3c
00000010: dc84 193c 6f21 923a 18b8 8f3a
-0.010529268 0.004721288 -0.0027498915 0.012494265 0.009370055 0.001114888 0.0010964898
